results/dropped_description_embedding/best_gcn_model.pth (torch, 303851 bytes, 13 tensors)

node_embedding.weight f4 [64, 770]
000000 5e 9a 93 be f1 93 a6 bc 32 d5 e4 3c 13 02 3a 3d
       -0.2882871 -0.020334216 0.02793369 0.045412134
000010 8b f1 8d 3e c4 25 64 3d 39 f0 8b be 45 30 be bc
       0.27723345 0.05570008 -0.27331713 -0.023216376
000020 63 e5 18 be 57 4d 54 be e0 58 04 bf 20 3c bd 3d
       -0.14931254 -0.20732628 -0.5169811 0.092399836
000030 fd ac 24 bc b7 b8 48 be fd 3e 23 3e 75 00 a2 3d
       -0.010051009 -0.19601713 0.15941997 0.079102434
000040 56 69 18 3e 67 5b 97 3e 65 42 93 3e fa d1 da bd
       0.14883932 0.29561922 0.28761593 -0.10684581
000050 c5 25 b3 be 4d d0 47 be bc 19 05 3f 20 f9 48 be
       -0.34989753 -0.19513054 0.5199239 -0.19626284
000060 7e 1f aa bd be b0 9e be bb a6 bd be b8 33 4d bc
       -0.08306788 -0.3099422 -0.37041268 -0.012524538
000070 ab 16 da 3d e9 18 36 3e 53 a3 42 bc 14 03 ca be
       0.10648855 0.1778294 -0.01187976 -0.39455473
000080 ed 80 a8 3b c8 37 1e be 72 11 0d 3e 3b aa e0 3d
       0.0051423223 -0.15450966 0.13776186 0.10969969
000090 05 6e ce bd 5c 3e 91 3d db 1a 23 be 6a 6c 11 3e
       -0.10079578 0.07091972 -0.15928213 0.14201513
0000a0 6d 7a a7 be 48 41 9b 3e 59 1f 85 3e ca 49 1f 3d
       -0.3271059 0.30323243 0.2600048 0.03888873
0000b0 6a c4 53 be 0b 98 9b bd 34 05 d7 3c 07 e8 95 be
       -0.20680395 -0.07597359 0.026247598 -0.29278585
0000c0 b8 6a 13 be 2b 68 86 3e 40 8d 04 be ec 83 ec bc
       -0.14396179 0.2625135 -0.12944508 -0.028871499
0000d0 cb 94 ca bd 39 8b 8b 3c 79 e0 22 3e c3 a3 5c be
       -0.09891661 0.01703416 0.15905942 -0.21546845
0000e0 1e 5f dd 3c 39 0f 8b 3c b1 bb 91 3e bd 19 a7 bc
       0.027022894 0.016975032 0.2846351 -0.020398015
0000f0 4a 36 17 be fc 70 63 3d 5f 36 82 3e a4 72 59 3e
       -0.14766803 0.055527672 0.25432107 0.21235138
000100 f7 f4 e9 bd 94 e0 08 3e c0 06 a0 be d4 06 16 3c
       -0.114236765 0.1336692 -0.3125515 0.009156901
000110 e9 d5 1a 3d 4a 2d ab be f4 61 d8 bd 91 be 80 3e
       0.037801657 -0.3343299 -0.10565558 0.2514539
000120 36 7a cb bc 1b 51 7e bd c8 c1 a2 3d 32 7c 69 3e
       -0.024838548 -0.062089067 0.07947117 0.22801283
000130 cb d5 73 bd a0 e6 82 3e c1 4c 31 3e 51 b7 b3 bd
       -0.05953006 0.25566578 0.17314436 -0.08775199
000140 79 69 01 bd 02 c4 af 3c c4 7d ee 3d 72 1c 0f be
       -0.031594727 0.021455768 0.11645082 -0.13975695
000150 00 4f cb bc 58 d9 23 3d 5f e0 68 3d 15 cf 10 be
       -0.024817944 0.040002197 0.056854602 -0.14141496
000160 9d df 56 3e 9b 46 b1 bd df 23 80 3d 22 51 72 be
       0.20983739 -0.08656045 0.06256842 -0.23663762
000170 23 15 7b 3c 39 43 28 be 61 0a 71 be 8b 79 bd bd
       0.015324864 -0.16431893 -0.23539115 -0.09251698
000180 ec 1e 05 be 6b 16 3e bd f6 dd ec bc b6 cd e2 bd
       -0.13000077 -0.0464081 -0.028914433 -0.110743925
000190 6e 4b d8 3d af 3e 23 3d ca 1f 1d be e5 53 c5 be
       0.10561262 0.0398547 -0.15344158 -0.3854057
0001a0 93 96 81 bd fa 77 a4 3b 20 ea 29 be c8 a3 16 3e
       -0.06327548 0.005019185 -0.16593218 0.14710915
0001b0 0e 8e 94 be 8a e1 d6 bd 86 da da b8 12 b6 7b be
       -0.2901463 -0.10492237 -0.00010435753 -0.24581173
0001c0 a7 d2 aa bd a6 25 d4 bb e5 35 63 be 15 bd ae 3e
       -0.0834096 -0.0064742146 -0.22188528 0.34128633
0001d0 df 23 74 bd c4 3b 3b 3e 9c f1 45 be 22 a3 71 3c
       -0.05960452 0.18284518 -0.19330448 0.014748367
0001e0 fd 94 b3 bd c5 73 89 3e dd 32 4c 3d 00 ed 95 3d
       -0.08768652 0.26846138 0.049853195 0.07320595
0001f0 11 a5 18 be a7 fe e4 bd 5b a7 5b 3e 6e 28 0f 0f
       -0.14906718 -0.111813836 0.2145056 7.058231e-30
000200 fc d4 8b bc 54 69 50 be d2 0d c3 be 9f 83 c8 bd
       -0.017069332 -0.2035268 -0.38096482 -0.0979073
000210 ac 0c d2 3c 77 8d 07 be 9e 8f d7 bc e3 b2 e2 bd
       0.025640808 -0.13237558 -0.0263136 -0.11069276
000220 36 f2 8b be 8c 82 73 3e 90 76 fb bd 18 56 35 bd
       -0.2733323 0.23780268 -0.122784734 -0.04427156
000230 56 31 2d be 47 d1 90 3e e6 33 03 3d 29 12 41 3e
       -0.16913351 0.28284666 0.032031916 0.18854584
000240 89 fd 86 be 13 34 6d 3d 71 35 03 3e 35 99 3b 3d
       -0.26365307 0.05791099 0.12813355 0.045800406
000250 d1 ef 50 bd 5e fd f0 bc 68 7f 1f bc 23 47 03 3d
       -0.051009957 -0.02941769 -0.009734966 0.032050263
000260 1e 2a 11 3e bd 65 8d 3d 64 47 a1 3d 11 56 17 bd
       0.14176223 0.06904171 0.07874945 -0.036947314
000270 f2 95 8d 3d 8a aa 96 bd 84 93 3d 3e 0a ce b1 3e
       0.069133654 -0.073567465 0.18513304 0.34727508
000280 21 7e ef bc 37 fc 3d 3d bf fd d5 bd 82 83 49 3e
       -0.029234948 0.04638311 -0.10448789 0.19679072
000290 93 75 2a 3d 1a 7f ad bd 2d dd 67 3e 72 1a 15 be
       0.041616034 -0.08471508 0.22642966 -0.1456087
0002a0 8a 93 96 bc 7e 69 11 3e 57 51 3b be 6a 99 3c 3d
       -0.018380899 0.14200398 -0.18292747 0.046044745
0002b0 2f 4a 0c be a8 5a 32 3d c7 ae 3c be a4 0b 59 bc
       -0.13700174 0.043543488 -0.18426047 -0.013247404
0002c0 fc 04 7a bd 90 44 38 3d 4d 8b 91 3e 6b 11 48 3e
       -0.06103991 0.04498726 0.2842659 0.19537894
0002d0 19 63 2e 3e 6e ce eb 3c dd 45 95 3d 3a 04 8c 3e
       0.1702999 0.028784957 0.07288716 0.27346975
0002e0 44 37 a3 bd 12 89 6d 3d 86 77 b9 bc 2a 07 6a be
       -0.079695255 0.05799205 -0.022640001 -0.22854295
0002f0 cc 64 fa 3c e7 17 d6 bd 95 61 00 3c 87 52 de 3d
       0.030565642 -0.10453778 0.007835765 0.108555846
000300 11 f6 e8 bd 14 2d 18 3d 94 0f 92 3e 4f 1f 65 3e
       -0.113750584 0.037152365 0.2852751 0.22375225
000310 88 e4 31 be 43 a3 02 be 22 73 a4 bc 67 99 7e be
       -0.17372334 -0.12757592 -0.02007443 -0.24863206
000320 23 0b 1d be 66 d7 46 be a4 0f 5b 3e 42 72 0d 3e
       -0.1533628 -0.19418105 0.21392685 0.13813117
000330 c9 bc 02 3d 38 a3 a4 bd 99 b9 77 3e 22 83 3b bd
       0.03191832 -0.08038944 0.24191894 -0.045779355
000340 02 d6 47 be 0b 23 d5 bd bc e5 68 3e f0 67 82 be
       -0.19515231 -0.104070745 0.22743887 -0.25469923
000350 d9 64 84 3d 81 7d a8 be 01 e5 65 3d 02 6d a1 bc
       0.06464548 -0.32908252 0.0561266 -0.0197053
000360 fe 41 5a 3e b1 f3 f1 3d 48 91 8d 3e b1 f6 86 3e
       0.21314237 0.118140586 0.27649903 0.26360086
000370 a1 53 e7 be b2 b5 cc 3e 9e 69 1e 3e 66 9f bc 8e
       -0.4518099 0.39982373 0.15469977 -4.6499073e-30
000380 02 dc 08 bd 07 9b 7c 3e 4c ac 37 3e 54 8d 98 3e
       -0.03341294 0.24668513 0.1793682 0.29795325
000390 53 3f 39 3e d3 65 81 3e 3d 41 62 bd 7d e8 9c 3d
       0.18090563 0.25272998 -0.055237997 0.07661531
0003a0 85 a8 90 3b ce 11 ff bd 6b fa 11 3e 85 7b 95 be
       0.0044146203 -0.12454568 0.14255683 -0.291958
0003b0 fa 3b 41 be d2 68 2d be 9f 06 02 3e 60 4a a3 3d
       -0.18870535 -0.16934517 0.12697838 0.0797317
0003c0 3d 20 3e 3e 7e c4 16 be 34 c7 9c bc a1 de 93 bd
       0.18566985 -0.14723393 -0.019137956 -0.072201975
0003d0 2e e9 61 bd d4 a8 96 ba 86 84 25 bc 3d 01 78 bd
       -0.055154018 -0.0011494406 -0.010102397 -0.060548056
0003e0 42 3f c4 3c 10 4e 53 3b 52 99 aa be e7 ff 7b 3e
       0.023955945 0.0032242574 -0.333201 0.24609338
0003f0 4e ea a5 bd dc 7e 80 3e 78 ab dd 3d fc 47 bc be
       -0.08101331 0.25096786 0.10823721 -0.3677367

node_embedding.bias f4 [64]
000000 5f 2c 1f 3e b5 b8 8b bd f4 73 70 bd db e7 33 3d
       0.1554427 -0.068223394 -0.05870433 0.043922286
000010 f5 df 48 3d 67 98 d8 bd fd 19 b7 bd 1a de 14 be
       0.049041707 -0.105759434 -0.08940504 -0.1453785
000020 cc 49 4a 3c 8a d7 46 be e6 ec 04 3e ab 40 e4 bd
       0.012346696 -0.19418159 0.12980995 -0.11145147
000030 ad 1e ac bd fd 7b db 3d 51 75 d3 bd 84 56 38 3e
       -0.084042884 0.10717008 -0.10325111 0.18001753
000040 d0 cb 0c 3d e3 c1 24 be 25 a4 74 be 50 91 39 be
       0.03437406 -0.16089587 -0.23890741 -0.18121839
000050 71 3f 0a 3d c3 25 c3 bc 4f 11 74 3e a1 cd 2f be
       0.03375191 -0.023821717 0.23834728 -0.17168285
000060 4c 1e 35 be 8c d7 92 3d f4 eb 8c 3e ae ca 32 3c
       -0.17687339 0.071700186 0.27523768 0.01091258
000070 d2 3d 7f 3d d2 54 15 be 7b 0a af bd 4d 11 22 bc
       0.062314816 -0.14583138 -0.08546921 -0.00989182
000080 2d 35 a7 be 53 6f 2a be cf 7e 0c be 77 7b 25 3e
       -0.32657757 -0.1664403 -0.13720249 0.1616038
000090 0c 31 fe 3d 19 97 51 bd 79 cc 40 be 41 9f b8 3c
       0.12411699 -0.05116949 -0.18828 0.022536876
0000a0 6a d3 4d be 8d 03 d1 3d 34 bb 42 3e 74 53 f7 bd
       -0.2010018 0.102057554 0.19016725 -0.12076464
0000b0 50 a0 6f bd 4c df cc bd 4d 0b bc 3d c4 c4 6f be
       -0.058502495 -0.10003528 0.09181843 -0.23414904
0000c0 75 92 b3 3c bf 22 1e be 88 de d1 3b c2 45 53 be
       0.021920422 -0.15442942 0.0064047016 -0.20632079
0000d0 3a 5f 90 be b0 07 58 bd 30 f6 c8 bc d7 cb 85 3e
       -0.28197652 -0.052741706 -0.024531454 0.2613208
0000e0 50 ff 85 3d 25 39 f4 bd a1 3a 07 3e 12 f5 8d 3e
       0.065428376 -0.11924962 0.13205959 0.27726036
0000f0 f3 54 30 3e c4 2c 7f be 35 df 07 be 5a 07 4f 3d
       0.17219906 -0.2491942 -0.1326874 0.05054412

gcn.convs.0.bias f4 [64]
000000 02 8f d1 bd 04 dd 1a bf b6 6b 51 be 6d 5d 59 bf
       -0.10232355 -0.60493493 -0.20451245 -0.8490818
000010 c1 ad 0f bf d1 f9 8f be 6e 32 24 bf e5 08 81 bf
       -0.561245 -0.28120282 -0.6413945 -1.0080839
000020 d9 35 a7 bd c0 a4 04 bf 92 29 93 bf 40 a3 6f bf
       -0.081645675 -0.5181389 -1.1497061 -0.93608475
000030 9a 36 85 bf e5 2b 2a bf 37 ec 7f bf 93 5c 56 bf
       -1.0407288 -0.6647323 -0.9996981 -0.8373501
000040 a1 d2 0f bf eb 29 89 bf 85 c5 74 bf 09 1b 50 bf
       -0.5618077 -1.0715917 -0.9561389 -0.8129125
000050 c4 36 94 bf 9a d3 7c bf a6 aa 71 be 51 c3 63 bf
       -1.1579213 -0.9876038 -0.23600253 -0.88969904
000060 df 3f 76 bf ed 6b 3c bf 35 07 40 bf 9a 9e 80 bf
       -0.9619121 -0.7360218 -0.75011 -1.0048401
000070 b4 9e 9f be b8 43 92 bf 90 e0 33 be e6 c8 66 bf
       -0.31175768 -1.1426916 -0.17566133 -0.90150297
000080 ab 75 a6 be ad 62 58 bd 49 27 6b bf ee 95 dd be
       -0.3251165 -0.05282848 -0.9185682 -0.4327845
000090 07 bb 87 bf e2 58 e0 be 27 f1 0b bf 7b 41 67 bf
       -1.0603951 -0.43817812 -0.54664844 -0.9033429
0000a0 f4 3c 01 bf ad cb c0 bd 31 3f 3b bf 83 9e 8e bf
       -0.5048363 -0.09413848 -0.731433 -1.1142124
0000b0 17 35 09 bd f1 47 69 bf 0f 3d 83 bf 5a a4 86 bf
       -0.033497896 -0.911254 -1.0253009 -1.0518906
0000c0 59 e4 24 bf 3d d6 73 bf ad 23 06 bf a3 42 81 bf
       -0.6441093 -0.95248777 -0.52398187 -1.0098461
0000d0 c5 16 5b bf b8 d6 84 bf a3 b5 61 bf a8 08 4f bf
       -0.8558162 -1.0378027 -0.8816778 -0.80872583
0000e0 10 aa 8e bf 01 aa 80 bf 6e 86 69 bf 97 03 2b bf
       -1.1145649 -1.0051881 -0.9122075 -0.6680235
0000f0 f7 b3 7e be 2f 2b 18 bf e0 49 71 bf f2 e7 4d bf
       -0.24873339 -0.5944089 -0.9425335 -0.80432045

gcn.convs.0.lin.weight f4 [64, 64]
000000 c7 a9 84 3d 9b 7f 2e bd 68 37 1b 3e 0b e8 95 3d
       0.06477695 -0.042602163 0.15157855 0.07319649
000010 a4 09 1c 3e 6c 1f c3 3d e7 65 ba bd 32 b3 37 be
       0.15238053 0.095274776 -0.091014676 -0.17939451
000020 5c 00 45 3e 1b 8e bf bc f2 10 2a 3c 3c b4 83 be
       0.19238418 -0.02338319 0.010380017 -0.25723445
000030 bc 49 b5 bd ae f4 ec 3d 37 7d c9 bd a3 c9 3e 3b
       -0.08851954 0.115701064 -0.09838336 0.0029111884
000040 79 a9 40 bc 9a a8 a6 bd bd 98 18 3e e6 3f d2 bc
       -0.011759155 -0.08137627 0.14902015 -0.025665235
000050 88 3a 18 be 2f 89 b4 bd 80 af f3 3d 32 4a 20 be
       -0.14866078 -0.08815228 0.11898708 -0.15653303
000060 02 73 68 bd 3a 7d 6e 3d 43 71 c0 3d a9 13 dc bd
       -0.056750305 0.058224894 0.09396603 -0.107459374
000070 84 ea 00 bc ff 78 9d bd 1a 02 d2 bd 63 3b 5c 3d
       -0.007868413 -0.07689094 -0.10254307 0.053767573
000080 60 c5 c8 bd c8 28 ab be 13 3d f9 3d 0b 83 19 3e
       -0.09803271 -0.3342955 0.12169852 0.14991395
000090 09 20 7e 3d de d2 e5 bd 65 35 22 be 9f ee d6 3c
       0.06204227 -0.1122186 -0.15840681 0.02623683
0000a0 ae 59 a6 bd 5f 2a 6d 3d eb e6 c3 3c ca 21 85 be
       -0.08122574 0.057901736 0.023913821 -0.26002342
0000b0 f5 63 cb bc 6c 56 b7 bd c4 12 45 3c d1 68 c0 bb
       -0.024827937 -0.089520305 0.0120284 -0.00587187
0000c0 17 e9 9a 3d 0d 08 10 be df 28 f9 bb d9 26 b6 bd
       0.075639896 -0.14065571 -0.007603749 -0.08894128
0000d0 7a 86 2d be cb 5e cd 3c cc de 1b 3c 91 34 59 3e
       -0.1694583 0.025069615 0.009513568 0.21211459
0000e0 e8 39 7b bd 82 91 96 3c 11 e1 98 3d 39 db a3 3e
       -0.06133452 0.01837993 0.07464803 0.3200319
0000f0 e5 7f 56 bd 17 cd 15 bd 94 d4 8f bd eb 23 df 3d
       -0.052368063 -0.036572542 -0.07022968 0.10895523
000100 ee 99 04 3e 56 83 b6 3d f8 a4 1b 3e db 9f 02 3e
       0.12949345 0.08911769 0.1519965 0.12756293
000110 20 5d 0c be 57 7b 1f bd db cd 22 3d ff b6 a7 bd
       -0.137074 -0.038935985 0.0397471 -0.081892006
000120 73 2e 5c be 50 d9 dd 3e e9 d3 8d bd e6 80 f4 bd
       -0.21502094 0.4332986 -0.06925184 -0.11938648
000130 2d f7 ca bc d0 56 4b be b2 7a 49 be b3 84 94 be
       -0.024776066 -0.19857335 -0.19675711 -0.2900749
000140 93 ad 2e bd cd 79 29 3d 5d 04 44 3e a9 fa 72 3d
       -0.042646002 0.041375924 0.1914229 0.05932108
000150 a7 94 72 bd 06 e2 60 3e e6 e1 8d bd bf a6 56 3e
       -0.059223797 0.21961221 -0.06927852 0.20962046
000160 79 b0 24 3e 42 c9 df bd 52 55 95 bd 86 0f 36 3e
       0.16082944 -0.10927059 -0.07291664 0.17779359
000170 a2 06 ac 3d ab 66 1b 3e 12 36 d9 be 87 c8 ac 3d
       0.083997026 0.15175883 -0.42424065 0.08436685
000180 7c 61 89 bd 75 21 8f 3e ea b9 fd 3d 1c ed 8c be
       -0.06708047 0.27955213 0.12388976 -0.2752465
000190 23 10 78 3d 1b 77 27 3e 9b be 22 3d fc 66 ae 3d
       0.060562264 0.16354029 0.039732557 0.085157365
0001a0 a7 3e b5 3d 13 e0 5c be a4 1b 1f bd 52 ec 5d bd
       0.088498406 -0.21569853 -0.03884472 -0.05418045
0001b0 82 17 62 3e 3f 1f 9d 3e 68 54 8c 3d 6f a3 66 ba
       0.2207928 0.306879 0.06852037 -0.0008798157
0001c0 0e 39 b4 3e bf f9 36 be b9 aa 8a 3e 95 54 44 bb
       0.3519978 -0.17868708 0.27083376 -0.0029957641
0001d0 e9 6d 2d 3e da 27 e9 bc ae 82 84 bd 56 78 4f 3d
       0.16936459 -0.028461386 -0.06470238 0.05065187
0001e0 5a f8 be be 1e 54 10 be 12 b8 62 be 77 1f ab be
       -0.37298852 -0.14094588 -0.2214053 -0.33422443
0001f0 74 cd 6d bc 75 b7 ea 3d f3 da 9b 3d 3f 1d 84 bd
       -0.014514316 0.11460773 0.076101206 -0.06450891
000200 5d ed 05 3e 46 1e ab 3c f6 09 03 3e 9a 1b 12 3d
       0.13078828 0.020888459 0.12796769 0.035670854
000210 2e 45 af 3b 2a 8f 54 3d 3e 99 6d be dc 8c 05 be
       0.005348823 0.051894344 -0.23202989 -0.13042015
000220 d2 b0 97 3e aa a2 28 be e4 3d 83 3d e1 0c e4 bd
       0.2962709 -0.16468301 0.06408289 -0.11135269
000230 0a 13 e9 bc bc 8f 21 3e a2 99 2f be 08 e1 d2 bc
       -0.028451461 0.15777487 -0.1714845 -0.025742069
000240 c7 60 c3 3d 00 1e 46 be 19 9a 79 3b 90 0b 2d 3e
       0.09539943 -0.19347382 0.0038086234 0.16898942
000250 09 e6 df bd a2 af 93 3d 20 d2 07 3e f7 ba 0c be
       -0.109325476 0.07211234 0.1326375 -0.13743196
000260 6d 07 ec bd d3 40 8d 3d c7 f0 03 3e 73 c4 69 bb
       -0.11524854 0.0689713 0.12884818 -0.0035670071
000270 c3 2a 99 bc d4 53 c3 bd 9f d3 e3 bc 61 d1 14 3e
       -0.018697148 -0.09537473 -0.02781087 0.14532997
000280 f4 c3 fc bd 6d c8 a7 be fd 87 b7 3d f6 22 49 bd
       -0.123420626 -0.327701 0.089614846 -0.049105607
000290 b5 01 4a 3d aa a2 8d be 20 a4 76 be 34 54 89 3d
       0.049318034 -0.27663165 -0.24086046 0.067055136
0002a0 0a a2 69 be 8f 09 7d 3d c0 12 46 3d da d9 b1 be
       -0.22815719 0.061776694 0.048357725 -0.3473652
0002b0 e2 cc a4 bd 3e 72 18 bc 71 9c 83 3c 9d 33 9c bd
       -0.08046891 -0.009304581 0.016065808 -0.07627032
0002c0 63 c3 98 3d 9e a0 14 bd df fc d1 3d 56 6c 03 be
       0.07459142 -0.03628599 0.102533095 -0.12834296
0002d0 ac 5a 81 be bd fd 22 3d 0a d3 0c 3e 7c 33 6f 3e
       -0.2526449 0.039792765 0.1375238 0.23359483
0002e0 26 22 c5 bd e2 41 e8 bd 05 5b 79 bc 18 eb e6 3e
       -0.09625654 -0.11340691 -0.015219455 0.45101237
0002f0 5d bc 81 3d c6 73 01 3d 1c e9 ea bd c8 9e 17 3c
       0.063347556 0.03160455 -0.11470243 0.009254165
000300 73 dc 36 3e be 04 b3 3d 80 2a e0 3c 95 18 37 be
       0.17857532 0.08741139 0.027364016 -0.17880471
000310 da e0 ed be 07 cc 3b be 61 49 3f be ae a1 8d 3d
       -0.4646061 -0.18339549 -0.18680336 0.069156036
000320 d2 7b eb be 18 4f ac be 76 e4 05 3f 03 f1 18 3e
       -0.45992905 -0.33654094 0.5230173 0.14935689
000330 12 5b 68 be 8c 49 c1 3c a1 fc fe bd fb 6b e2 bc
       -0.2269099 0.02359464 -0.12450529 -0.02763938
000340 2d 8e 5e 3e 26 3d b2 3e 14 b4 44 bd e7 7b 0c 3e
       0.21733923 0.34812278 -0.0480233 0.1371914
000350 e9 71 25 be 55 b7 2c bd f9 fc 2d 3e ce 42 01 be
       -0.16156735 -0.042167027 0.16991033 -0.1262314
000360 af 96 57 3e 38 2d 05 3d d8 d6 f8 bb 22 3c 8a 3e
       0.21053575 0.032513827 -0.0075939707 0.26999003
000370 fb 58 b9 be 77 86 a5 3e 57 8f 1c bc da c1 4a 3e
       -0.362007 0.3232915 -0.009555659 0.19800511
000380 3b 58 7f 3d 1c 8e 02 bd 03 16 c8 3e ed 70 89 3c
       0.062340003 -0.031873807 0.39079294 0.01677748
000390 51 be e4 3d 0b af 24 3e 7a 94 b4 bd c1 a8 af 3d
       0.111691125 0.16082399 -0.08817382 0.08577109
0003a0 97 18 56 3d 75 60 f5 bc df b3 e1 bd eb d4 1a 3e
       0.052269544 -0.02995322 -0.11020636 0.15120284
0003b0 5a bf e2 3d c8 ea c2 bd a4 f8 15 bd 50 95 40 bd
       0.11071654 -0.09517437 -0.036614075 -0.047017395
0003c0 41 cd 90 bd 5e a1 48 be 88 2b db bb b6 19 41 3e
       -0.07070399 -0.19592807 -0.006688539 0.18857464
0003d0 55 f4 50 be 91 12 56 3e 00 74 5d bc c6 21 19 3e
       -0.20405705 0.2090552 -0.013516426 0.1495429
0003e0 f0 46 92 bd ca 6d 94 be 54 2c e8 3d 95 95 bd bd
       -0.071424365 -0.28990012 0.1133658 -0.09257046
0003f0 cf de 20 3e 92 c0 9d be 65 83 12 3c df f0 33 3e
       0.15709995 -0.30810982 0.00894246 0.17572354

gcn.convs.1.bias f4 [64]
000000 76 23 ae 3e f1 61 03 3e d3 c7 7d bf ad ab 67 be
       0.3401143 0.1283033 -0.9913303 -0.22624083
000010 e2 0a ad 3e a7 71 e7 be 3e 94 9c bf 50 ce be be
       0.33797365 -0.45203897 -1.223274 -0.3726678
000020 5d 77 a2 3d 1a 7d 3b bf a1 25 e4 3d ce a5 98 3e
       0.07932923 -0.73237765 0.1113999 0.29814
000030 43 68 f1 be 7a 83 95 bf 4d a2 b8 3e be e8 ec be
       -0.47149858 -1.1680748 0.36061326 -0.46271318
000040 20 d7 57 3e 5c da 29 3e ec fb 02 bf 89 1c c4 3c
       0.21078157 0.16587204 -0.5116565 0.023939388
000050 40 24 64 bf 2c 5d b0 3e 44 64 72 3e 9f b2 1a bf
       -0.89117813 0.34446084 0.23671061 -0.60428804
000060 f3 5a 9e be 80 53 c3 be 2d 94 a6 be 0c 64 e3 be
       -0.30928764 -0.38149643 -0.32534924 -0.44412267
000070 f7 a2 80 bf 89 12 0d bf d6 ae 45 bf 18 44 17 bf
       -1.0049733 -0.5510641 -0.77219903 -0.5908828
000080 1b cc 84 bf 02 22 a2 3e 17 7c 05 bf 45 c0 01 bd
       -1.0374788 0.3166657 -0.5214247 -0.031677503
000090 d1 79 c3 3e ef d0 be 3e 9a 4d 97 3e 57 55 ab bf
       0.38178876 0.3726878 0.29551393 -1.3385419
0000a0 2b 5a 8c bf 48 f6 75 3e 2c b0 0c bf f7 21 b2 3e
       -1.0965017 0.2401973 -0.54956317 0.34791538
0000b0 80 4a d7 be db f4 49 bf dc 6c c3 3e 1f c8 51 3e
       -0.42049026 -0.78889245 0.3816899 0.20486496
0000c0 62 aa 59 bf 02 fb 9b 3e c0 0c 1d bf 8b 2c 8f 3e
       -0.8502561 0.3046494 -0.6134758 0.2796367
0000d0 b3 91 97 be 1c ab e9 be 30 91 d8 3d f0 db 65 bd
       -0.29603347 -0.4563836 0.10574567 -0.056117952
0000e0 09 c7 e3 be 8d 64 ad be 88 9f bd be ee 4c b7 be
       -0.4448779 -0.33865777 -0.37035775 -0.3580088
0000f0 57 8c b9 3d c2 33 02 3d ba 3a 2e bf 4d 10 94 3e
       0.09059971 0.03178764 -0.6805836 0.28918687

gcn.convs.1.lin.weight f4 [64, 64]
000000 6e 36 d7 3d 32 16 81 be 04 bc 5b bc ab ff 66 be
       0.105084285 -0.25212246 -0.013411526 -0.22558467
000010 6f 7d 4b be 53 9c ed 3d 75 57 8d be 60 32 d2 be
       -0.19872068 0.11602082 -0.27605787 -0.41054058
000020 ac 06 e8 3d 9c 22 b9 bd 0e 37 53 be a5 91 ae be
       0.113293976 -0.09039804 -0.2062647 -0.34095493
000030 02 83 09 bf d6 c3 57 be e3 00 68 be 46 70 ab be
       -0.5371553 -0.21070799 -0.22656588 -0.33484095
000040 d8 63 15 be bd eb 6a be 40 a4 af be 83 3f 6e be
       -0.14588869 -0.2294149 -0.34305 -0.23266415
000050 f2 2a 95 be a6 61 9b be 80 60 dd 3d c5 ed 3c be
       -0.29134327 -0.30347937 0.108094215 -0.18450077
000060 3a 6c 8b be a3 e3 24 be c4 11 3b be 87 5f b9 bd
       -0.27231008 -0.16102462 -0.18268496 -0.090514235
000070 b8 71 be bd 18 92 2c be 28 52 bb bc f6 4e 8d be
       -0.09299034 -0.16852605 -0.022866324 -0.27599305
000080 b9 bf 38 3e 02 2e cd 3c 95 b2 ea be e3 f4 1f be
       0.18041886 0.025046352 -0.45839372 -0.1562076
000090 1b 46 02 bf de 41 89 be 4b 49 a0 bd b3 89 8b be
       -0.5088822 -0.26808065 -0.078264795 -0.27253494
0000a0 45 d4 8f bd 9f be 9b 3c 59 c3 cd bd 5b 46 e7 be
       -0.07022909 0.019011794 -0.10047025 -0.45170864
0000b0 c0 c8 90 3d 80 20 4c be 63 88 66 be db 44 ad be
       0.0706954 -0.19934273 -0.22512965 -0.33841595
0000c0 18 73 89 be a4 3e fa be d8 27 62 be 01 bc 8c be
       -0.26845622 -0.48875916 -0.22085512 -0.27487186
0000d0 85 55 3d be bf 40 b3 be f2 c4 d1 be 94 f1 14 be
       -0.18489654 -0.35010335 -0.4097057 -0.1454528
0000e0 f8 cb b3 be 66 7b d7 be e0 de 75 be 7c 6f 28 be
       -0.35116553 -0.42086333 -0.24010801 -0.16448778
0000f0 06 59 e8 bc 91 7c 2f be eb 65 c2 be 8c 54 c6 bd
       -0.028362762 -0.17137362 -0.37968382 -0.09684095
000100 b0 8e 2a 3e ab 39 da be cb 08 a4 3d e9 5f ef be
       0.16655993 -0.42622122 0.080094896 -0.4675286
000110 bd 1a c8 be 4a 19 14 3e d4 c4 58 be 82 e0 f3 be
       -0.390829 0.14462772 -0.21168834 -0.47632223
000120 0f f7 40 3d 5c 22 05 bf 6c 0c 25 bf 97 dc c3 be
       0.047110613 -0.52005553 -0.6447208 -0.38254234
000130 ca 33 e0 be 97 54 52 be 2b b0 e9 bd 8e 16 04 bf
       -0.43789512 -0.20540081 -0.114105545 -0.51596916
000140 5b da 3c be 18 f0 c4 be 5d 77 c1 be c9 a7 b6 be
       -0.18442671 -0.38464427 -0.3778638 -0.35674885
000150 11 75 2b bf 26 8b bd be 2f 09 31 3e 8d 7f ba be
       -0.66975504 -0.37020224 0.1728866 -0.3642544
000160 f5 f2 7e be 6f 0f e8 bd 86 69 4c be 4f 60 67 be
       -0.24897368 -0.11331069 -0.19962129 -0.22595333
000170 4d d8 7b 3e 39 8f d4 be d9 50 d4 3c b4 82 23 be
       0.24594231 -0.4151552 0.025917457 -0.15967828
000180 af 04 08 3e e6 a2 ca 3c 53 00 ad be 55 b0 00 be
       0.13283037 0.02473588 -0.3378931 -0.12567265
000190 64 69 07 bf 6e a0 d4 be 95 09 8b be 2a 47 c3 be
       -0.5289519 -0.41528648 -0.27155748 -0.3814023
0001a0 79 78 39 be f1 3d 87 3d 1c a6 ec be 77 78 2d bf
       -0.18112363 0.06603611 -0.4622048 -0.6776194
0001b0 36 18 9e 3c 79 64 e1 be 00 ed 99 be b0 7d f4 be
       0.019298654 -0.44021967 -0.3006363 -0.47752142
0001c0 75 30 62 bc 43 6b a4 be 15 63 a2 be 47 cb 38 be
       -0.013805498 -0.32113084 -0.3171622 -0.18046294
0001d0 90 aa ab be e6 a1 0d bf 91 5f f6 be c0 cc dc be
       -0.33528566 -0.5532516 -0.48119786 -0.43124962
0001e0 44 eb b0 be 14 89 0a bf bc ba cd be d1 90 0a bf
       -0.34554493 -0.54115415 -0.4018153 -0.5412722
0001f0 d0 c2 f0 3d 42 66 06 bf 72 e3 b4 be 0d 42 ac be
       0.117559075 -0.52499783 -0.35329777 -0.33644143
000200 44 78 93 be d1 fd 2f bc 3d d5 b1 be 70 f4 bc 3e
       -0.28802693 -0.010741667 -0.34733 0.3690524
000210 fd 8e e1 3c ac 9a 26 bd 79 54 8b 3c 04 f9 58 3e
       0.027534002 -0.04067485 0.017008053 0.21188742
000220 cb 9e 1b bf f8 43 90 3e 72 49 c1 3e a6 fb 7e 3e
       -0.60789174 0.28176856 0.37751347 0.24900684
000230 ad 61 4e 3e 08 bf 2d 3e a5 62 9c 3e cb 7e a9 3d
       0.20154448 0.16967404 0.3054401 0.08276137
000240 1a ee a2 3d 74 d0 e8 3e 77 a6 e0 3e 1f 85 3a 3e
       0.079555705 0.45471537 0.43877003 0.18214844
000250 9f b2 ab 3e a1 b4 97 3e 16 82 31 3e 90 c4 81 3e
       0.33534715 0.29629996 0.1733478 0.25345278
000260 80 c0 f9 3e 43 11 a0 3e 10 22 f1 3d d7 ff a7 3e
       0.48779678 0.3126317 0.11774075 0.32812378
000270 35 c8 8a 3d ca c3 c6 3e f8 f6 f4 bc e4 4f da 3d
       0.06776468 0.3882125 -0.02990292 0.10659769
000280 1a 5d 83 bd ba 26 dc bd 99 60 de 3d 66 de 63 3e
       -0.06414242 -0.10749574 0.10858268 0.22252807
000290 61 f9 db 3e b1 66 07 3c c6 2c 42 3e 4e d6 cb 3e
       0.42963699 0.00826423 0.18962392 0.3981194
0002a0 5f 71 56 3e d9 bf 44 be 8f 60 03 3e d8 4f 3a 3d
       0.20941685 -0.19213809 0.12829803 0.0454863
0002b0 f1 88 a3 be c6 47 72 3e 9b 5e c1 3e e5 01 41 3e
       -0.31940416 0.23660192 0.3776749 0.18848379
0002c0 fd 1f ef 3d ac 81 9f 3e 27 5c 85 bd 08 5e 30 3e
       0.11676023 0.3115362 -0.06511717 0.1722337
0002d0 cd a5 a2 3e 9e ea 11 3e 2b 75 4d 3e 0f 75 01 3e
       0.3176712 0.14249656 0.20064227 0.1264231
0002e0 c5 46 85 3e 78 5b 02 3e 0e 5b 89 3d 4c 7a 2d bd
       0.26030555 0.12730205 0.067068204 -0.04235296
0002f0 d0 70 9c 3e 43 44 0d 3c 87 96 c2 3e 76 0f 37 3e
       0.3055482 0.008622232 0.38005468 0.17876992
000300 f5 6b d7 be 5a 7f 3b 3d 2c 13 ed bd 03 fe 2e 3e
       -0.42074552 0.04577575 -0.11575922 0.17089085
000310 a6 8c fe 3d 42 50 a3 bd 33 77 6b 3c d7 0b 8d 3e
       0.1242917 -0.07974292 0.014371681 0.27548096
000320 c3 d8 dd be d2 5c a2 bb 22 95 cb 3e 32 b1 8a 3c
       -0.4332944 -0.0049549127 0.39762217 0.016930196
000330 fd c8 c1 3e 7b 37 fb 3d 07 82 2d 3e a0 6b e1 3e
       0.37848654 0.122664414 0.16944133 0.44027424
000340 5a 5a c6 3d a0 c0 43 3e 5d 93 63 3e 1d 53 1d 3e
       0.09685202 0.1911645 0.22224183 0.15363736
000350 bc 08 b8 3e 5b 13 91 3e 35 21 b9 bd a2 1d 94 3d
       0.35944164 0.2833508 -0.09039537 0.072322145
000360 97 1e d0 3d f0 02 d9 bb 8a 04 97 3e 9c 04 85 3e
       0.101620845 -0.0066226646 0.2949565 0.2598008
000370 a8 31 d8 bc 7e ef 9c 3d a5 50 d8 be ba c6 f1 3d
       -0.026390865 0.07662867 -0.42249027 0.11805482
000380 4d 0c d9 be 50 9b 52 be 2a e7 a7 3e 73 26 69 3d
       -0.42392197 -0.2056706 0.32793552 0.056921434
000390 a1 56 9b 3e 26 3c e8 3d cb 6e 4f 3e 40 bc e3 3c
       0.3033953 0.113395974 0.20257108 0.027799726
0003a0 68 0b cc 3d 74 82 75 be 83 c9 17 3e 58 cc 87 3e
       0.09963113 -0.23975545 0.14822964 0.2652309
0003b0 e1 65 27 bf ad d3 99 3e d7 78 cd 3e 0b eb 82 3e
       -0.6538983 0.30044308 0.40131256 0.2556995
0003c0 03 a8 42 be 7d 85 98 3e b3 42 17 3e 5a f6 63 3e
       -0.19009404 0.29789343 0.14771537 0.22261944
0003d0 fc 4a 15 3e e2 8a 99 3e 01 ae c4 3e 74 01 86 3e
       0.14579386 0.29988772 0.38414004 0.26172984
0003e0 76 cb d9 3c 96 18 73 3e 25 1a d2 3d 32 03 9d 3e
       0.026586276 0.23739848 0.10258893 0.306665
0003f0 3a b1 0d be fa e5 24 3e 22 a6 b0 3e 10 bc 0b 3d
       -0.13837138 0.16103354 0.3450175 0.034114897

gcn.convs.2.bias f4 [64]
000000 6f 49 fc bc 91 17 cb bc 7e 38 c7 3b 4c b9 5e 3b
       -0.030796735 -0.02479151 0.0060797324 0.0033984957
000010 2b 47 61 3d ab 96 17 3c 5e fe f1 3d 39 76 4e bc
       0.05499951 0.009252231 0.11816095 -0.012601429
000020 cd a2 15 3e 4b 3d f9 bd 33 d3 76 bc a6 6b b8 bc
       0.14612885 -0.12169894 -0.015065002 -0.022512268
000030 a5 5d b1 3b 16 fa 2b 3c 00 f7 c4 bb 1e 4c 11 be
       0.0054127746 0.010496637 -0.00601089 -0.14189193
000040 1f d0 f1 3d 67 ab a1 bb 5d 18 4f 3d 76 9d 13 bd
       0.11807274 -0.004933763 0.050560344 -0.03603884
000050 47 f3 18 3e ef 6a 3b bd 40 17 97 be 6f 4f 11 bc
       0.14936553 -0.045756277 -0.29509926 -0.008869036
000060 50 60 8c bc b4 23 12 3e 2d 57 80 3b d3 63 4d 3d
       -0.01713577 0.14271432 0.003916642 0.050144028
000070 af 14 96 3a 00 ad 84 b9 f4 2c 49 bb c8 1a f5 bc
       0.0011450256 -0.00025305897 -0.003069696 -0.029919997
000080 cd 66 06 3d 99 05 25 3b 12 b6 e3 3c a3 8c 8e 3d
       0.032812882 0.0025180338 0.027796779 0.06960418
000090 f3 af 75 bc fa 84 b5 3e c6 ce f3 bb f7 a3 81 3c
       -0.014995563 0.35453016 -0.007440421 0.015825255
0000a0 4c 85 43 bc e7 89 25 3d 88 22 d9 ba 1e 1d 8d 3e
       -0.011933636 0.040414717 -0.0016566077 0.27561277
0000b0 70 a0 c4 3c a3 8c 42 3d 3c db ac 3e 2d 1e 0c 3d
       0.024002284 0.047497403 0.33761013 0.034208465
0000c0 a5 b8 a3 bb 59 c9 be bd 50 64 6c 3d de 8b e4 3c
       -0.0049963766 -0.09315748 0.057712853 0.027898725
0000d0 de 4b a8 bc 31 22 98 3c 91 5a a1 ba f6 66 3f 3c
       -0.020543989 0.018570991 -0.0012310316 0.011682263
0000e0 e4 75 d8 bc 90 69 8a 3c ce e6 cb 3c c5 d0 0f 3e
       -0.026423402 0.01689604 0.02489033 0.14044483
0000f0 d9 bd b3 3c b2 28 a4 bd e1 22 9f bb dd d1 ab ba
       0.021941112 -0.080155745 -0.004856453 -0.0013108809

gcn.convs.2.lin.weight f4 [64, 64]
000000 e3 8d 6b 3e 34 e1 e8 3d c7 60 c2 be e9 fb df bb
       0.23003344 0.11371079 -0.3796446 -0.00683545
000010 df fc 91 3e 6f 6b 4c be 1e a0 2a bf f8 28 18 be
       0.28513238 -0.19962858 -0.6665057 -0.14859378
000020 7f be 4b 3e 3a e7 80 be bc b1 12 3e 21 66 12 3e
       0.19896887 -0.25176412 0.14325613 0.14296772
000030 cb bf bf bd a4 29 bc be 16 1f 9b 3d b6 6a 0f be
       -0.093627535 -0.3675052 0.075742885 -0.1400555
000040 6f 72 96 3e 79 cb a8 3c ce 0a 9b 3d 9e a9 c0 bc
       0.2938418 0.020604836 0.0757042 -0.02351838
000050 11 8f c4 be a5 58 22 3e 4b c4 7f 3e fe ac c0 bd
       -0.383904 0.15854128 0.24977224 -0.09407996
000060 6b 0f fd bb bd 72 b9 bd 9e 06 24 be 70 54 ec bd
       -0.007722785 -0.09055088 -0.1601815 -0.11539543
000070 1c 34 a8 be 31 d8 5c be e3 24 d1 be 95 d5 98 bd
       -0.32852256 -0.21566845 -0.40848455 -0.074626125
000080 84 7e f0 be 52 5a 78 3c 1a d3 0c be f6 4e 22 be
       -0.46971524 0.015158253 -0.13752404 -0.15850434
000090 c0 5c 90 3e 2f 56 8e 3e 9b d8 15 3e 4e c2 f2 be
       0.28195763 0.27800128 0.1463341 -0.47413868
0000a0 32 16 0f bf 70 91 ae 3d 6d 8a 82 be 4a b8 95 3e
       -0.5589324 0.08523834 -0.25496235 0.29242164
0000b0 57 f5 d7 bd 75 a0 04 be bb 4d 0f 3e 6d 74 c5 bd
       -0.10544842 -0.12951834 0.13994496 -0.09641347
0000c0 75 31 c6 bd 3c 82 dd 3e 77 fc 89 bd 23 70 87 3e
       -0.09677402 0.43263423 -0.06737607 0.2645274
0000d0 90 24 29 3e c8 2c 66 bc 78 53 06 3e 86 72 e1 3d
       0.16517854 -0.014048763 0.13117778 0.11008172
0000e0 60 f6 ea bd 2a 6e 7b 3c be 05 ef 3a f0 0f 1c bd
       -0.114727736 0.015346089 0.0018235964 -0.038101137
0000f0 7e a9 53 3d 49 e1 5b 3c 91 dc 12 bd fb 17 89 3e
       0.051675312 0.013420411 -0.03585488 0.26776108
000100 51 bf 42 bd 97 2d 12 bd 9d e2 cc bc e0 b8 85 bc
       -0.047545735 -0.03568801 -0.025010401 -0.016323507
000110 ba 64 6a 3c fa 58 72 bd b0 6b ae 3a 28 45 74 bc
       0.014306242 -0.059166886 0.001330724 -0.014909066
000120 ee cb c9 bd b4 fd c5 bd 24 05 50 3d 19 0f 9a bd
       -0.098533496 -0.09667531 0.050786152 -0.07522411
000130 71 c0 e3 3c 5a 50 6c bb f0 c7 c9 3c 0b 1d cd 3d
       0.027801724 -0.0036058635 0.02463147 0.10015305
000140 2c b1 3c bd 3d e9 63 3d fd 2f 12 be f5 10 e6 bd
       -0.0460674 0.055642355 -0.14276119 -0.11233703
000150 14 fc 39 bd 35 cd a9 3c 21 2a ae 3c c7 f6 23 bc
       -0.045406416 0.020727733 0.021260323 -0.010007567
000160 c2 7a f1 3c e8 70 cd 3d 0d 02 af 3c 85 e9 56 bd
       0.02947748 0.10031301 0.021363283 -0.052468795
000170 62 48 93 3d 74 50 b5 bc 59 77 10 bd 1f a4 91 bc
       0.0719154 -0.02213309 -0.03527007 -0.017778454
000180 a0 ca 71 3d 0a e4 17 3e 2e f0 87 3d 6e 0a 96 3c
       0.05903113 0.14833084 0.066376075 0.01831552
000190 5e 06 a3 bc 06 85 7d 3d c2 d7 02 bc a2 91 df bb
       -0.019900497 0.06189444 -0.007986011 -0.0068227807
0001a0 1c 29 f8 bc 99 bc a5 3d d2 86 1a be 58 bd e5 bb
       -0.03029304 0.08092613 -0.15090492 -0.007011097
0001b0 0f fd 5b 3c 8a 5f 7d 3d 23 45 74 3d ee d3 72 3d
       0.013427033 0.06185869 0.059636246 0.059284143
0001c0 cd fb 50 3d 50 36 d2 bc 7c a0 dc 3c 77 7a 92 ba
       0.051021386 -0.025660664 0.026931994 -0.0011175413
0001d0 a4 6a bf 3c b1 5e 81 bd f3 ae e4 bc 9f 77 d4 bd
       0.02336628 -0.06316889 -0.027915454 -0.103743784
0001e0 cd d6 94 bd 48 0b 41 bd c1 64 18 3d 69 c0 90 39
       -0.072675325 -0.0471299 0.03720546 0.00027609177
0001f0 fb 39 53 bd 5f 7b 1d be d8 64 2d bd d6 6c 14 bd
       -0.051568966 -0.15379094 -0.0423325 -0.036236607
000200 fb 39 9f 3d 9b 05 b8 3d f8 60 fd bd 76 7d 1e bd
       0.07774731 0.08985444 -0.12372011 -0.038693868
000210 96 01 3f ba 99 9a 13 3d 5b 3a 7b 3d 77 83 c8 bc
       -0.0007286308 0.036036108 0.06133495 -0.02447675
000220 08 b9 8d 3d 44 71 4d bb e7 ae 85 3d fc b7 1d bd
       0.069200575 -0.003134803 0.065275006 -0.03850554
000230 a2 e8 03 bc c9 24 e0 bc 8f 60 c7 bc 8c da 60 3c
       -0.008051069 -0.02736129 -0.024338035 0.013723981
000240 a1 3a bd 3d eb c5 1d 3b 48 fa 71 bd c7 c1 1b bc
       0.09239698 0.0024074267 -0.059076577 -0.009506649
000250 de 8e 93 3d 1e ae 5a bd 16 3b da bc fb da 6f 3d
       0.07204984 -0.053388707 -0.026639502 0.058558445
000260 b1 bb f9 3d 2b e3 01 3d 3a 71 e1 b9 25 6a d9 bd
       0.121940024 0.031710785 -0.00042999705 -0.106159486
000270 bc 87 56 bc c6 04 9e 3c 61 20 c2 bd 48 e0 11 bd
       -0.013093885 0.019289386 -0.09478832 -0.035614282
000280 90 39 8e bd af 09 b6 3b c6 19 bd bc b7 5e 84 3d
       -0.06944573 0.0055553536 -0.023083579 0.06463378
000290 b2 2e 51 bd 36 cc 9d bc ba 87 ce 3c 74 b5 8b bd
       -0.051069923 -0.019262414 0.025211204 -0.06821719
0002a0 73 e3 c7 bd ed 05 00 bd 0d be 22 bd 78 d1 1d bd
       -0.09760179 -0.03125565 -0.039732028 -0.038529843
0002b0 12 fa a3 3d be 2c b3 bd 13 85 07 bd 38 05 1a bd
       0.080066815 -0.08748768 -0.033085894 -0.037602633
0002c0 6d 55 c5 bd cf 3f 60 3c ee 9f 0c bd cf b0 5c 3d
       -0.09635434 0.013687088 -0.03433221 0.053879555
0002d0 40 34 81 bc a8 81 88 3d c3 0c 3a 3d 6d 8b 2f 3e
       -0.015771985 0.06665355 0.045422327 0.1714303
0002e0 f3 cd bc 3d 1e 9f 2b 3d 38 2a a6 3d 9b 72 73 bb
       0.09218969 0.041899793 0.08113521 -0.0037147168
0002f0 34 3c 62 3d 68 5e 71 3e ea 89 b0 3c 19 66 b9 bd
       0.055233195 0.2357117 0.021550138 -0.09052677
000300 36 25 44 3d 04 91 91 3a 05 35 ff bd 20 29 a4 bc
       0.04788705 0.001110584 -0.124612845 -0.020039141
000310 97 1a d1 3c ac b0 28 bc 99 05 6f bc c0 ae c2 3c
       0.025525374 -0.010296028 -0.014588737 0.023764968
000320 77 4e 8b 3d 52 b5 a8 3c 79 54 8c 3d 44 96 02 3d
       0.06802075 0.020594273 0.068520494 0.031881586
000330 5e 80 f0 3c c6 a0 88 3d c5 cd 05 be 4b ea 8c bc
       0.029358085 0.0667129 -0.13066776 -0.017201563
000340 69 19 14 bd 24 b2 24 3c c4 97 b7 3b eb 47 80 bd
       -0.036157046 0.010052238 0.0056028087 -0.06263717
000350 58 b9 3d be 43 e3 f5 bc 9c a8 c5 bc 30 80 57 bd
       -0.18527734 -0.030015593 -0.02412825 -0.052612484
000360 64 79 5b bc e5 76 02 bd e7 37 e2 bd 1d 89 a7 3b
       -0.013395641 -0.031851668 -0.11045819 0.0051127807
000370 10 05 d7 bd c6 5f 59 bd 54 79 f8 bd 61 b0 cd 3a
       -0.104990125 -0.053069852 -0.121325165 0.0015692824
000380 d0 dd 74 bd c5 d2 a4 bd f5 f6 41 3c bf 5c c2 3c
       -0.05978185 -0.080480136 0.011838664 0.023725865
000390 f1 5c 97 3d fa bb ca bd 9f 5d 42 bc f3 37 3b 3e
       0.07390774 -0.09899135 -0.011863141 0.18283062
0003a0 cd 22 d0 bd 3e db c5 bb 0d dc 87 bd 51 77 c7 bc
       -0.10162888 -0.0060380986 -0.06633768 -0.024348887
0003b0 72 81 4a bd c8 5a 64 3d fe 34 ff 3c c1 33 5c bd
       -0.049439855 0.05575064 0.031153198 -0.053760294
0003c0 63 ab 1b 3d 3e 08 02 bd 23 3d da 3d 02 15 85 3d
       0.038005244 -0.03174614 0.10656192 0.064981475
0003d0 d9 93 29 3e 60 de 5e 3d a8 ff 88 bd b5 2d d9 3d
       0.16560306 0.054411292 -0.066893876 0.10604421
0003e0 ca 36 6e 3d ef 34 8f bc f4 78 b2 3b 5f 14 8f 3d
       0.05815772 -0.017481295 0.0054465476 0.06986307
0003f0 4a ce 27 3e a7 79 1f 3e dd c6 fb bb 31 24 df bb
       0.16387287 0.1557375 -0.0076836185 -0.0068097343

edge_feature_mlp.0.weight f4 [64, 5]
000000 4e 08 0c 00 32 89 05 80 7d 14 05 80 89 57 04 80
       1.105005e-39 -5.08394e-40 -4.66527e-40 -3.98744e-40
000010 db 7e 0b 80 17 ce 10 80 b2 85 0a 80 34 52 06 80
       -1.055698e-39 -1.543299e-39 -9.66316e-40 -5.80502e-40
000020 34 0b 04 80 68 07 07 80 c8 8d 08 00 d6 9a 08 00
       -3.71361e-40 -6.45505e-40 7.85545e-40 7.90229e-40
000030 8d dd 0a 00 98 b9 12 00 9a a3 14 00 27 0c 0f 00
       9.97832e-40 1.719617e-39 1.895399e-39 1.381892e-39
000040 27 a3 0c 80 13 c6 0f 00 1f 64 03 00 5c 8f 04 80
       -1.160554e-39 1.448588e-39 3.11423e-40 -4.1877e-40
000050 8e 31 02 80 bd 7a 09 00 ac 52 0a 00 85 ad 0f 00
       -2.01448e-40 8.7055e-40 9.48012e-40 1.43978e-39
000060 10 95 05 80 e6 de 0d 80 b1 e7 09 00 08 5a 0c 80
       -5.12651e-40 -1.273822e-39 9.09635e-40 -1.134323e-39
000070 03 05 0c 80 17 0e 0b 00 fd 2d 09 80 a0 8b 0f 00
       -1.103824e-39 1.015245e-39 -8.43017e-40 1.42762e-39
000080 fd e0 04 80 4b 8a 02 80 c3 2e 01 80 b1 f5 02 80
       -4.48053e-40 -2.33281e-40 -1.0861e-40 -2.71808e-40
000090 88 55 08 80 f1 7f 0d 00 1e 19 0c 80 2a 2a 14 80
       -7.65367e-40 1.239758e-39 -1.111036e-39 -1.851836e-39
0000a0 21 66 13 00 c6 be 0b 00 27 09 02 00 2c 40 0b 00
       1.781511e-39 1.078627e-39 1.86954e-40 1.033211e-39
0000b0 d2 64 0b 00 39 04 07 00 39 fd 0e 00 33 d8 01 80
       1.046358e-39 6.44363e-40 1.376536e-39 -1.69393e-40
0000c0 ea 9a 0d 00 52 00 16 80 13 1f 00 80 5e 7d 13 00
       1.249434e-39 -2.020496e-39 -1.1147e-41 1.789848e-39
0000d0 67 6a 0e 80 9e 9e 0a 00 0e 02 01 80 62 2d 0a 80
       -1.323867e-39 9.75256e-40 -9.2573e-41 -9.34635e-40
0000e0 fa 08 05 00 59 2a 10 00 b8 2e 0f 80 1c 0b 05 00
       4.62398e-40 1.48456e-39 -1.394292e-39 4.63163e-40
0000f0 27 0b 0d 00 2e 81 0a 80 e3 df 0a 80 c1 ab 04 00
       1.197862e-39 -9.64696e-40 -9.9867e-40 4.28956e-40
000100 c3 29 07 80 e0 ca 0b 00 2f 09 03 00 29 5d 05 00
       -6.5783e-40 1.082968e-39 2.78801e-40 4.92597e-40
000110 66 7a 00 80 4c e8 04 80 c0 44 0e 00 49 5b 10 80
       -4.3908e-41 -4.50674e-40 1.31036e-39 -1.502115e-39
000120 54 4e 01 80 8e 18 0a 00 b8 43 10 00 dd 88 0b 80
       -1.19934e-40 9.27164e-40 1.493661e-39 -1.059288e-39
000130 42 fa 04 80 7e 5a 0a 80 a2 93 13 80 e4 54 0a 00
       -4.57118e-40 -9.50817e-40 -1.797835e-39 9.48808e-40
000140 12 29 07 80 bd 55 0c 00 45 08 03 00 39 8a 06 00
       -6.57582e-40 1.132783e-39 2.78473e-40 6.00598e-40
000150 45 97 0a 80 02 70 04 80 19 40 0a 00 f9 f4 01 00
       -9.7262e-40 -4.07523e-40 9.41349e-40 1.79715e-40
000160 f8 00 09 80 3b 58 12 80 ac 1a 0e 80 a6 1c 16 00
       -8.26867e-40 -1.68469e-39 -1.295265e-39 2.030658e-39
000170 89 bf 03 80 41 f1 02 00 8f 24 0b 80 2e df 05 00
       -3.44216e-40 2.70217e-40 -1.023305e-39 5.39239e-40
000180 56 f8 0b 80 f1 b9 0d 80 98 06 07 80 f2 fb 0e 00
       -1.099277e-39 -1.260565e-39 -6.45214e-40 1.376078e-39
000190 d5 b1 00 00 64 bf 00 80 1d 6d 06 00 aa 6f 09 00
       6.3794e-41 -6.8658e-41 5.90155e-40 8.66577e-40
0001a0 cc d0 06 80 8a 63 0b 80 11 6f 04 80 51 df 09 80
       -6.25915e-40 -1.045898e-39 -4.07185e-40 -9.0663e-40
0001b0 60 c4 0f 80 5f 4c 02 00 87 40 10 00 03 f6 0d 80
       -1.447979e-39 2.11068e-40 1.492516e-39 -1.282114e-39
0001c0 45 74 0d 00 19 d0 0f 80 ee de 06 00 90 17 07 80
       1.235571e-39 -1.452184e-39 6.30985e-40 -6.51301e-40
0001d0 f7 76 0d 00 8e e9 0d 00 29 5c 06 00 39 49 0e 00
       1.236538e-39 1.277645e-39 5.84074e-40 1.311964e-39
0001e0 eb cf 05 80 f6 66 00 80 ed d0 0c 00 09 ef 0c 80
       -5.33764e-40 -3.6935e-41 1.176974e-39 -1.187776e-39
0001f0 09 19 0a 80 65 22 06 80 12 b6 02 80 d8 e1 07 00
       -9.27336e-40 -5.63351e-40 -2.48986e-40 7.23866e-40
000200 2d 81 04 00 a1 e0 09 80 48 aa 0e 80 ef 46 15 00
       4.13682e-40 -9.07101e-40 -1.346782e-39 1.953992e-39
000210 40 b8 13 80 6a dd 05 80 dc e6 0d 00 9f ef 0b 80
       -1.810971e-39 -5.38606e-40 1.276678e-39 -1.09615e-39
000220 51 1b 0e 80 ed e0 08 00 88 f9 10 00 d4 22 01 00
       -1.295496e-39 8.15372e-40 1.558883e-39 1.0433e-40
000230 a3 3b 15 00 d1 3d 0f 00 87 b8 01 80 d8 4c 0f 80
       1.949939e-39 1.399708e-39 -1.58031e-40 -1.405099e-39
000240 c2 fa 0d 00 91 96 0e 00 c0 e6 10 80 c4 7b 0b 00
       1.283816e-39 1.33971e-39 -1.552145e-39 1.054589e-39
000250 3e 88 00 80 9e e0 13 00 fe c2 0b 00 1a 21 08 00
       -4.8874e-41 1.825452e-39 1.08014e-39 7.46559e-40
000260 91 d9 03 80 ed f7 08 00 98 61 04 80 58 da 0a 80
       -3.53555e-40 8.23623e-40 -4.02352e-40 -9.96682e-40
000270 d1 52 0a 00 12 19 13 80 54 95 02 00 fd 6f 03 00
       9.48064e-40 -1.753868e-39 2.3724e-40 3.1568e-40
000280 e5 78 08 00 a1 3d 08 80 05 a5 06 80 fc 7e 14 80
       7.78053e-40 -7.56792e-40 -6.10211e-40 -1.882263e-39
000290 47 2c 00 00 79 b5 12 00 ec 27 02 00 67 50 10 80
       1.5884e-41 1.718139e-39 1.97992e-40 -1.498211e-39
0002a0 b8 35 02 00 be e5 04 80 24 6a 08 00 e9 7c 03 00
       2.02942e-40 -4.49758e-40 7.7276e-40 3.20316e-40
0002b0 bc 7a 06 80 85 d8 03 80 78 91 00 00 eb c3 00 80
       -5.95042e-40 -3.53179e-40 5.2184e-41 -7.0282e-41
0002c0 0a a0 07 00 ec 09 06 80 bb da 06 00 34 17 06 00
       7.0026e-40 -5.54572e-40 6.29479e-40 5.59337e-40
0002d0 14 2f 0b 80 43 99 0e 80 b7 53 02 00 52 04 08 80
       -1.027079e-39 -1.340677e-39 2.13702e-40 -7.36234e-40
0002e0 ca 1b 07 00 71 d8 02 80 59 66 09 00 23 11 14 80
       6.52817e-40 -2.61316e-40 8.63235e-40 -1.842857e-39
0002f0 38 89 05 00 51 19 0f 00 74 4a 0e 00 0e 09 0a 80
       5.08402e-40 1.386614e-39 1.312406e-39 -9.21603e-40
000300 f7 ba 02 00 62 0d 14 00 de 15 0c 00 fd 5c 0f 80
       2.50741e-40 1.841511e-39 1.10987e-39 -1.41089e-39
000310 8c 66 08 00 72 47 08 00 62 85 07 80 b1 65 0a 80
       7.71471e-40 7.60314e-40 -6.90697e-40 -9.54835e-40
000320 9c 92 0c 80 0a 10 0c 00 69 0a 00 00 aa a8 05 80
       -1.15462e-39 1.10778e-39 3.734e-42 -5.19683e-40
000330 3a 38 0d 00 fd be 0b 00 bc 79 09 00 4b ad 09 80
       1.214032e-39 1.078704e-39 8.7019e-40 -8.88685e-40
000340 81 ec 07 80 c5 41 0d 00 8c 77 0c 00 c4 88 05 00
       -7.2769e-40 1.217455e-39 1.144911e-39 5.0824e-40
000350 cd d6 06 80 eb f7 0e 80 57 05 03 00 1f ce 06 80
       -6.28069e-40 -1.374633e-39 2.77422e-40 -6.24955e-40
000360 bb 90 0e 00 90 31 0f 00 a2 85 06 00 1e 71 15 80
       1.337616e-39 1.395312e-39 5.98951e-40 -1.969124e-39
000370 0d 1d 00 00 f9 bc 02 00 64 3b 0b 00 81 d2 12 00
       1.0421e-41 2.51462e-40 1.031496e-39 1.728554e-39
000380 e9 4c 11 00 5f 20 07 00 dd e8 0c 00 45 ea 0a 80
       1.588794e-39 6.54461e-40 1.185562e-39 -1.002395e-39
000390 8c d2 07 80 9a 2d 00 00 66 eb 0f 80 39 ef 06 00
       -7.18378e-40 1.6359e-41 -1.461977e-39 6.3683e-40
0003a0 86 b3 15 80 d4 aa 0a 00 ee 67 15 00 9f 9f 07 00
       -1.992946e-39 9.79637e-40 1.965828e-39 7.0011e-40
0003b0 da d8 06 00 d6 97 02 80 60 49 15 80 89 f4 00 00
       6.28805e-40 -2.3814e-40 -1.954867e-39 8.7723e-41
0003c0 eb b4 05 00 06 62 09 00 d6 a7 03 00 4c a9 0e 00
       5.24079e-40 8.61684e-40 3.35715e-40 1.346429e-39
0003d0 a0 ec 09 00 61 28 0d 00 de 0a 03 80 18 5a 08 80
       9.11405e-40 1.208347e-39 -2.79405e-40 -7.67004e-40
0003e0 a5 53 05 80 55 1d 0c 00 c9 a9 10 80 ee e6 07 80
       -4.89183e-40 1.112548e-39 -1.530275e-39 -7.2569e-40
0003f0 91 c7 03 00 62 d5 0a 80 a8 df 03 80 79 1e 05 80
       3.47097e-40 -9.94902e-40 -3.55739e-40 -4.70109e-40

edge_feature_mlp.0.bias f4 [64]
000000 66 8c 0c a4 37 03 01 bb d3 a8 b8 bb ad ef 30 3d
       -3.0476583e-17 -0.0019685754 -0.00563536 0.043197323
000010 a9 b2 32 92 93 cc b4 ba 2d 55 00 82 92 e8 58 af
       -5.638711e-28 -0.0013793878 -9.428399e-38 -1.9727711e-10
000020 68 bd 74 bb 4a c7 29 b8 de e0 a8 ac 44 29 70 bb
       -0.003734434 -4.0478342e-05 -4.7998125e-12 -0.003664569
000030 28 8b f3 84 5d ae d2 b5 77 fd 1b a8 b8 1c c0 bb
       -5.725682e-36 -1.5696966e-06 -8.65919e-15 -0.0058627985
000040 f7 e3 a4 3c da 51 11 b8 35 d2 13 bc 81 32 ce bb
       0.020128233 -3.4646924e-05 -0.009022285 -0.0062926416
000050 f2 8b 89 ba 70 fd 1e ba 36 7a 2e 87 58 5b b7 ba
       -0.0010493977 -0.0006064987 -1.312622e-34 -0.0013989015
000060 b8 63 65 ae 6d 31 b1 b7 a8 f5 ba b6 57 b3 b0 b9
       -5.215714e-11 -2.112306e-05 -5.57183e-06 -0.00033702955
000070 90 89 30 a8 66 98 00 bb 06 2f e9 bc 2f a3 01 ae
       -9.799792e-15 -0.0019622087 -0.028464805 -2.947614e-11
000080 34 d4 16 b2 05 d5 7a 8c 7f e9 20 bc 7c 48 7c ba
       -8.7793985e-09 -1.9323403e-31 -0.009821295 -0.0009623838
000090 94 fd 9b ab 89 d7 c0 ba 20 79 09 91 b6 00 e1 a0
       -1.1083794e-12 -0.0014712672 -1.0844719e-28 -3.8116953e-19
0000a0 ea 72 5a b8 00 f7 49 ba 95 26 06 94 e1 c3 30 bc
       -5.2082272e-05 -0.00077043474 -6.77288e-27 -0.010788889
0000b0 4f 36 70 92 36 0f f9 b3 05 0a b5 ba 4a e1 4c a6
       -7.5797587e-28 -1.1597733e-07 -0.001381219 -7.108204e-16
0000c0 43 43 1f a8 73 31 c5 a8 e9 af 06 bc 05 0b 4b bb
       -8.840858e-15 -2.1892839e-14 -0.008220651 -0.003098191
0000d0 b8 c8 a6 bc 85 3d c6 bb 03 02 b1 ac 91 e0 e9 aa
       -0.020359382 -0.006049814 -5.030866e-12 -4.1544939e-13
0000e0 cc cf 73 b9 ef 3b 7d 99 a8 68 c3 bb 04 3f 0f aa
       -0.00023251696 -1.3091897e-23 -0.0059634037 -1.2722814e-13
0000f0 0e f0 c3 ba 80 fb 0e 8b b0 7c 93 ba c7 43 1d b3
       -0.0014948861 -2.7537413e-32 -0.001125237 -3.6616054e-08
