best_gcn_model.pth (torch, 303851 bytes, 13 tensors)

node_embedding.weight f4 [64, 770]
00000000: b385 c23c 0b4f fb3e e7ca 393e 10c7 d7bd
00000010: d4a2 a63d 463d 02bd 943d 783e 6971 84bd
00000020: 163b c2be 030b 25be 223a 383e ef47 093c
00000030: 665d e9bd 145a 2abe 03a4 8fbd a916 6fbe
00000040: 2b77 57be 57bd 12be 3d8a 65be a225 3a3e
00000050: 45b1 013d 84e7 913d 2379 afbe 4b38 573e
00000060: e5ce 383e 92ec d4bd b5a1 acba cc23 36bd
00000070: d173 38be 2900 e2bd a02c b43c 522a 713e
00000080: efe7 0f3e 2169 6fbe 9d7a 04be 665f 3f3e
00000090: 2d12 76bd 22f9 e03c c913 26be 1be9 433d
000000a0: 89b0 133e 12db 80be bb69 64be ea9f 7d3c
000000b0: 1c00 8abe 782e 373e 0a9b 31be c3fc b4be
000000c0: 6884 86be 4138 8e3e de13 f1bd 267e 7a3e
000000d0: ce30 253e a300 1d3d 1000 9ebc 13c8 a0bd
000000e0: 71f9 84bd 4b9f cc3d 9638 5ebe e3be a83d
000000f0: 16b3 f7be ea02 5fbe 9d3d 8d3e ec81 a63d
00000100: 6871 88be 073f 5abc 49c6 9bbd 2c9d 0dbe
00000110: c7e2 0cbe f0d8 6dbc e90b a53e 0d22 063e
00000120: 06b2 43be 7f0a e3bc fc9c 1dbe 5b81 14be
00000130: d07a 143e 58bc fa3d e536 a73e 6a91 e63c
00000140: 2660 51be ef32 803c 759a ec3e 6476 83bc
00000150: d1c6 643d 3a0e 883e e6d1 9d3d bb28 a4bd
00000160: 9ff8 86bd 6c39 8dbe 429e b3be b848 c63e
00000170: 1e98 623d f89f a63d 670f 023e 290f 073e
00000180: 530c 243e 027e 29be 9d1f fbbd 1c20 f13e
00000190: 0f98 513e c035 4cbd f07b 0d3e aae8 01bd
000001a0: bd4b 5dbe 74ed aabd 0223 613d 4dca ae3d
000001b0: 2130 9bbe fd14 c9be 204e ff3d 0459 f3bc
000001c0: a14a bd3d d0a6 94be a5e0 bd3d 2315 8ebd
000001d0: 5959 3bbc 82b0 893e 06e1 1fbe 5259 b13d
000001e0: b7bf 2c3e c8b7 97be 3be1 49be 0249 aabd
000001f0: 70bf bd3d 4451 4ebd a177 3c3f a584 390f
00000200: 4db1 71be 23a4 d4be af90 a03d cbc2 7bbe
00000210: 800a 313e 330f 803e 646d 2c3e 317a 333e
00000220: b867 753c dff0 833d 4f50 5fbe e931 39be
00000230: a1ee 2bbd adb3 48be 9565 a33e cdec 433e
00000240: 2fa7 dbbd 9198 923d a1cc a13d 1854 6fbd
00000250: b40e 80bd ec78 103e 200e 763e f3a3 9fbe
00000260: b83e fc3c 191b ee3c 03df 82bc 6dd1 53bc
00000270: af78 2bbe 7a97 d0bd 579a e33d 938b 1cbc
00000280: eebe 04be 9033 36be f9ab 6a3d 0ace f63d
00000290: 088d ebbd ae84 b9bd fad5 80be e32f 75be
000002a0: 316d 1d3f 342a 92bd f70f 803d 8b5a b2bd
000002b0: fd48 bbbd 900d 063e a205 fe3d f7b8 723d
000002c0: 1efb a5be 9d55 a23e 6ba2 cbbd f108 8abe
000002d0: 4b43 22be 9662 a53c bd52 f4bc 6b87 c9bc
000002e0: 66c0 56be 7afc 0cbd 53c4 473e dc9d 493d
000002f0: 62e3 2b3e 7b54 f73d 43af b13d 2fe8 213e
00000300: 59e4 403d de04 b33d dc60 f9bd 55b9 85be
00000310: f856 2ebc cb42 d3be b2d6 643d b0fa be3e
00000320: 7eb7 863d 4b48 18bd eefe 683e 5b6b 5e3e
00000330: 670c b23d 0050 343e e7ab 4dbe aa43 fdbd
00000340: 2cab 273e 847b ca3d 5021 1e3e 934c 98be
00000350: d915 1cbd 13f8 a23e 1a41 53bc d882 483c
00000360: e44d 57be f4bf e9bd 8455 37bd 0592 8dbe
00000370: 59eb 89be 95dc f4bd 5a2f 8dbc e89b 9f8e
00000380: f24f 633d 39d3 b03d 4178 a5bd aad4 213d
00000390: ab9d a53d 6f23 7fbe 9b85 5abc 853a 713d
000003a0: f4ca 54be 357b ccbd f5ab 813c 8f36 ae3d
000003b0: 52f4 ee3e ac16 9e3e e270 fabd 44cb 313e
000003c0: 4db0 dc3d 45ca 183e d963 683d f0c3 c73b
000003d0: 0d3b 80be f200 a1be bf40 303e 59a4 c43e
000003e0: 278c 013e 5495 073f 963f b5bd 91da ac3c
000003f0: 6179 0ebe b1de b9bb 0d8e 3dbd 54f1 d3bb
0.023745393 0.49083742 0.18143807 -0.10536015 0.08136526 -0.031796716 0.2424224 -0.06466944
-0.37935704 -0.16117482 0.17990926 0.008378967 -0.113947675 -0.16635925 -0.07013705 -0.23348488
-0.21041553 -0.1433004 -0.22416015 0.18178418 0.031663198 0.07124236 -0.34272107 0.21017568
0.18047674 -0.10396685 -0.0013170751 -0.044467732 -0.1801293 -0.11035187 0.021993935 0.235513
0.1405332 -0.23379947 -0.12937398 0.18688735 -0.060075928 0.027462546 -0.16218485 0.04782973
0.14422812 -0.25167137 -0.22305958 0.015480021 -0.26953208 0.1788882 -0.17344299 -0.35349092
-0.26272893 0.27777293 -0.117713675 0.24462184 0.16131899 0.038330685 -0.01928714 -0.07850661
-0.0649289 0.0999132 -0.21701273 0.08239534 -0.4837882 -0.21778455 0.2758607 0.081302494
-0.26649022 -0.013320691 -0.07606179 -0.13829488 -0.13758384 -0.014517054 0.3223565 0.13098927
-0.1911088 -0.027714966 -0.15391916 -0.1450247 0.14499974 0.12242955 0.3265907 0.02814551
-0.20446834 0.015649287 0.4621159 -0.016047664 0.05585367 0.26573354 0.077060506 -0.08015581
-0.065903895 -0.27582872 -0.3508168 0.38727355 0.05532085 0.0813598 0.12701188 0.13189377
0.16020326 -0.16551974 -0.12261889 0.4709481 0.20468162 -0.049855947 0.1381681 -0.031716026
-0.21610923 -0.08346072 0.054965027 0.085346796 -0.30310157 -0.39273825 0.12466073 -0.029705532
0.0924275 -0.29033518 0.09271363 -0.06937625 -0.011434876 0.26892477 -0.15613183 0.086596146
0.16870008 -0.296324 -0.19714825 -0.083147064 0.092650294 -0.05037047 0.7362004 9.146751e-30
-0.23602791 -0.41531476 0.07840096 -0.24586026 0.17289162 0.25011596 0.16838604 0.17527081
0.014978342 0.06442427 -0.21807979 -0.18085445 -0.04197562 -0.19599791 0.31913438 0.19133301
-0.10725247 0.07158006 0.07900358 -0.058429807 -0.062528044 0.14108628 0.24028826 -0.3117977
0.030791625 0.029065656 -0.01597548 -0.012928349 -0.16745256 -0.10185142 0.11113422 -0.009554761
-0.12963459 -0.17793107 0.057292912 0.120510176 -0.11501509 -0.0905851 -0.2516325 -0.23944049
0.6149474 -0.07136956 0.06253045 -0.08708676 -0.09144781 0.13091111 0.12403418 0.059258427
-0.3241815 0.31705943 -0.09943088 -0.26959947 -0.15845983 0.020188611 -0.029824609 -0.024600705
-0.20971832 -0.034420468 0.19508485 0.049222812 0.16785958 0.1207666 0.08676007 0.15811227
0.04709277 0.08741163 -0.121766776 -0.2611796 -0.010640852 -0.41261896 0.055868812 0.37300634
0.06577967 -0.03717832 0.22753498 0.2172064 0.08693772 0.17608643 -0.20085107 -0.123664215
0.1637389 0.0988684 0.15442395 -0.29745921 -0.038106773 0.3182989 -0.012893939 0.012238227
-0.21025807 -0.11413565 -0.04475929 -0.27650467 -0.2693737 -0.11956135 -0.017234493 -3.934666e-30
0.055496164 0.086340375 -0.08079577 0.039509453 0.080867134 -0.2491586 -0.013337518 0.0588937
-0.20780545 -0.099844374 0.015829066 0.085065 0.46670777 0.30876672 -0.12228562 0.17362696
0.10775814 0.1492091 0.056735847 0.0060963556 -0.25045052 -0.31446034 0.17212199 0.38406637
0.1265112 0.5296223 -0.08850019 0.021100314 -0.1391349 -0.005672299 -0.04627805 -0.0064679775

node_embedding.bias f4 [64]
00000000: fe33 9ebe 0a06 50be ea6b e53e 0158 11be
00000010: e228 b6be 4901 61be bf6f ebbe ef29 9dbe
00000020: 8566 95be 3b19 c9be f07c 71be 3580 68be
00000030: 0e1f 1bbd ea51 bb3d 64de 02bf 9769 c7be
00000040: 2c39 063f efbe e5be 1d85 c73e 62e9 d43e
00000050: 84a1 b7be 4bb9 a53e 8cb1 013e 4fdc 9bbe
00000060: b429 493e e2f2 33be af26 42bf d3c7 783e
00000070: 97ff b53e 3c1d 783e efdd d2be 5c59 bd3e
00000080: 1bf4 8bbe 6000 f2be c103 163f b2f3 293e
00000090: dcf1 8abe e590 0b3e 22ea f0bd e19e 433e
000000a0: 381b e13d a3dc e9bd 3107 ce3e e0b7 81bd
000000b0: afbe cbbe 5453 473e 20b1 923e d444 ac3d
000000c0: f08c 65be d442 aabe feb3 acbe 1415 82be
000000d0: 38f4 133f e9ec ce3e f862 0e3e 43c0 10be
000000e0: e4f7 63be 15ab 1d3e ece9 08bf 04da 9bbe
000000f0: 3905 423e 6bec bb3b 2ca5 08bf 4b61 73bd
-0.30899042 -0.20314804 0.44808894 -0.14193727 -0.35578066 -0.21973146 -0.45983693 -0.30696055
-0.2917978 -0.39277062 -0.23582816 -0.22705157 -0.037871413 0.09146483 -0.5112059 -0.38947746
0.5243099 -0.44872233 0.38968745 0.41584307 -0.35865414 0.3236793 0.12665385 -0.3044152
0.19644815 -0.17573121 -0.75840276 0.24294977 0.35546562 0.24229902 -0.41184947 0.36982238
-0.27334675 -0.4726591 0.5859948 0.16596869 -0.2713765 0.13629492 -0.11763407 0.19103576
0.1099152 -0.11419036 0.40239862 -0.063338995 -0.39793918 0.19465381 0.2865076 0.084115654
-0.22417045 -0.3325411 -0.33731073 -0.25406706 0.57794523 0.40415123 0.13904941 -0.14135842
-0.22262532 0.15397294 -0.53481936 -0.3043977 0.18947305 0.0057349703 -0.5337703 -0.059418958

gcn.convs.0.bias f4 [64]
00000000: fbe9 c8bf 5f4a 09bf c1e4 babf 5ac7 f4bd
00000010: c8fe b7bf a6ce aabf 1c66 b0bf ac6a babf
00000020: 6039 9abf d17b a7bf 9e6f d0bd 4a93 a2bf
00000030: ee9e afbf c8f8 c1bf 3510 a7bf 3ed0 abbf
00000040: 5837 cfbd 5b1e cbbf f0d1 b4bf 1c17 b7be
00000050: aff4 acbf 3488 d5bf 1634 9fbf dc70 a6bf
00000060: 563c c1bf 8b5e b6bf ca58 88bf 4f49 bdbf
00000070: 7396 b7bf 68d3 a1bf d7b6 bbbf 654e 93bf
00000080: 846f c8bf 324c d4bf 2197 7fbf 358f cabf
00000090: 9486 cdbf e4b8 c3bf 95eb b7bf 13e3 c2bf
000000a0: cd56 c2bf fe0b cfbf 4092 b6bf 096b a8bf
000000b0: ad0f debf 9054 adbf e3dd dbbf 1125 bfbf
000000c0: ceb7 d3bf 97e6 bfbf 93df b1bf 6edf c6bf
000000d0: 6d42 bbbf 8067 cebf ef83 b6bf af62 cebf
000000e0: c320 b5bf 6bb1 81bf ee6c 9fbf bd86 8dbf
000000f0: 638f c6bf 740b 98bf e0e7 9fbf a38e cabf
-1.5696405 -0.53629106 -1.460106 -0.11952086 -1.4374628 -1.3344314 -1.3781161 -1.4563804
-1.204876 -1.3084661 -0.10177539 -1.2701199 -1.3720376 -1.5154047 -1.3051821 -1.3422925
-0.10117978 -1.5868639 -1.4126568 -0.3575982 -1.3512172 -1.6682191 -1.243777 -1.3003192
-1.5096538 -1.4247602 -1.0652096 -1.4787997 -1.4342788 -1.2642641 -1.4665173 -1.1508299
-1.5659032 -1.6585753 -0.9983998 -1.5824953 -1.6056695 -1.5290799 -1.4368769 -1.5225548
-1.518274 -1.6175535 -1.4263382 -1.3157665 -1.7348534 -1.3541431 -1.717709 -1.4933187
-1.6540468 -1.4992245 -1.3896354 -1.5536935 -1.4629647 -1.6125336 -1.4259013 -1.6123866
-1.4150623 -1.0132269 -1.2455118 -1.1056744 -1.5512508 -1.1878495 -1.2492638 -1.5824779

gcn.convs.0.lin.weight f4 [64, 64]
00000000: b58f 5c3e bdc9 903d 6061 783d 7830 123e
00000010: 5cd7 9bbb ca38 063d 756d 693e 2b80 923e
00000020: a7d0 493d d942 1f3d e65b 13be 6c2d f7bc
00000030: 81bc 7a3d 8a3c c0bd 538e 05be 6b48 f43d
00000040: 7d65 fbbd 5bb9 9f3d c43d 233e 63a8 0a3e
00000050: 7bd8 44be 3f16 76be c2ed f1bd f493 2dbe
00000060: 8c9d 193e 0848 433e 4271 1f3e 3428 cdbd
00000070: 8f99 28be 654c ca3e 6310 bf3d 1f45 87be
00000080: 2a95 613e 34e4 2d3e 07c6 d03d 37c3 4dbd
00000090: 96d6 c1bd 20b8 813d 87be 003f e35d 063d
000000a0: 3941 eebc 190f 6fbe 1f42 21be 5442 45bd
000000b0: 14e3 0f3e de49 18bd 51da 15be bd68 bfbd
000000c0: 6bd3 f93e e7a9 d2bd 9cb1 bd3d 7356 5c3d
000000d0: 69cb b5be 399a 1d3e fe89 f73d 4768 4a3e
000000e0: 691c 203e d85d 95bd b1c0 ab3e 0ef4 1e3e
000000f0: 1ca3 8cbd 81b3 adbe 9f3a 93bd e37d 2fbe
00000100: 66f4 003e d54b d13d 395f d03d 62f5 093e
00000110: e451 293e c279 5cbd 09cf 983e 7977 ec3c
00000120: 6963 c63d 0a74 b43c b5ec 8f3e c3dc 233d
00000130: e65d c6be 0bda 08be aac0 3e3e 3e00 843e
00000140: 9c8e d0bc 69ae 943d bd68 083d ffc8 2dbe
00000150: 1109 883e 388f 82be bfc9 bd3d 790f 29bd
00000160: 2040 5b3e 374e 97be 7fd0 3b3e 981e 273e
00000170: 9646 d33c fb79 23be b801 93bd 7fd8 56be
00000180: d124 5a3d 227a f83c b812 d1bb 285e d6bd
00000190: 8b9e 0a3e ac42 86be 6df8 a8bd 1029 503d
000001a0: 7df9 6c3e 6017 933e cdfc 563d d49a 173e
000001b0: c5bb 02bd 3897 1ebe eead 43bc 5b32 a83d
000001c0: c264 82bd 58d7 0dbe 024d c43e 2701 d5bd
000001d0: 5f3b 8ebe 7de6 463d 3584 4d3c 676b fa3d
000001e0: 35e8 1fbd 432b 11be 78f1 a13e 33f4 81be
000001f0: 5fc9 d33d f768 3b3e 890e 25bd 740e 16be
00000200: 27ff b13c 1019 aabe c29a 813d 923b b33e
00000210: 471f 183e 97c5 3ebc fb24 39bc 8b32 aabe
00000220: 95f1 0bbc a450 033f 2d3e 33be 5e19 c23e
00000230: f577 0e3f 160c fc3d 853a 033f d0ba 5dbe
00000240: 3428 b5bd 9422 453d 78cc 203e 83e2 9a3c
00000250: 3944 1bbb 546a be3d a422 353e 1a25 bdbe
00000260: 4e16 d1bd b14d a4be 5706 c33d dbce 1e3e
00000270: d9f1 c5bd f2bd 683e efb3 493d 1dc8 113e
00000280: 1259 723d 51cd cf3c f810 3dbe b514 5bbe
00000290: ef28 ea3c c1f5 53bd 0ed3 273e e8a4 2fbc
000002a0: b70c f73d 95bd 2fbe b191 c8bd 2b45 b2bd
000002b0: 8044 083e 2252 183c 3c59 85be 7dcd 113d
000002c0: ff80 a53b fe11 403e cbc2 74bd a066 11be
000002d0: 1598 bbbd ba4b 4dbe 51f7 5fbe 3ea8 203b
000002e0: 8c32 d4bd cc57 b03d 75f0 9b3d 1053 0ebe
000002f0: 4779 dfbc bed2 a9bd a38b 5dbe dc0f 51be
00000300: 3155 a63d 4d1b cb3c 3ba0 4b3e 8db5 d73d
00000310: b823 943c 8b5c 9a3e d581 69be 5f23 443c
00000320: 9eb5 b1be f8ae cbbe cfe2 e8bd 2af5 453d
00000330: 8b0e c43d 5e28 a5be 8ceb a1bb fb9a 2bbe
00000340: 418c 8c3d a6c7 c53d e7a9 5fbc 0e9f f0bd
00000350: fe91 ffbd 7ec8 033d 33a5 fcbc 1d11 cebd
00000360: 9b4a abbd 4b91 e9bd 7594 053d d66e 0c3d
00000370: 112c ddbd 9e79 ff3d ca08 b83d 5a7a af3d
00000380: 8641 143d 94d8 12bc 0729 823e 8db8 0d3e
00000390: 8376 573d ab96 bb3d bfba d43d 02ce 5a3d
000003a0: a139 35bd b031 e93d da49 71bb d6b8 c23c
000003b0: 1771 11be 0614 893e bc7d aebc 366f febc
000003c0: 2856 56bd 5521 63bd 66fc 113e 6a98 dabc
000003d0: fcc4 9c3e 064a 823d 7d83 f5bd 3ba8 493e
000003e0: bf0d e6bd 69b0 27bd 7660 9cbe cb7d b4bc
000003f0: 7098 a03d b51e 09bd 1cbe 46bd afa7 e1b9
0.21539195 0.070697285 0.06063974 0.14276302 -0.0047558974 0.032769002 0.22795661 0.2861341
0.049271252 0.03888211 -0.14390525 -0.030173026 0.061214928 -0.09386547 -0.13042574 0.11927875
-0.12275217 0.077990256 0.1594153 0.13540797 -0.19223206 -0.24031924 -0.11812927 -0.16950971
0.15001506 0.19070446 0.15570548 -0.10017434 -0.16464828 0.3951141 0.093292974 -0.26419923
0.22029558 0.16981584 0.10194021 -0.050235 -0.09464757 0.06333947 0.5029072 0.03280438
-0.029083835 -0.23345603 -0.1574788 -0.04815896 0.14051467 -0.03717982 -0.14634062 -0.09346149
0.48794112 -0.102863126 0.09262392 0.053793382 -0.35506752 0.15390863 0.12086867 0.19766341
0.15635838 -0.0729329 0.3354545 0.15522787 -0.06867048 -0.33926013 -0.071889155 -0.17137866
0.1259323 0.10219542 0.10174412 0.13472512 0.16535145 -0.053827055 0.29845455 0.028865563
0.0968693 0.022027988 0.2811028 0.040005457 -0.38743514 -0.13364427 0.18628183 0.25781435
-0.025458626 0.072598286 0.03330301 -0.16971205 0.26569417 -0.25499892 0.09266996 -0.04127452
0.2141118 -0.2955186 0.18341254 0.16320264 0.025790494 -0.159645 -0.07178062 -0.20981024
0.053257767 0.030331675 -0.0063804053 -0.10467178 0.13537042 -0.26222742 -0.082505085 0.05082041
0.23142047 0.2872877 0.052487183 0.14805156 -0.031917352 -0.15487373 -0.011943324 0.082127295
-0.06366874 -0.13851678 0.38340002 -0.104006104 -0.27779672 0.048559655 0.012543728 0.122275166
-0.03903981 -0.1417666 0.3162954 -0.25381622 0.10341143 0.1830176 -0.040297065 -0.14653951
0.021728111 -0.33222246 0.06328346 0.35006386 0.14855681 -0.011643789 -0.011300321 -0.33241686
-0.008541484 0.5129492 -0.17504187 0.3790998 0.5565179 0.12306993 0.5126117 -0.21653295
-0.08845559 0.04812868 0.15702999 0.018906837 -0.0023691787 0.09297624 0.17688996 -0.3694237
-0.102093324 -0.32090524 0.095226936 0.15508597 -0.096652694 0.22728708 0.049243864 0.14236493
0.059166975 0.025366457 -0.18463504 -0.21394618 0.028583972 -0.05174804 0.16389105 -0.010720469
0.12062972 -0.17162164 -0.097934134 -0.08704599 0.1330738 0.009296926 -0.26044643 0.03559636
0.005050778 0.18756863 -0.05975608 -0.14199305 -0.09159867 -0.20048419 -0.21871687 0.0024514343
-0.103612036 0.08610496 0.07614223 -0.13898873 -0.02727951 -0.08292149 -0.21635298 -0.20416206
0.08121718 0.024793291 0.19885342 0.10532675 0.018083438 0.3014873 -0.22803433 0.011971324
-0.34708875 -0.39781928 -0.11371385 0.04832951 0.09573086 -0.3225736 -0.0049414095 -0.16758339
0.06862689 0.096572205 -0.013651348 -0.11749087 -0.12479018 0.032173626 -0.030840492 -0.10061858
-0.08363839 -0.114046656 0.032612283 0.03428539 -0.107994206 0.124743685 0.089860514 0.085682586
0.0361953 -0.008962769 0.25421926 0.13839932 0.052603256 0.09159597 0.103871815 0.05341912
-0.044244412 0.1138643 -0.00368177 0.023769777 -0.14203297 0.2677309 -0.02130019 -0.031058889
-0.05232826 -0.05545171 0.14256439 -0.026684005 0.30619037 0.06361775 -0.1198797 0.19693081
-0.112330906 -0.040939722 -0.30542344 -0.022032639 0.07841575 -0.03347655 -0.048521146 -0.00043040278

gcn.convs.1.bias f4 [64]
00000000: 9aa5 26bf 733b ef3e a041 a23e 7a48 7dbf
00000010: 95fe e93e 0317 9abf 1881 babf 0250 03bf
00000020: f379 cabf ce2c 07bf 9526 013f b646 dabf
00000030: 3583 25bf 00e6 723e a32a 75bf d1e5 4ebf
00000040: 866a dfbf 1ba3 9ebf 6ba4 c0bf c159 d53e
00000050: a36b 19bf 15ae 08bf bac6 80bf f59c f3bf
00000060: 06fa f23e 065b acbf abef 11bf 4520 ad3e
00000070: f70a 26bf 76a7 15bf 7151 03c0 9810 91bf
00000080: 7bbb 9abf 9752 0a3f 12b6 36bf fbd7 eabf
00000090: bfd8 fabe f39d 10bf ba22 e8bf b4b8 58bf
000000a0: 4342 0bbf 0af1 56bf d4fc a53e a7d3 aebf
000000b0: 6b71 b83e 5c4d 44bf 9fd3 a2bf 0a8a dfbf
000000c0: 70a6 95bf 92f3 3abf 3d8a a13e aed0 cebf
000000d0: 9801 a1bf e90e 92bf aef6 8cbf 5f57 23bf
000000e0: a12f c3bf 4407 33bf 3ed6 6ebf abb5 a0bf
000000f0: 836b 48bf 2096 e9bf 6dd1 f43e 0d93 72bf
-0.6509644 0.46725044 0.31690693 -0.98938715 0.45702043 -1.2038273 -1.4570646 -0.5129396
-1.5818466 -0.5280274 0.50449497 -1.7052829 -0.6465333 0.2372055 -0.95768183 -0.8081942
-1.7454383 -1.2393526 -1.5050176 0.4167004 -0.59929866 -0.5339063 -1.0060647 -1.9032274
0.47456378 -1.3465278 -0.5700633 0.33813682 -0.6486048 -0.5845865 -2.0518458 -1.1333189
-1.2088464 0.5403227 -0.7137157 -1.8347162 -0.4899349 -0.5649101 -1.8135598 -0.84656835
-0.5439798 -0.83961546 0.32419455 -1.3658341 0.3602403 -0.7668054 -1.2720832 -1.7464001
-1.1691418 -0.7302791 0.3155078 -1.6157434 -1.2578611 -1.14108 -1.1012781 -0.6380519
-1.524891 -0.6993296 -0.9329566 -1.2555441 -0.7828905 -1.824894 0.4781603 -0.9475563

gcn.convs.1.lin.weight f4 [64, 64]
00000000: f5c1 1f3e b7fe 203e 3441 cf3d c68c f6bd
00000010: 9077 ad3e 5558 4b3e 7665 d33d 8b4a 493e
00000020: 53ff 273e 5afc 1f3e 3a59 d2bd 838c 893e
00000030: 272f 8c3e 5004 943e 697f 7f3e e7cd 733e
00000040: 6182 1abe 54ea 893e edea 993e bf07 853e
00000050: fec8 d93d 4b7d 9a3e 3575 4e3e 2a19 7f3e
00000060: d99f 4b3e a2fb 1f3e 53b4 f13d b1c5 9b3e
00000070: 49b4 953e 8f72 683e fae2 0a3e 791e 973e
00000080: e36f 9c3e f5ff 593e c019 eb3d f2ea ec3e
00000090: 6c3a a53e 482a e73d 7d73 723e 33e8 603e
000000a0: e503 a43e dde6 fe3e 9a22 a03e b875 4e3e
000000b0: 3784 ed3e c6c7 963e 29c7 b13e 8fa1 2d3e
000000c0: 8c24 133f 3243 643e 49df a53e 6be7 a33e
000000d0: a16b 913e 7e4e b93e 026e 5a3e 379e db3e
000000e0: 7894 613e c4aa 343e de53 233e 0c09 4f3e
000000f0: e5f5 963e d88f 313e 29fa b13e 40dd 713e
00000100: 6c93 90be 65d2 c1bd 96d2 89be 7ea9 ca3d
00000110: dc2c c7bd 1fc3 46be 451d 81be 0b0b 63be
00000120: 7b44 2abe 8cf7 2abe c3f2 aa3c 0124 32be
00000130: 2af4 7bbe 852b 5ebe 6f4f 8bbe b395 e3be
00000140: 885a c5bd 1b1f bcbe 5bdc acbe f6df 3dbe
00000150: 15b9 9bbe 1ee6 53be de86 eabe cc8e 8cbe
00000160: d078 00bf 24b3 5fbe f06e 60be af95 7fbe
00000170: 20e9 92be 8b54 44be 28b8 a1be f877 d8be
00000180: f150 a2be a687 acbe ea65 1fbe e383 e0be
00000190: 6228 89be c7eb 0cbf 6398 96be 731d 87be
000001a0: 6b4c 95be 59e6 9dbe 8236 8ebe 607c 8abe
000001b0: 20c8 87be afea c0bd 2c9b afbe d29d 80be
000001c0: 3f7e aebe 1f28 c1be 8786 45be f89f 7dbe
000001d0: 9da2 c9be f741 97be 92f0 5ebe e988 8cbe
000001e0: 70bd 59be 0374 5fbe 9259 84be 25e2 35be
000001f0: 3616 9bbe 75a4 0ebe 2885 84bd 9e9e 8abe
00000200: aaa3 01bf 0014 e6bd f430 88be ed63 d63b
00000210: de8f f0be 54c2 babe 702c a5be 8f38 43be
00000220: a705 62be c153 c4be d698 de3d e16c 8fbe
00000230: 050a 9abe 68b0 f4be 4d96 78be 2dc6 7fbe
00000240: 7d86 ccbc 0561 08bf 350a b0be 5e9d 06bf
00000250: d819 b1be 0c70 eebe d1f4 1bbe 0675 20be
00000260: 4595 66be ea6a 72be a7b1 c6be 7c7d 30be
00000270: ece2 d5be 3e70 86be 8179 d6be ac45 c8be
00000280: e295 21bf 8387 6cbe 5bff 16bf e71a ddbe
00000290: 9182 fdbe 9c95 b0be 230b dabe e511 d8be
000002a0: 3cd6 a6be e166 bdbe 1202 15bf 7545 eabe
000002b0: 6c26 f9be 2af5 3abe 79e2 91be d9d8 adbe
000002c0: b488 9fbe 07b9 95be 48cb 98be e1d0 dabe
000002d0: bacf ecbe adb7 43be eba0 02be e7dc c5be
000002e0: 1b2f b5be e99a f8be 321b 96be e28a cdbe
000002f0: 65f4 87be 0c64 c4be 1a4f 3fbe 2a38 fdbe
00000300: c8b0 ed3e 2717 ee3d f02d a93e 80d5 e8bb
00000310: 0aaf e33d 1a31 873e 99b8 a13e 130e 833e
00000320: 87d6 513e 091d 143e 8096 d2bd 1b31 e33d
00000330: e210 7c3e 331d 503e 08bb aa3e f333 923e
00000340: 3b6b 363d d12e 1b3d 2a7d bf3e eacc d23d
00000350: 10ca b83e 38a4 b93e 373e 9e3e 828d 803e
00000360: d596 b03e 22f2 3f3e ceb9 833e 524c d83e
00000370: 72c8 eb3c b4bc 983e 4844 943e d578 7b3e
00000380: 7ad4 a83e 3181 eb3e 1e26 583e abad 933d
00000390: 1e06 e73e 152a 883e bb1f 513e 1d33 bb3e
000003a0: 76c9 853e 345a 063e 6773 903e af20 c23e
000003b0: c335 de3e 2e2d 9f3e 7f95 073f 4304 193e
000003c0: 141e af3e 50ee fc3d 966c 063e ebf8 a73e
000003d0: 8978 5e3e 1af8 963e 327f 973e 2cc0 023e
000003e0: 80b6 9f3e db20 893e 684e 903e 644d 443e
000003f0: ba5e ad3e 52cc ad3e dfec d13e 38f2 7d3e
0.15601332 0.15722166 0.101198584 -0.12038569 0.3388028 0.19857915 0.103220865 0.19657342
0.16405992 0.15623608 -0.10270925 0.26865014 0.27379724 0.2890954 0.24950947 0.23809014
-0.15088798 0.2693659 0.30062047 0.25982472 0.10634039 0.30173716 0.20161898 0.24911943
0.19885196 0.15623334 0.11801972 0.30424264 0.2923911 0.2269995 0.13563147 0.29515436
0.30554113 0.21289046 0.11479521 0.46273 0.32271135 0.112873614 0.23676868 0.21963577
0.3203422 0.4978551 0.312764 0.20162094 0.46389934 0.2944929 0.3472226 0.16956161
0.5747764 0.22291258 0.32396916 0.32012495 0.28402427 0.36192697 0.21331027 0.42894146
0.22029293 0.17643267 0.15949962 0.20218295 0.29484478 0.17340028 0.3476117 0.23619556
-0.28237474 -0.09463958 -0.26918477 0.09895609 -0.09725353 -0.1941037 -0.25217643 -0.22172181
-0.16627686 -0.16695994 0.020867711 -0.17396547 -0.2460486 -0.21696289 -0.2720904 -0.4445015
-0.09636408 -0.36742482 -0.33761868 -0.18542466 -0.30414644 -0.20693251 -0.4580602 -0.27452695
-0.50184345 -0.2184568 -0.2191732 -0.24959444 -0.28693485 -0.19172876 -0.31585813 -0.4227903
-0.31702378 -0.33697242 -0.15566221 -0.43850622 -0.26788622 -0.5504727 -0.29413137 -0.26389655
-0.29159865 -0.30839804 -0.2777596 -0.27048016 -0.2651987 -0.09419762 -0.34298074 -0.25120407
-0.34080693 -0.37725922 -0.192896 -0.24768054 -0.39381877 -0.29542515 -0.21771458 -0.27448204
-0.21263671 -0.21821599 -0.25849587 -0.17762049 -0.30290383 -0.13929923 -0.0647071 -0.2707414
-0.50640357 -0.112342834 -0.26599848 0.006542674 -0.46984762 -0.36476386 -0.32260466 -0.19064544
-0.22072469 -0.3834515 0.10868995 -0.28012756 -0.3008577 -0.47790837 -0.24276085 -0.24977942
-0.024966473 -0.5327304 -0.34382787 -0.52583873 -0.3459003 -0.4656986 -0.15230109 -0.15669641
-0.2251788 -0.23673597 -0.38807413 -0.17235368 -0.4177469 -0.2625751 -0.41889575 -0.39115655
-0.6311933 -0.23098569 -0.5898339 -0.43184587 -0.49513677 -0.34489143 -0.42586622 -0.42201152
-0.32585323 -0.36992553 -0.58206284 -0.45756117 -0.48662126 -0.18257585 -0.28493097 -0.33954504
-0.31158984 -0.29242727 -0.2984259 -0.42737487 -0.46252233 -0.19113036 -0.12756698 -0.38645098
-0.353875 -0.48555687 -0.29317623 -0.40145022 -0.26553646 -0.3835758 -0.18682519 -0.49456912
0.46423936 0.1162551 0.3304286 -0.0071055293 0.111173704 0.2640465 0.3158615 0.25596675
0.20491992 0.14464201 -0.10282612 0.110933505 0.24615815 0.20323639 0.3334582 0.2855526
0.044535857 0.037886444 0.3740018 0.102929905 0.3609166 0.362581 0.3090684 0.25107962
0.34490076 0.1874471 0.25727695 0.42245728 0.028782103 0.2983147 0.28958344 0.24557813
0.32974607 0.45997003 0.2110829 0.07210859 0.45121855 0.26594606 0.2042226 0.36562434
0.26130265 0.13120347 0.28213045 0.3791556 0.43400392 0.31089157 0.5296249 0.14943032
0.34202635 0.12350142 0.1312736 0.32807097 0.21725668 0.2948616 0.2958923 0.1276862
0.31193924 0.2678288 0.2818482 0.19170147 0.33861333 0.33944947 0.4100103 0.2479943

gcn.convs.2.bias f4 [64]
00000000: d387 293d a7a8 3abb 9476 22bd 1533 93be
00000010: bf02 14bd 429a debb 2837 acbc c669 4b3c
00000020: 4484 90bc e79b 1a3c 87f9 8abd 6af0 8ebc
00000030: 96a2 113d 0718 e4bc 6ba3 343c f8f1 983d
00000040: 0355 1ebd 2de9 a53c fa1d 83bd cd84 95bd
00000050: 9c54 bdbd 85d1 26bc 151e 183d 5a76 6dbd
00000060: 01db bbbe 45c4 3f3d 7163 343c e332 ad3c
00000070: 38c1 743d 5739 3fbb 86fa 073d b27c 8fbc
00000080: 06b8 d13d 70f3 023d 7a14 453d e3e4 103d
00000090: 5694 a4bc 8fb9 c5bc e44d 72bb e979 a43c
000000a0: 8f74 a6bc e26b 643a 4e96 a23d 19d6 be3a
000000b0: a582 2fbb f6d1 b53d d77e b4bc d3cc 283d
000000c0: 671f c73c a3a4 8b3e e2e8 dcbd d1bc 75bc
000000d0: 744d ae3c a996 5bbc 006e c03c 794d 0bbc
000000e0: e972 8cbd ddda e33b ed09 743c a4ee 2cbd
000000f0: 0121 8d3c 160d 283c bac8 c1bc ad92 fb3c
0.041389298 -0.0028481872 -0.039663866 -0.2874991 -0.03613543 -0.0067932913 -0.021022394 0.012415355
-0.017641194 0.009436584 -0.06785875 -0.017448623 0.035555445 -0.027843488 0.01102529 0.07468027
-0.038655292 0.020252788 -0.06402202 -0.0730072 -0.092446536 -0.010181789 0.037138063 -0.057974197
-0.36690524 0.046818037 0.011010037 0.021142429 0.05975458 -0.0029178464 0.033197902 -0.017515514
0.10240178 0.03197044 0.04811523 0.035374533 -0.020090263 -0.024136333 -0.0036972696 0.020077663
-0.020319251 0.00087135856 0.079388246 0.0014559656 -0.002678075 0.088779375 -0.022033138 0.04121096
0.024306966 0.27274045 -0.10786606 -0.014998631 0.021277167 -0.013402619 0.023489952 -0.008502358
-0.06857855 0.006953581 0.014894945 -0.042219773 0.017227652 0.010257026 -0.023655284 0.030709589

gcn.convs.2.lin.weight f4 [64, 64]
00000000: 164e c63c 15c0 c03d f09d 3c3d 9b54 7c3d
00000010: a7d9 2abd e162 813e a298 023e 66be 6e3d
00000020: 42b5 233d ca26 00bd 0c82 e9bc 1151 eebd
00000030: 5322 b63d 20d5 33bd 0d88 17bd 1dc1 073d
00000040: 7120 51bc 2c1c ddbd 4e28 02be eeeb 7b3d
00000050: a5a6 e23c 6460 74ba c781 d03d 9f76 dcbd
00000060: 5fac 83bd 5d3a 81bd 1f4e d6bc a2f3 28bd
00000070: be05 e73b dcad 0cbc eb84 d9bc f075 dd39
00000080: 56eb 063e 4981 473c eb17 83bd ea5e fbbd
00000090: 3a5d d73b 3f02 1a3d 7f04 30be a7e1 05bd
000000a0: 4a83 1cbd a23d 07be bbae e2bb 5fba 153d
000000b0: 5127 15bd c620 a93d c007 bfbd f11b c9bd
000000c0: 37db d53d 53d4 16bd d634 f8bc 6db0 c43c
000000d0: f687 e1bd db5e e83d 354c 853c 018a 89bd
000000e0: c162 dcbd 04ce ff3c b8c2 9e3d 7319 01be
000000f0: 5341 1ebd cb9f 4dbd a600 dabc e004 063e
00000100: 2d9d 543d 131f d3bc 30d6 e03c f5d2 8f3c
00000110: 007f 253d c763 de3d 34b5 a93d 5e9d 28bd
00000120: 419d 37bc cc43 45bd 040d fbbd ad9b a1bd
00000130: 5b2b 05bc 04c9 b73d ec32 35bd 31aa 84bd
00000140: bb70 0cbe d758 e0bb 167d 80be 36ce 4d3c
00000150: 6bac 07bd 4232 3fbd babc c13d 6b42 41be
00000160: 6b0d abbd 7688 10bd 4027 903c e196 d93d
00000170: d522 d8bc 07fd 68bd 2786 0fbe f00c 683d
00000180: d048 c53d 588f ad3b c868 4d3d a042 99bd
00000190: d2a2 ccbd bf3e a13d c5f7 1fbe 74e3 19bd
000001a0: 770a da3c 3254 d73c cdde 7f3c 9850 71bd
000001b0: 8028 453e 6973 963d 4394 cebd 2b57 1dbe
000001c0: 28ac 2b3d 43b5 b93c b7bc 88bc 15cd a73b
000001d0: 3669 d3bd e052 113e 8213 c53d 3427 51bd
000001e0: 5c02 00bc efbc 783c 8496 333e 79c0 b3bc
000001f0: 7855 74bb 3450 09be 7c12 84bd f656 dc3d
00000200: 1ad1 f23c 6dcc 09be a074 a33e 6067 82bd
00000210: b576 8d3c 6b24 ae3a a432 43bd e2cc d8bd
00000220: 96ad 81be 3e06 0b3d 19e8 ffbd 55ea 3cbe
00000230: ab13 503d 5f50 8e3e bad7 d43c 6dd5 0c3e
00000240: 464c 78be 2dce 513d 0562 58bd 7e9e 1b3d
00000250: 19c4 c7bc c336 63bc 4b3a 123e 99c8 86be
00000260: 40dd 8dbd 07e8 24be eca4 60bd afbc 5f3e
00000270: 056c 413d ad0d c23c bfd2 8cbe 3e47 01be
00000280: befc b6bd 118c a9bd 522d f33d d20d 07be
00000290: bacc 8a3c 7099 063d 19bf 0cbe 26be a2bb
000002a0: cf56 963d 1558 4fbd b98b 613e 6b77 c6bd
000002b0: 131d 953e 7bd1 babd 06d7 f93c 66c2 1fbe
000002c0: 1209 3f3d aa0d 573b 4423 b83d f3e6 9ebd
000002d0: d423 3fbd 2f9c 723c 5b33 98bc df91 4d3c
000002e0: 6ff5 ebbd b8ba a03d 7b8a ccbd 778f 8cbd
000002f0: 7baa 763c 58d5 77be 11d7 f63c 554f a23c
00000300: 161a 243e ae08 883e 6a2e 0d3f 1d01 2d3d
00000310: 4c97 153e 9eb5 053e 17c0 c33e 1857 39bd
00000320: 1ddc ca3e 282a 643d af77 683e e95a fe3e
00000330: 1096 713e 67fb 173f 2890 a33d a634 b33e
00000340: 33fb 2b3f dd83 853c c5d6 753f e76e 593e
00000350: e7e0 5b3d b79f 403e 41d5 b43e dbbb 1f3f
00000360: e887 a43d cbca 613e 9eec 1f3e 3e4d e03e
00000370: 8827 4d3d de5b 0f3e fd56 253f d824 ee3e
00000380: eaae cd3e 4507 493e 9dd1 c63d 357d 063f
00000390: 7875 6f3c eaef 3d3e 3143 273f 6968 933e
000003a0: 0d4e 503d a3d4 773e d399 843e 5137 7c3e
000003b0: e74e 0b3f fbfa 733e 62b0 243f 5c9a 363f
000003c0: 4e5d c13e 9f2c df3d 5e92 953e f057 0b3f
000003d0: 1948 223f eb36 953e 2c4b 983d 56d8 553e
000003e0: b329 eb3e fa22 ff3c 3ca8 b73e dd87 873e
000003f0: fcd4 35bd 4ef0 0d3f 7cfe 7f3e 9c34 253e
0.024207156 0.09411637 0.04604906 0.061604124 -0.041711476 0.2527075 0.12753537 0.058287047
0.039967783 -0.031286992 -0.028504394 -0.11636556 0.088932656 -0.043904424 -0.036994983 0.03314315
-0.012764082 -0.10796389 -0.12710688 0.061504297 0.027667353 -0.00093222247 0.10181003 -0.10764813
-0.064293616 -0.0630996 -0.026160298 -0.04124797 0.007050245 -0.008586373 -0.026552638 0.00042240275
0.13175711 0.01217682 -0.06401046 -0.12273963 0.006572393 0.0375998 -0.17189215 -0.032685902
-0.038211145 -0.13207105 -0.006917802 0.03655469 -0.03641445 0.08258204 -0.0932765 -0.098197825
0.104422025 -0.036823582 -0.030298632 0.024009908 -0.110122606 0.11346217 0.01627169 -0.06715775
-0.10761023 0.031226166 0.077519834 -0.12607364 -0.038636517 -0.05020122 -0.026611637 0.13087797
0.051907707 -0.025771653 0.027445883 0.017556647 0.04040432 0.10858875 0.08286515 -0.041165702
-0.011206926 -0.04816036 -0.12258342 -0.07891021 -0.0081280125 0.089738876 -0.044238016 -0.06477774
-0.13714878 -0.006846528 -0.25095433 0.012561372 -0.033123415 -0.04667879 0.09459825 -0.18872993
-0.08352169 -0.03528639 0.01759684 0.10624481 -0.026383797 -0.05688193 -0.14016019 0.056652963
0.096330285 0.005296629 0.050148755 -0.07483411 -0.09991993 0.07873296 -0.1562186 -0.03757043
0.026616318 0.026285265 0.015617085 -0.05891475 0.19253731 0.073462315 -0.100868724 -0.15365283
0.041912228 0.02266944 -0.016691549 0.005120883 -0.10322802 0.1419177 0.096228614 -0.051062778
-0.0078130625 0.015181764 0.17537886 -0.021942364 -0.0037282389 -0.13409501 -0.06448838 0.10758774
0.029640723 -0.13456888 0.31924915 -0.063673735 0.017268518 0.0013286 -0.047655717 -0.10585953
-0.25327748 0.0339415 -0.12495441 -0.18448766 0.050800007 0.27795693 0.025981773 0.1375329
-0.24247846 0.051222015 -0.052827854 0.037992947 -0.024385499 -0.013868037 0.1428005 -0.2632492
-0.06926966 -0.16104136 -0.05484478 0.21849321 0.047222156 0.023688162 -0.27504537 -0.12624833
-0.089349255 -0.08278669 0.118738785 -0.13188866 0.016943324 0.032861173 -0.13744773 -0.004966515
0.07340776 -0.05062111 0.22025956 -0.09690746 0.29123744 -0.091219865 0.030498039 -0.15601501
0.04663951 0.003281454 0.089911014 -0.07758894 -0.046665028 0.014807745 -0.018579176 0.012546985
-0.11521422 0.07848114 -0.099873506 -0.06863301 0.015055294 -0.24202478 0.030131849 0.01981322
0.16025576 0.26569122 0.5514895 0.04223739 0.14608496 0.13057563 0.3823249 -0.045249075
0.39621058 0.055704266 0.22701906 0.49678734 0.235924 0.59367985 0.0798648 0.35001105
0.67180175 0.016298229 0.9603084 0.21233712 0.05368128 0.18810926 0.3531895 0.6239602
0.080337346 0.22050016 0.15617606 0.4380893 0.050086528 0.13999888 0.6458586 0.46512485
0.4017251 0.1963168 0.09707949 0.525348 0.014615409 0.18548551 0.653369 0.28790596
0.050855685 0.24202208 0.2589861 0.24630477 0.5441727 0.2382621 0.6433164 0.71329284
0.37766498 0.10897183 0.29213232 0.54431057 0.6339126 0.29143462 0.07436213 0.20883307
0.4593025 0.031144608 0.3587054 0.26470843 -0.04439257 0.554448 0.24999422 0.1613335

edge_feature_mlp.0.weight f4 [64, 5]
00000000: 9351 0c00 fc85 0600 8e4d 0a80 8753 0380
00000010: c94e 0380 390f 0800 4e11 0300 fb23 0c00
00000020: 079c 0100 d970 0c80 ef92 0c00 32a7 0600
00000030: 220c 0c00 956f 0380 cc95 0380 1698 0480
00000040: 794b 0880 a872 0080 2388 0500 b996 0200
00000050: aee3 0400 268d 0300 6c39 0480 744d 0700
00000060: 784d 0180 5e2b 0d80 b613 0300 99a6 0a80
00000070: 713c 0380 ce12 0600 6987 0300 5255 0880
00000080: 2e06 0000 7bc5 0600 0d85 0300 a51e 0580
00000090: 71eb 0200 e958 0780 2ceb 0400 e71d 0480
000000a0: a789 0300 a4bd 0480 919e 0400 4c01 0680
000000b0: cb70 0200 a180 0280 f80f 0000 0247 0300
000000c0: f75e 0100 f942 0d80 7ce4 0400 7d5b 0580
000000d0: 3aef 0480 751e 0800 1e8b 0100 36e5 0b80
000000e0: 8f60 0700 f6b2 0480 d716 0600 5830 0480
000000f0: ba9f 0200 a94c 0600 c516 0800 c652 0500
00000100: eacc 0480 f36a 0300 899b 0780 2dde 0200
00000110: aa09 0380 36a7 0c00 78f3 0600 3863 0380
00000120: a4ca 0b80 cd06 0d80 e240 0780 9047 0b00
00000130: 8857 0700 2c7d 0180 641b 0480 5500 0500
00000140: 8c4f 0300 7edb 0980 e305 0580 3658 0180
00000150: b9fd 0580 a1aa 0c80 3af4 0c80 9657 0080
00000160: 816d 0380 f231 0880 e3f4 0c00 da78 0000
00000170: 59e5 0200 3368 0180 45b2 0180 244d 0580
00000180: 66cc 0100 5029 0880 ea32 0400 a144 0880
00000190: 24a6 0580 7da5 0c80 f219 0800 3b01 0c00
000001a0: 5f10 0400 f859 0c80 6c41 0300 7a63 0880
000001b0: 6946 0d80 aa25 0880 7038 0600 d9b0 0080
000001c0: 639f 0480 6a7f 0400 3695 0180 9737 0200
000001d0: 62d5 0680 12e2 0900 778c 0680 748e 0a80
000001e0: 8fdd 0700 db8f 0180 b14e 0d80 cf92 0a00
000001f0: 18db 0300 7f02 0500 3e91 0580 b2e6 0c80
00000200: 9c2e 0600 59c4 0600 40e8 0980 7281 0680
00000210: bee5 0300 ae94 0300 ad37 0780 4c88 0500
00000220: e918 0d00 6e86 0380 b6b4 0b00 897e 0600
00000230: 1210 0400 bb64 0380 13b6 0b00 3d69 0580
00000240: 0956 0300 5d77 0a80 8b52 0480 5830 0100
00000250: cb38 0280 7497 0180 4509 0680 1922 0880
00000260: 8c35 0480 bf07 0480 b2ab 0000 947c 0180
00000270: af44 0580 6393 0a00 1757 0280 6172 0500
00000280: 71ac 0b80 7e78 0a00 9123 0680 6f96 0200
00000290: ba4a 0580 88c7 0d00 7456 0300 4340 0800
000002a0: fcb8 0580 c042 0880 707d 0280 7467 0480
000002b0: ddac 0180 f082 0000 5e2b 0300 bc91 0a80
000002c0: a153 0480 e9c9 0280 6963 0a80 691d 0500
000002d0: 2a6c 0780 4d59 0480 d4d7 0b00 e0a5 0280
000002e0: ac8d 0c00 3473 0500 2f62 0280 9989 0580
000002f0: be52 0300 9d41 0d00 7381 0600 4069 0280
00000300: 9c87 0200 2e51 0780 48fb 0280 b5e5 0280
00000310: b007 0d00 5963 0280 7f92 0280 972b 0400
00000320: 6a76 0280 4965 0500 10c2 0200 2c1c 0c00
00000330: 08d8 0600 7cc2 0400 ccb8 0b00 4c5e 0480
00000340: c4a2 0000 9a06 0680 58ba 0780 01fa 0580
00000350: b04a 0680 ad7b 0580 a1b5 0280 31c6 0400
00000360: 5c05 0c00 2fd4 0100 bd2f 0880 292c 0880
00000370: 0578 0480 e854 0480 110f 0c80 d00e 0500
00000380: fbd8 0100 fc24 0100 6891 0680 307b 0300
00000390: 7289 0a80 7e78 0400 a675 0a00 c6a9 0a00
000003a0: dc1b 0480 2e39 0200 7811 0600 42c8 0480
000003b0: 25b1 0680 c40e 0800 3b85 0300 32da 0900
000003c0: 5bf6 0b80 451a 0580 f63c 0800 d7a5 0180
000003d0: 54d6 0600 04b7 0200 5a47 0500 a138 0300
000003e0: 2f17 0600 acb5 0580 99f2 0580 b7ce 0000
000003f0: 1802 0300 cc63 0280 8f84 0580 e39f 0280
1.131289e-39 5.99078e-40 -9.46176e-40 -3.0547e-40 -3.03769e-40 7.40145e-40 2.81714e-40 1.114933e-39
1.47808e-40 -1.142508e-39 1.154736e-39 6.10991e-40 1.106378e-39 -3.15535e-40 -3.29243e-40 -4.219e-40
-7.61758e-40 -4.1131e-41 5.08014e-40 2.3774e-40 4.49018e-40 3.26141e-40 -3.87941e-40 6.70633e-40
-1.19626e-40 -1.209419e-39 2.82577e-40 -9.78119e-40 -2.97189e-40 5.57759e-40 3.24082e-40 -7.65291e-40
2.217e-42 6.21856e-40 3.23236e-40 -4.7017e-40 2.68131e-40 -6.74743e-40 4.51706e-40 -3.78069e-40
3.24887e-40 -4.35372e-40 4.24225e-40 -5.51478e-40 2.24133e-40 -2.29814e-40 5.729e-42 3.00979e-40
1.25902e-40 -1.217887e-39 4.49307e-40 -4.91997e-40 -4.5316e-40 7.4561e-40 1.41741e-40 -1.092416e-39
6.77487e-40 -4.31541e-40 5.59206e-40 -3.84684e-40 2.4097e-40 5.78513e-40 7.42852e-40 4.88871e-40
-4.40851e-40 3.13873e-40 -6.98644e-40 2.63373e-40 -2.78973e-40 1.16201e-39 6.38353e-40 -3.111e-40
-1.082884e-39 -1.196301e-39 -6.66124e-40 1.035862e-39 6.74249e-40 -1.36739e-40 -3.77168e-40 4.59297e-40
3.04043e-40 -9.05258e-40 -4.61289e-40 -1.2348e-40 -5.50196e-40 -1.163236e-39 -1.189638e-39 -3.142e-41
-3.14789e-40 -7.52601e-40 1.189875e-39 4.3353e-41 2.65945e-40 -1.29215e-40 -1.55787e-40 -4.8685e-40
1.6516e-40 -7.49504e-40 3.85607e-40 -7.59303e-40 -5.18778e-40 -1.161392e-39 7.43991e-40 1.102467e-39
3.73215e-40 -1.1343e-39 2.98975e-40 -7.7037e-40 -1.21912e-39 -7.48195e-40 5.71259e-40 -6.3441e-41
-4.24519e-40 4.1305e-40 -1.45362e-40 2.03613e-40 -6.2756e-40 9.07618e-40 -6.01402e-40 -9.69458e-40
7.22329e-40 -1.43441e-40 -1.22209e-39 9.7102e-40 3.54103e-40 4.60073e-40 -5.1128e-40 -1.184784e-39
5.67733e-40 6.21449e-40 -9.09835e-40 -5.97449e-40 3.57922e-40 3.28843e-40 -6.62821e-40 5.08072e-40
1.202798e-39 -3.23731e-40 1.075017e-39 5.96405e-40 3.73107e-40 -3.11642e-40 1.075506e-39 -4.9693e-40
3.0637e-40 -9.61174e-40 -3.96953e-40 1.09178e-40 -2.04044e-40 -1.46167e-40 -5.54338e-40 -7.46916e-40
-3.86551e-40 -3.70121e-40 6.1593e-41 -1.36526e-40 -4.83817e-40 9.71227e-40 -2.14913e-40 5.00209e-40
-1.072051e-39 9.6158e-40 -5.63772e-40 2.37636e-40 -4.85984e-40 1.26544e-39 3.0652e-40 7.57737e-40
-5.25537e-40 -7.5863e-40 -2.2867e-40 -4.04454e-40 -1.53847e-40 4.6972e-41 2.91064e-40 -9.70635e-40
-3.97342e-40 -2.56103e-40 -9.54017e-40 4.69728e-40 -6.8165e-40 -3.99377e-40 1.087615e-39 -2.43176e-40
1.152848e-39 5.00505e-40 -2.18893e-40 -5.08538e-40 3.05189e-40 1.217399e-39 5.9745e-40 -2.21428e-40
2.32318e-40 -6.7197e-40 -2.73814e-40 -2.66074e-40 1.196619e-39 -2.1931e-40 -2.36224e-40 3.82979e-40
-2.2615e-40 4.95512e-40 2.53288e-40 1.112132e-39 6.2851e-40 4.3711e-40 1.076483e-39 -4.0117e-40
5.839e-41 -5.53381e-40 -7.09696e-40 -5.48862e-40 -5.77806e-40 -5.03544e-40 -2.48827e-40 4.3844e-40
1.103949e-39 1.67953e-40 -7.51809e-40 -7.50526e-40 -4.10397e-40 -3.978e-40 -1.107431e-39 4.64491e-40
1.69673e-40 1.05103e-40 -6.03175e-40 3.19698e-40 -9.67661e-40 4.10566e-40 9.60559e-40 9.79258e-40
-3.77336e-40 2.04183e-40 5.5728e-40 -4.39181e-40 -6.1456e-40 7.39981e-40 3.233e-40 9.04793e-40
-1.098566e-39 -4.68601e-40 7.56553e-40 -1.51328e-40 6.279e-40 2.49325e-40 4.84774e-40 2.95821e-40
5.5933e-40 -5.24349e-40 -5.46205e-40 7.4155e-41 2.76258e-40 -2.19471e-40 -5.0673e-40 -2.41028e-40

edge_feature_mlp.0.bias f4 [64]
00000000: 5d5f fcbb c9a0 e6bc d25b 28a4 62ec a6bb
00000010: 36e4 649e 3b43 a090 bf36 7c9c 0048 468b
00000020: 1e3e 5b9a b69a e889 d55d 6ab4 307e 04ba
00000030: a363 7c9c 50b2 1c96 540b 10bb 8531 d7bb
00000040: 6eb2 0fbb a3c8 b8bc 0017 bebb 5fde 9cba
00000050: d98f 9bbc 7199 89bc 9d57 f6bb 03ae 52b0
00000060: cd90 99bc 8678 b1b1 cd0b 04bc 5e5b 29bb
00000070: cdff 6eaa 444d 6bad ac85 8fb7 5dc8 b4ba
00000080: 958d bc3c 651f d1ba eb0a 3cbc 97b3 d4b3
00000090: f065 32bb 4a9d 54b1 d1b9 cda0 e30f 0dbb
000000a0: 0ccd 71a3 c32e eb90 2889 2fa0 deb5 d3ba
000000b0: d686 c8b7 2b46 b7bb 3563 84ba b6fb c4ba
000000c0: 23be 47ba b53f 3ab6 e2c2 d9ba 545d a1ba
000000d0: c2c9 17bb 8410 2cbb ab60 4ab4 fce8 c2a8
000000e0: 4710 2ba5 73b0 0dbd 43ff 2a8a 1639 1db2
000000f0: 7e11 09b2 d484 8abb 7734 708d f182 883c
-0.007701798 -0.02815284 -3.6506968e-17 -0.005094097 -1.21174124e-20 -6.321246e-29 -8.3450563e-22 -3.818758e-32
-4.5338316e-23 -5.5997458e-33 -2.1827084e-07 -0.0005054204 -8.3508583e-22 -1.2657845e-25 -0.0021979408 -0.0065671825
-0.002192642 -0.022556609 -0.0058010817 -0.0011968127 -0.01898949 -0.0167968 -0.0075177685 -7.664484e-10
-0.018745804 -5.16508e-09 -0.008059454 -0.0025841813 -2.1227395e-13 -1.337536e-11 -1.7109174e-05 -0.0013792623
0.02301673 -0.0015954791 -0.011477212 -9.9046865e-08 -0.0027221404 -3.0939469e-09 -3.4851314e-19 -0.0021524362
-1.31080565e-17 -9.2763204e-29 -1.4868458e-19 -0.0016152223 -2.3904646e-05 -0.0055930815 -0.0010100367 -0.0015028629
-0.000761958 -2.7753242e-06 -0.0016613866 -0.0012311139 -0.0023161029 -0.0026254961 -1.8847884e-07 -2.1639368e-14
-1.4837401e-16 -0.034592103 -8.233212e-33 -9.151583e-09 -7.978427e-09 -0.00422726 -7.401886e-31 0.016664

classifier.0.weight f4 [64, 192]
00000000: 021b b6bd ef43 af3d 71ff 603d 319b 3a3e
00000010: b4aa 85be ca12 bc3b a95d ba3d 0d7e f93c
00000020: 25c1 893d 9d65 3cbe cd38 0ebe f1ba f5bc
00000030: 96dd 683e 30d2 8dbc df87 de3d 52b3 17be
00000040: e529 2c3d 57fa 6cbd fc6c a63e f41f adbc
00000050: aa33 263f 818f 36bc dff7 4a3e 7b2c 153e
00000060: 5c35 12be e18e a33e 18df feb8 4c32 9cbd
00000070: 6744 413d 77a0 493d df2b 1bbe 395c 093b
00000080: 230b e0be 7f3a 153e 1142 e73c 8031 cabd
00000090: e27e 7bbd f7fd ed3c fcc9 acbb 5090 acbd
000000a0: 78b4 e23d 1808 ff3d 2d7a 0cbf b0d2 0ebe
000000b0: 7159 bcbe d91f c73d 21b0 b43d 3cd1 0cbe
000000c0: cb86 64bc de5a 73be bffa d83e c842 4a3d
000000d0: 3f3f 04bc 26ed 4abd c244 07bf 5504 7e3d
000000e0: de9b d53e cc98 d9bd 9ef4 163f f9ae c43d
000000f0: 9c17 cb3c 1414 1a3d af94 ec3c c87f 703e
00000100: 5863 4bbd 8648 fa3d ee27 8ebd 4331 f8be
00000110: e957 113d 91db da3c 70f8 bbbd 38b2 8bbc
00000120: a1e1 ad3d a3e9 203c 8f59 fd3d e906 c73d
00000130: 5452 40be 87dd bdbd d082 c3bd 23c1 b83e
00000140: 0cd6 943c 71ef 3c3e 1cd8 5dbe a789 dfbd
00000150: f7f3 0bbf 4d6f 673d f3bb c8bd 6074 70be
00000160: 8bad ccbe ce3c 40be 4f2b f8bd 0c8f 36bb
00000170: b221 543d 15c4 e8bb 2b71 293e 76b3 eebc
00000180: 4e0b f93e 76a6 11bd 58a1 153e 5f7b b9bd
00000190: e60d 3e3c 2e20 45bd 3ccb 65bc 0c5c 7a3c
000001a0: 7212 903d ea6d 0abe caf5 e53e 9afb 89bc
000001b0: a6ad 813e e923 a43c 7797 343d 0abb f43d
000001c0: fac5 a7bd a207 313f 864f bbbe bbac 943d
000001d0: dcbb 863d ec1f 83bd 2141 973e cdf8 f03d
000001e0: 29b1 a3be 1153 ac3d 4941 d9be e008 6a3d
000001f0: 65f7 233d f4be 433d b67f 73bd c47f 3d3d
00000200: e9ed 1329 1cbd e539 3557 0580 c0b9 a724
00000210: dbae 0a00 2ecf 0300 5b63 ea18 3b8d 810b
00000220: 957b 0c80 d26c 8b88 10ab 0080 9bd6 8eb1
00000230: d8f5 0600 cc61 0300 e2d7 fd3c 43a9 2fb9
00000240: 0723 c292 7ac8 89b9 0e76 f43c 4b2b 1591
00000250: 12a8 42bc fcfe d8b5 ce91 e031 e04c 0000
00000260: fa4c 7bbc cda0 0600 5899 213b 43a6 3b3a
00000270: 9186 0300 718c 680c 566f c708 4106 52bd
00000280: 6db9 073e 34f1 71b0 b4ce b83c bfc4 0200
00000290: efcd fbbb bd15 0780 decf 0080 47d2 9932
000002a0: 4519 0700 f5af 0180 f4e1 0300 d326 63b7
000002b0: 412a 0580 7d16 b4aa 7576 e1bc 0325 2fbc
000002c0: 043d d2ad e79e 0480 c5a1 3494 eb43 0380
000002d0: d204 b4b5 cb60 86ad 59b7 f684 761a 4ca8
000002e0: dfee 0080 9bb0 1abd 2882 a588 7415 0300
000002f0: 4fc6 0580 7592 ac37 e2ae 0280 898e 463d
00000300: 1384 5dbd 4378 a1bc af0c 153e 5154 313e
00000310: ff28 cbbd 7a40 63ba 4abd 3e3e 3714 723d
00000320: 308c 9c3d 9bdc 00be d0a9 90be f1e2 18be
00000330: e0ec 653e 7734 a93a 7eb6 333e 6123 08be
00000340: b205 dabc b13d 75be 9d53 7f3e a730 b73d
00000350: c3d7 033f 8476 b7bd 5728 023e 4c71 a33e
00000360: 8f16 99be 80e1 4f3e 7cb8 d53c d9af 62bd
00000370: 5770 2dbb 0c04 b2bb c8d4 5cbe 41ca 983b
00000380: 64c4 0fbf d852 ed3d dcbc 50be fad5 5b3d
00000390: 2e4f f0bd 4bed 9e3d 294f e4bc e3f5 2cbd
000003a0: d44b d3bb 2f5b 6b3e a172 d9be 5ad3 9abd
000003b0: 9618 a1be 233f f63d 45f3 573d e327 e7bd
000003c0: 18bb 183d 65fa 65be 5a16 023f e99b 91bc
000003d0: a74c d0bd 1adf 69bc 13d5 f8be 9821 47bd
000003e0: 8150 083f b8e8 c2bd a38e 113f 16b6 3fbc
000003f0: 3693 39bd fd3a 53bd 8cde 0b3e 3602 84bd
-0.0889187 0.08557879 0.054931108 0.18223263 -0.261068 0.0057395445 0.090998955 0.030455614
0.067262925 -0.18398137 -0.13888855 -0.029996367 0.22740778 -0.01731214 0.10865759 -0.14814499
0.04203214 -0.05785593 0.32505023 -0.0211334 0.64922583 -0.011142612 0.19821118 0.14567749
-0.14278167 0.31944945 -0.00012153218 -0.07626781 0.047184374 0.049225297 -0.15153454 0.002095951
-0.43758497 0.14573096 0.028229745 -0.098727226 -0.0614003 0.029051764 -0.005273102 -0.08425963
0.11069578 0.12452716 -0.54873925 -0.13947558 -0.36786988 0.09722871 0.088226564 -0.13751692
-0.013948153 -0.23765132 0.42378804 0.049380094 -0.00807172 -0.04954257 -0.5283929 0.06201585
0.4172048 -0.10624847 0.58967006 0.09603686 0.024791531 0.037616804 0.028879492 0.23486245
-0.04965529 0.12220864 -0.0694121 -0.48475084 0.03548423 0.026716026 -0.09178245 -0.017052755
0.08490301 0.009821328 0.123705976 0.09718115 -0.18781406 -0.092707686 -0.09546435 0.36084852
0.018168472 0.18450715 -0.2166447 -0.10914927 -0.54669136 0.05650263 -0.098014735 -0.23481894
-0.39976153 -0.18773195 -0.121176355 -0.0027856259 0.051789947 -0.007103453 0.16547076 -0.029138308
0.48641437 -0.03555914 0.14612329 -0.09056734 0.011599993 -0.048126392 -0.014025506 0.015280735
0.07034768 -0.13518491 0.44914085 -0.016843606 0.25327796 0.020036655 0.04408976 0.11949737
-0.08192058 0.6915227 -0.3658411 0.07259508 0.065788 -0.06402573 0.29541877 0.11766205
-0.319711 0.08414281 -0.4243262 0.05713737 0.040030856 0.04778953 -0.059447967 0.046264425
3.284691e-14 0.0004381918 -4.90461e-40 7.273938e-17 9.81081e-40 3.49829e-40 6.0587906e-24 4.990149e-32
-1.146359e-39 -8.391342e-34 -6.1366e-41 -4.1571417e-09 6.39205e-40 3.1059e-40 0.03098673 -0.00016752355
-1.2251756e-27 -0.00026280043 0.02984145 -1.1767368e-28 -0.011880891 -1.6167464e-06 6.535834e-09 2.7578e-41
-0.015338177 6.08697e-40 0.002465805 0.0007158259 3.2378e-40 1.7914892e-31 1.2003052e-33 -0.051275495
0.13254328 -8.801806e-10 0.022559501 2.5425e-40 -0.0076844613 -6.50647e-40 -7.4569e-41 1.7907167e-08
6.51913e-40 -1.54957e-40 3.56563e-40 -1.3539294e-05 -4.74335e-40 -3.1990027e-13 -0.027522305 -0.010689977
-2.3901332e-11 -4.24345e-40 -9.119581e-27 -2.99871e-40 -1.3412448e-06 -1.5277021e-11 -5.80027e-36 -1.1330013e-14
-8.5691e-41 -0.03776608 -9.961176e-34 2.83202e-40 -5.30317e-40 2.0572197e-05 -2.46407e-40 0.048475776
-0.054081034 -0.019710666 0.1455562 0.1731732 -0.09919929 -0.00086689705 0.18626896 0.05910131
0.07643926 -0.12584154 -0.28254557 -0.14930321 0.22453642 0.0012909312 0.17550084 -0.13294746
-0.026614044 -0.23949315 0.2493424 0.089448266 0.515011 -0.08958152 0.12710701 0.31922376
-0.29900023 0.20300865 0.026088946 -0.055343483 -0.0026464665 -0.0054326113 -0.21565545 0.0046627824
-0.56159043 0.11588067 -0.20384544 0.05367086 -0.11733852 0.07760104 -0.027869778 -0.042226683
-0.0064482484 0.22984003 -0.42470267 -0.07559843 -0.3146407 0.12023761 0.052722234 -0.11286905
0.0372878 -0.22458799 0.50815356 -0.017774539 -0.1017087 -0.014274383 -0.48600063 -0.048616022
0.5324784 -0.09517044 0.5685827 -0.0117011275 -0.045306407 -0.051569927 0.13659114 -0.06445734

classifier.0.bias f4 [64]
00000000: a74f 9f3c 0e63 84be e825 2f3f 2df6 503e
00000010: e610 bd3e 6c08 0b3f 1cca ca3c 6d01 ba3e
00000020: e534 5d3e 1c94 133f 185a 853e 4f20 99be
00000030: afce c33e eede 5bbe 4604 903e 8a87 953e
00000040: 919b 41be 0eed 093d fa8c f63e 3b68 3b3f
00000050: 282f 603e 9207 853d 0c83 9b3e 8200 fb3e
00000060: af37 2e3f 4ff4 123e 5994 dd3e 48c9 83bc
00000070: 920c 043f ae20 6c3f 1374 5a3d bccf 3c3f
00000080: 3424 c03e 3521 d03e 9588 ce3c 9237 6e3f
00000090: 5d3c 8c3e 74d2 b6bd 33d1 95bc 171d 5a3f
000000a0: 0649 873f 25e3 b83e e1de 453f 4b8d b73e
000000b0: 86d8 bd3e 5aa3 813f 918c 083f f5ef 873d
000000c0: 1c73 1d3f db9b 45ba f18c 253e 280f c93e
000000d0: 8ecd 793f 1ad1 dfbc 46c8 2a3f 647b 703f
000000e0: 59fa 8c3e 911a 9cbd 1f05 09bd d540 173f
000000f0: c513 763f 433e 583f b3ae f7bb 5c6e 923e
0.01944716 -0.25856823 0.68417215 0.20406409 0.36926955 0.54309726 0.024754576 0.36329213
0.21602209 0.5764787 0.260453 -0.29907462 0.38243625 -0.2147176 0.2812826 0.2920497
-0.18907 0.03367334 0.48154432 0.7320592 0.21892989 0.064955845 0.30373418 0.49023825
0.68053716 0.14351009 0.43277243 -0.01608719 0.5158168 0.92237365 0.053333353 0.7375448
0.3752762 0.40650335 0.025211612 0.93053544 0.27389804 -0.089268595 -0.01828823 0.8520064
1.056916 0.36110798 0.7729321 0.35849985 0.37079257 1.0127976 0.5333949 0.06637565
0.6150377 -0.0007538178 0.16167046 0.39269376 0.97579277 -0.027321387 0.66711843 0.9393828
0.2753475 -0.07622255 -0.03345215 0.590833 0.96123916 0.84470004 -0.0075586676 0.28599823

classifier.3.weight f4 [1, 64]
00000000: 7b99 c5be 4863 56bf 68db b9bd 1f3d a1be
00000010: 4330 433d da71 01be 3757 debd 02e6 d2bd
00000020: e78c 98be a4d7 c73c 237f a33c 5856 7e3e
00000030: 19ab cb3c 4577 a63e 08bc 17be 5e63 2c3d
00000040: b525 933e e0ff c7be dcbb 813c 0f88 89bd
00000050: 257e e93d cce4 c73d 842f 963d e2c4 ca3c
00000060: d05a a7bd 7c6f f03d a01b d8bd 5ca9 54b9
00000070: f7f2 8d3c 3544 99bd cc20 be3d 1359 d2bd
00000080: 55cb 273d 7389 033d 3fd5 143e 7204 c0bd
00000090: a943 53be c7e4 0bbf d5b1 17bd b147 98bd
000000a0: cb49 3abd 7d63 403d ad31 e2bd 15c5 1fbe
000000b0: c394 d5bd effb 74bd 0f8c 1e3d 4aee af3d
000000c0: 9676 d53c e94e 93ba d697 923d 6de4 cf3c
000000d0: c4ef 1dbd 2fd9 2f3e c6dc 91bd 7aee 7fbd
000000e0: 1f8b 013d b8c4 183e f47b 3a3e 8cd3 c9bd
000000f0: 6dea e9bc 9c34 4bbd bc05 353e 8487 083d
-0.3859366 -0.8374524 -0.090750515 -0.31491944 0.047653448 -0.12641087 -0.10856479 -0.10297777
-0.29795 0.024394818 0.019958084 0.24837625 0.02486186 0.3251287 -0.14817822 0.04208695
0.28739706 -0.39062405 0.015836649 -0.06715404 0.11401013 0.097604364 0.07333282 0.024752084
-0.08171618 0.11740014 -0.10552144 -0.00020280987 0.017327769 -0.074837126 0.09283599 -0.10270896
0.040965397 0.032113504 0.14534472 -0.09375848 -0.20631279 -0.5464596 -0.03703483 -0.07435549
-0.04548053 0.04696988 -0.11044631 -0.15602525 -0.10428765 -0.059810575 0.03870779 0.08590372
0.026057523 -0.0011238727 0.07157867 0.025377477 -0.038558736 0.17172693 -0.07122187 -0.06248329
0.031626817 0.14918792 0.18211347 -0.098548025 -0.028554166 -0.04961072 0.17677969 0.033332363
