best_gcn_model.pth (torch, 304170 bytes, 13 tensors)

node_embedding.weight f4 [64, 770]
000000 84 a1 d3 bd 00 d3 57 3e 7b f2 29 3c 82 5e 76 be
       -0.10333541 0.21076584 0.010372753 -0.2405949
000010 04 fa 6f bc e0 5c 9b bc 54 b9 a6 bd 04 d0 67 3e
       -0.014647011 -0.018965185 -0.08140817 0.22637945
000020 ad 2f 59 be ef 4b 2c be ec 87 8f 3d 31 82 f8 bd
       -0.21209593 -0.16825841 0.07008347 -0.12134207
000030 cd 6b af bd fc 44 ab be e0 67 4a bd 1a 7e e6 bd
       -0.08565483 -0.33451068 -0.04941547 -0.11254521
000040 3e 40 2b 3d 77 44 28 be 4a eb 27 3d f4 35 65 bd
       0.041809313 -0.16432367 0.040995874 -0.055959657
000050 88 3f 6f be 19 b4 07 bc 86 d9 29 bd 9c 97 e5 3d
       -0.23364079 -0.008282685 -0.041467212 0.11210558
000060 70 36 9b be 49 da 77 bd d4 39 48 be e5 bc b3 bc
       -0.3031497 -0.060510907 -0.1955331 -0.021940658
000070 38 06 86 be 4c 52 90 bc ea 82 50 3d 32 f4 22 3e
       -0.2617662 -0.017617367 0.0509061 0.15913466
000080 2d 9b d0 3d 65 08 48 bd 6f 9d 1b be df 51 b2 be
       0.101858474 -0.04883613 -0.15196775 -0.34828088
000090 69 67 c8 3d d2 4d 1d 3e 14 2b 54 be d9 75 e3 bd
       0.09785349 0.15361717 -0.20719558 -0.11106462
0000a0 02 91 d2 bd 87 84 d4 bd aa d2 7b 3d 0c 7f 82 3e
       -0.10281564 -0.1037684 0.0614802 0.25487554
0000b0 54 05 af bc 6c 69 52 be 33 74 8e bd 76 14 5a be
       -0.021364845 -0.20548028 -0.06955757 -0.21296868
0000c0 f6 7e 76 3c be 58 b9 3d 62 d3 98 3d 10 d9 a4 3d
       0.015044918 0.09050129 0.07462193 0.08049214
0000d0 4e 67 24 3e 57 c5 78 3e c0 dd 37 bc 1f aa d0 bd
       0.16055033 0.24294029 -0.011222303 -0.10188698
0000e0 49 c7 40 be 32 66 64 3e 3f f5 95 bd 5e d8 92 3e
       -0.18826021 0.2230461 -0.073221676 0.286807
0000f0 82 22 d5 3d bb c1 c4 3b 7d 97 29 be 27 1c 5c 3e
       0.104069725 0.00600454 -0.16561694 0.21495114
000100 67 bd d8 bb 39 3e 20 bd e9 ca 84 3c 41 f5 39 be
       -0.0066143754 -0.03912184 0.016210036 -0.18159963
000110 c9 fe 90 be 95 58 ba 3d 85 ba 16 bd 92 05 ca 3e
       -0.28319386 0.09098927 -0.036798973 0.39457375
000120 da dc e3 3d a8 13 19 be a6 78 5e 3e b5 bf 5d 3e
       0.111261085 -0.14948905 0.21725711 0.21655162
000130 26 d8 80 be a0 73 cd 3e 1a 8c 38 3e 27 2f 09 be
       -0.25164908 0.40127277 0.18022195 -0.13396893
000140 6e dd 15 bd 4c 93 0f 3e f9 91 a6 3e cb c5 bd 3d
       -0.036588125 0.14021033 0.32533243 0.09266242
000150 65 02 22 3e 2f b5 ce 3c a6 d3 00 be 6b 26 2e 3d
       0.15821226 0.02523288 -0.12580737 0.042517107
000160 74 f7 a5 3e 83 62 85 3c 00 db 91 be b0 01 14 3e
       0.32415354 0.016282326 -0.28487396 0.14453769
000170 dc 65 ce bb 67 55 9c 3e 65 cd ea 3d 74 09 47 3d
       -0.0062987637 0.30533907 0.11464957 0.048593
000180 46 b7 b7 3d 5e 54 71 bd 95 05 cf bd 39 62 00 bd
       0.089705035 -0.05891835 -0.101084866 -0.031343672
000190 ad 42 8c bd 18 ab cb bd 51 6e 81 bc 4d 11 84 3d
       -0.06848655 -0.09944743 -0.015799673 0.06448612
0001a0 f9 54 79 3d 33 df 3e 3e a6 7c 50 be de 30 eb 3c
       0.060872052 0.18639831 -0.2036005 0.028709825
0001b0 ee 9b ce 3c df ea 5b 3e 61 f5 02 bb d1 16 a1 3d
       0.025220837 0.21476315 -0.0019982683 0.0786568
0001c0 6b 56 b8 3d 9f b4 14 be 8e 15 11 3d 7b ef 92 3d
       0.09000858 -0.14522026 0.035420947 0.071745835
0001d0 24 84 81 3d f4 1b 93 3e d3 e0 82 be fd f0 30 3d
       0.06324032 0.28732264 -0.25562152 0.043198574
0001e0 20 5d 03 3c e2 fa 34 bc cf 0d 14 3d 5e 9f c2 3c
       0.008017808 -0.011046143 0.03614598 0.023757633
0001f0 9f 48 f9 3d c0 90 dd 3d 75 7e da bd 9e 24 85 8f
       0.121720545 0.108186245 -0.10668651 -1.3128917e-29
000200 3b f8 3a be 99 98 31 3e 8f 80 0a be 4e 1b fe 3d
       -0.18258755 0.17343368 -0.13525604 0.12407552
000210 89 e4 be 3d e3 21 8e be 1c 15 5c bd 0a 71 ab bd
       0.09320933 -0.2776023 -0.05373107 -0.0837117
000220 54 9d 09 3e 80 fa cc bd fd e7 b9 bd fa 21 33 be
       0.13438922 -0.100087166 -0.090774514 -0.1749343
000230 80 f5 cb 3c e3 01 e3 3d 72 e6 20 bd 9c 71 83 3d
       0.024897337 0.11084344 -0.03928227 0.06418154
000240 7e 16 29 3e 43 44 dc bd 29 6d 47 bd e7 d7 aa 3c
       0.16512486 -0.107552074 -0.048688088 0.020854903
000250 30 f7 49 be 09 90 aa 3d 98 49 50 3e 30 7c 2c 3d
       -0.19723201 0.08328254 0.20340574 0.042110622
000260 93 0c 94 3c 33 94 e7 3d 60 dd a7 3d f8 3c bf bd
       0.018072402 0.11307564 0.08196521 -0.09337801
000270 e5 1d 3b bd 8f c2 76 bb 66 17 4f 3e d0 f2 8e be
       -0.045682807 -0.0037652587 0.2022377 -0.27919626
000280 82 14 53 3d c5 cc 1a be 28 b7 4c 3d bc e0 17 3e
       0.05153323 -0.15117176 0.04997936 0.14831823
000290 99 96 b2 bc bd 5e bf bd 5a 7a 45 be 00 68 f1 3d
       -0.021800326 -0.09344242 -0.19284955 0.117874146
0002a0 7c ef dc bd 87 bf 82 be b8 d4 e5 bd 34 c4 51 be
       -0.107878655 -0.2553675 -0.112222135 -0.20485002
0002b0 1c 78 0d 3e a8 73 80 3e 53 17 03 3e 0e 47 45 3e
       0.1381535 0.2508824 0.12801866 0.19265386
0002c0 52 a7 a6 3e 2c da 07 3a 56 1e 22 bd 9f e2 0d bc
       0.3254953 0.00051823515 -0.03957971 -0.008659988
0002d0 70 19 36 be b7 e6 6f 3e 49 90 4a 3e 19 98 c5 3d
       -0.17783141 0.23427854 0.19781603 0.09648151
0002e0 62 30 26 bd 2d 83 97 3d 0b e5 b3 bd 14 3f 4a 3e
       -0.040573485 0.07398067 -0.08783921 0.19750625
0002f0 82 a7 9e be 12 c1 16 bc 42 88 bb 3d 52 14 ca 3d
       -0.30987173 -0.009201305 0.091568485 0.09867157
000300 86 ce ce bd fd 1f f2 3d 24 2d 30 bd fd d4 5f 3c
       -0.10097985 0.118225075 -0.0430118 0.01366162
000310 ed 4d 83 3c 30 e8 5b bd a7 a9 62 3d 3d a1 b6 bd
       0.016028369 -0.053688228 0.055337574 -0.089174725
000320 4b 1c 04 be 7c 5a 43 3e 6b 20 98 bd 0b 89 03 3d
       -0.12901418 0.19077486 -0.07428058 0.032113116
000330 10 74 ca 3d 53 31 1b 3e 88 69 ce bd 08 e7 94 3e
       0.098854184 0.15155534 -0.10078722 0.29082513
000340 87 ca 83 bd ae f9 21 3e 86 bc 35 be fc 6f 7f be
       -0.064351134 0.15817901 -0.17747697 -0.24945062
000350 01 c4 90 3d f9 e0 7d be 4c 79 d3 3d 09 f8 1e 3d
       0.07068635 -0.24792852 0.1032587 0.038810764
000360 e7 48 19 be 3f 5e fd bd d6 a8 60 bd 8e de fb 3c
       -0.14969216 -0.12371492 -0.054848514 0.03074577
000370 a0 23 f3 bc a9 f1 6d be f7 eb 09 be 26 df 10 0f
       -0.029680073 -0.23236717 -0.1346892 7.142725e-30
000380 f4 2b 2f be 4e e9 8a 3d 07 16 19 be 2f cb 14 bd
       -0.1710661 0.067827806 -0.14949809 -0.036326583
000390 7c 71 c9 3d 43 8f ca 3d 85 da a6 bd 96 f6 bf bd
       0.098360986 0.09890606 -0.08147148 -0.093732044
0003a0 7e a3 c2 3d c5 5f fe 3d 17 68 67 3e 5c f3 a2 3d
       0.0950384 0.1242061 0.22598301 0.07956573
0003b0 a7 c5 e2 bd c4 02 9f be 0a d3 5f bd 27 37 64 3e
       -0.110728554 -0.31056798 -0.054644622 0.22286664
0003c0 d6 83 4e be 83 8e 40 bd 9a 23 db bd b0 7f 06 3d
       -0.20167479 -0.04701091 -0.1070015 0.032836616
0003d0 eb 22 99 3d 1b 3f 5a be 23 4d 86 3d cb 99 1f 3e
       0.07477363 -0.21313135 0.065576814 0.15586011
0003e0 bb 22 eb 3d b4 a5 3d 3e 71 7b b9 3d 96 e2 7d be
       0.11481234 0.18520242 0.09056748 -0.24793467
0003f0 16 6d f1 bd 6a f2 e5 3d b8 bb 17 be 2c 88 cd 3c
       -0.117883846 0.112278774 -0.14817703 0.025089346

node_embedding.bias f4 [64]
000000 00 0e 84 bd b8 a6 3c bd 3b a1 45 bd 62 be f8 3d
       -0.06447983 -0.046057433 -0.048249464 0.12145688
000010 f5 f5 77 bd b7 82 d2 3c 52 99 16 3e 81 af b7 bd
       -0.060537297 0.025697095 0.14706925 -0.089690216
000020 65 72 52 be ee b8 67 3d 10 18 ce 3d 52 88 03 3d
       -0.2055145 0.056572847 0.10063183 0.032112427
000030 7e 77 be bd 3c d0 5d 3c 86 e3 96 bd 0e ce 63 ba
       -0.09300135 0.0135384165 -0.073676154 -0.00086900673
000040 c0 41 da bd 55 eb 23 3d aa 4b 09 be 93 50 9a 3c
       -0.10657072 0.040019352 -0.1340777 0.018837249
000050 95 e9 1c bc ab 26 a0 3b 15 a6 9b bd 23 b2 0e 3d
       -0.009577175 0.004887422 -0.07600037 0.034837853
000060 31 6c a8 3c f9 04 02 3d 3b ab 73 3c dc 90 2c 3c
       0.020559402 0.031743024 0.0148723675 0.010532584
000070 14 50 05 be 81 a7 2d 3c c9 6e 7d 3c 06 6c 7f bd
       -0.13018829 0.010599018 0.015468308 -0.06235888
000080 4c 01 37 bc 65 c0 8f bb bf db 79 3d e4 c1 64 bd
       -0.011169743 -0.004386949 0.06100058 -0.05584897
000090 9d c4 d0 3d 05 61 b0 3c 2e ca 25 bd 73 7c 31 3d
       0.10193751 0.021530638 -0.040476017 0.043331575
0000a0 0c 67 bd 3d 22 2e c7 bd 01 d7 30 bd 52 87 61 bd
       0.0924817 -0.09725596 -0.043173794 -0.055060692
0000b0 3e f8 25 bc d7 ec 0a be 08 b9 0d bc 6e 80 f7 3c
       -0.010129986 -0.1356691 -0.008650072 0.030212607
0000c0 4b 39 74 bd ef 03 1f bc 11 48 95 3c b1 d6 11 be
       -0.05962495 -0.009705528 0.01822284 -0.14242055
0000d0 76 47 86 bd 08 1c 01 3d c2 64 9d bb 89 4c 82 3d
       -0.06556599 0.031520873 -0.004803271 0.06362254
0000e0 75 4b 9d 3d c4 ea 3f 3d 81 90 89 3d b2 c3 22 be
       0.07680408 0.04685475 0.06717015 -0.15894964
0000f0 31 ad a4 3c 61 e6 39 3c d8 5c b2 3d 7b f8 49 bd
       0.020102115 0.0113464305 0.08709115 -0.049309235

gcn.convs.0.bias f4 [64]
000000 6b 55 cc be ea 9a f9 bd 27 68 d5 be 65 ca c2 be
       -0.3990892 -0.12187751 -0.41681024 -0.3804504
000010 75 db db be 26 2a 9a bd 74 2f 21 be 3c 80 f8 be
       -0.4294087 -0.075275704 -0.15740758 -0.48535335
000020 b9 98 c0 be fe d7 ce be 98 52 f4 be 32 5a ad be
       -0.37616518 -0.40399164 -0.47719264 -0.33857876
000030 66 1a c3 be c5 38 da be 7a 9c d1 be f4 cc 9c bd
       -0.38106078 -0.42621437 -0.40939695 -0.07656279
000040 04 c7 be be 6b d9 a7 be d5 b8 82 be 19 d3 ab be
       -0.37261212 -0.32783064 -0.2553164 -0.33559492
000050 c9 40 ad be ca e9 e0 be 77 16 ba be f0 51 e0 be
       -0.3383849 -0.43928367 -0.36345264 -0.43812513
000060 c2 b1 80 be 7d e1 97 be 10 fe f0 be 9b b5 f3 be
       -0.25135618 -0.2966422 -0.47068834 -0.4759949
000070 2a c6 37 bd fa 5d d4 be 10 13 d2 be e5 53 d6 be
       -0.04486672 -0.41477948 -0.4103017 -0.4186088
000080 00 2d c2 be e6 c6 dc be e4 be e2 be 3a ea c2 be
       -0.37924957 -0.43120497 -0.44286263 -0.38069326
000090 b5 2a 94 be 2a 50 e0 be 8e 4c e4 be 01 e1 c6 be
       -0.28938833 -0.4381116 -0.44589657 -0.3884354
0000a0 31 89 e2 be 24 64 dd be 2f 23 e4 be 5a ea ca be
       -0.44245294 -0.43240464 -0.44558093 -0.3963192
0000b0 b6 ae b3 be e1 b5 de be 84 8f d9 be 4e c3 ac be
       -0.3509423 -0.43498138 -0.42492306 -0.33742756
0000c0 89 b8 d5 be fe 3f cc be 32 46 bd be 32 27 29 3e
       -0.41742352 -0.39892572 -0.36967617 0.16518858
0000d0 fc 4b c2 be c6 75 ce be 0d 31 b5 be db bd be be
       -0.37948596 -0.4032423 -0.35388985 -0.37254223
0000e0 4a 73 9d be 03 51 1b be a4 ba bf be fd ae 7d be
       -0.3075202 -0.15167622 -0.37447083 -0.24773784
0000f0 03 56 b3 be 77 dd ca be 50 fb c4 be b5 4c b3 be
       -0.3502656 -0.3962209 -0.38472986 -0.3501946

gcn.convs.0.lin.weight f4 [64, 64]
000000 b8 17 83 be 68 5c 95 bd 6c 66 8f 3e 0a 54 32 be
       -0.25604033 -0.07293016 0.2800783 -0.17414871
000010 42 2a 9e be 59 7b 9b 3b 4b a5 ae bd 15 35 14 3e
       -0.30891615 0.004744929 -0.08527621 0.14473374
000020 c5 6a 63 3d 14 58 7e bd 73 9e 5c bb 69 37 55 bd
       0.055521745 -0.062095717 -0.003366378 -0.052054796
000030 d8 e5 40 3e 2b d3 58 bd c4 de a7 3d 06 1a 85 3e
       0.18837678 -0.05293576 0.08196786 0.25996417
000040 8f 97 09 bd c2 32 8c bc 33 81 d7 3d 44 9d bf be
       -0.033591803 -0.017114047 0.1052269 -0.37424672
000050 65 6c 00 be c2 d9 c6 bd c5 49 7c 3d 87 e6 3a 3b
       -0.12541349 -0.09709503 0.06159379 0.0028518753
000060 09 6d 60 3e 8e f8 6d 3d 7c a1 75 3e 2b 29 69 be
       0.21916594 0.05809837 0.23987383 -0.2276961
000070 ad 30 7a bd 63 f2 77 3e 67 f2 23 bd 03 b5 89 3e
       -0.061081577 0.24213557 -0.040026095 0.26895913
000080 70 d6 9e 3d 2c f3 58 3e b4 c4 9d be 1e fe 85 be
       0.077557445 0.21186513 -0.30814135 -0.2617044
000090 06 0a 2b bd 4e 5f 15 be 4c 8c c0 bd ab 34 20 be
       -0.041757606 -0.14587137 -0.094017595 -0.15645091
0000a0 91 30 f1 3d fb b5 ad bd f8 69 4e 3c 9c d6 c3 3e
       0.117768414 -0.08481976 0.012598507 0.3824967
0000b0 2f f7 02 3c e5 b0 95 3e 69 0f 3a be b9 9d b7 be
       0.0079935035 0.29236522 -0.18169941 -0.3586252
0000c0 c9 bc 6b 3e 18 a7 c5 3d d4 57 e4 bd 9c 80 2c be
       0.23021235 0.09651011 -0.111495644 -0.16845936
0000d0 55 6c 6c be 0a 49 14 3e b9 95 4e bd ab bd b4 3d
       -0.230882 0.14480987 -0.050435755 0.08825239
0000e0 f1 3e 71 be cf 9c 39 3d 88 c6 08 bc 42 f1 9e 3d
       -0.23559166 0.04531556 -0.008348115 0.0776086
0000f0 f1 9d 17 3e 6e 9f 9c bb 53 a3 81 3e ef f9 bb 3d
       0.14806344 -0.0047797477 0.2531992 0.091785304
000100 9b bc 45 3d 85 dd b3 3e eb 33 6a bc 4c 8f 18 3e
       0.04827557 0.35129943 -0.014294605 0.14898413
000110 c2 67 c7 3e 16 b6 80 be 87 80 0b bd bf b3 0d 3e
       0.38946348 -0.2513892 -0.03405812 0.13838099
000120 76 91 f8 bc 3e 5b de be 86 2a ca 3b 79 4f 87 be
       -0.030342799 -0.43428987 0.00616962 -0.2642782
000130 5e a5 99 3d 3e cb a7 3d c6 bf 4d 3e ef 6b ea 3e
       0.075022444 0.08193062 0.20092687 0.45785472
000140 2a c2 81 3e af 17 e0 be fd c7 2a 3e 43 53 8e be
       0.25343448 -0.4376807 0.16677852 -0.277979
000150 e2 e4 9f 3d 46 f2 95 3b 0f 4e d3 3e 85 de 59 be
       0.07807328 0.0045760004 0.4127049 -0.2127629
000160 bf 63 18 be ba 05 7e bc 32 5c 6e 3e 18 79 cd 3d
       -0.148818 -0.015504295 0.23277357 0.100328624
000170 66 79 e9 3c 5b b8 14 3d 0d 38 f7 3c 07 bc 42 3e
       0.02850027 0.036308628 0.030178094 0.19017039
000180 00 d2 88 b4 57 e5 d3 3c 97 be a0 3e 99 63 a0 3d
       -2.548477e-07 0.025866194 0.3139541 0.07831497
000190 34 98 e8 bd 83 b9 86 3e bd 7c 7a 3c 82 59 61 3e
       -0.113571554 0.2631341 0.015288529 0.22006801
0001a0 59 34 3d bd 37 01 4f 3c 0f 57 57 3e 39 ca cb 3d
       -0.0461925 0.012634567 0.21029304 0.0995068
0001b0 07 af 22 bd 1a fe 60 3e 69 b1 9a bd 2f b0 a3 be
       -0.0397177 0.21971932 -0.075533696 -0.31970355
0001c0 08 38 d4 3d 4e bc c9 bc ed 3f af bd e8 28 40 3c
       0.103622496 -0.024625923 -0.08557115 0.011728503
0001d0 d8 8d f2 3d 8f 85 15 bb cc 86 d9 3d f0 00 17 be
       0.11843461 -0.0022815203 0.106214136 -0.14746451
0001e0 aa b5 80 be f5 16 3f be f2 ac 8d be 0d c1 c6 bd
       -0.251386 -0.18661101 -0.2767101 -0.0970479
0001f0 c6 ca 57 be 9a 1e 89 bd 77 ea 02 bd b4 3f 86 bd
       -0.21073446 -0.0669529 -0.031961884 -0.06555119
000200 38 e7 4e be e9 c2 ca 3d 69 35 93 3c 52 1d a5 be
       -0.2020539 0.099004574 0.017969804 -0.32248932
000210 a3 35 b2 3d 0d eb 78 3d 06 2a b1 be 0b 2e 91 3e
       0.08701637 0.060771037 -0.34602374 0.2835544
000220 e3 97 ae 3d cb a7 24 be 02 0e 2d 3e 7c 7e 88 be
       0.08525064 -0.16079633 0.16899875 -0.26659
000230 fa bc c7 3e 2e fc 59 3e 71 fd fb bc 09 d9 d0 bd
       0.39011365 0.21287605 -0.030760499 -0.10197646
000240 4b 68 83 3d d9 5f 0c be c8 9c 8d bd 49 23 08 be
       0.06416377 -0.13708438 -0.06914669 -0.1329471
000250 a1 37 43 3e 44 01 81 3e ba f7 cb 3d a2 9a df 3d
       0.1906419 0.25196278 0.099593595 0.10918166
000260 85 4c 52 3e 5d 23 df 3d 47 53 6f 3e c8 48 bd 3c
       0.20537002 0.10895417 0.23371612 0.023105994
000270 a1 1c 67 3c d4 fb b0 3d cf 71 0d be 61 e7 ae bd
       0.014105947 0.086417824 -0.13812946 -0.08540226
000280 4f 72 43 bd 6e 22 43 be a9 9a cf 3d cd 0b 82 3d
       -0.047716435 -0.19056103 0.10136921 0.06349907
000290 cc 2a da bd fb c1 c0 3d f8 8b 5d 3e 57 08 98 be
       -0.10652694 0.09411999 0.21635425 -0.29693863
0002a0 f8 17 c4 3c 7b bd 51 3d 41 4d e5 bd fd e6 9a 3e
       0.02393721 0.051206093 -0.11196376 0.30254355
0002b0 98 32 c4 bd 94 c9 22 be 99 71 34 3e 11 ed 86 be
       -0.095799625 -0.15897208 0.17621459 -0.26352742
0002c0 e8 70 73 3b 7e a9 9c 3e 71 c5 86 3e 3f 1c 21 be
       0.0037146155 0.30598062 0.2632251 -0.15733431
0002d0 ac cd 0a be 39 37 0c bd aa f6 07 bd bb 31 14 be
       -0.1355502 -0.034232352 -0.03319422 -0.14472096
0002e0 1a f8 32 bd ae 7f 11 3d 61 53 d1 3d 69 b7 d7 3d
       -0.04369364 0.035522155 0.102209814 0.105330296
0002f0 d8 46 e0 3d 68 cf a8 3e 29 aa 30 3d cb 4d fa 3e
       0.109510124 0.32970738 0.043131027 0.48887476
000300 83 11 31 be a8 ca 68 3e c6 0b 18 3d 82 66 22 be
       -0.17291836 0.22733557 0.037120603 -0.15859416
000310 c1 9a 62 be a8 5a a1 3d 05 c3 1c be ad 13 ac b9
       -0.22129346 0.078786194 -0.15308769 -0.00032821056
000320 39 09 bc 3e 86 94 d3 bd 00 c3 36 3d ad 43 4d 3e
       0.36725786 -0.10331063 0.04461956 0.20045348
000330 c5 87 36 3e 44 90 8d bc df 67 a7 3e 87 ac e1 3a
       0.1782523 -0.017280705 0.32696435 0.0017217555
000340 f4 0d 46 be 15 fc d2 3e 6a e5 56 bc c3 5c 22 3e
       -0.1934126 0.41207948 -0.01311622 0.15855698
000350 fb df 3e 3c 41 85 2e bd 17 23 8a bc a9 e6 a0 be
       0.011650081 -0.04260755 -0.016862435 -0.3142598
000360 b2 ee 7d be 01 c5 b5 be 8d 60 72 3e 5a 27 05 3e
       -0.24798086 -0.35501865 0.23669644 0.13003293
000370 6a c4 c8 bb 2a 21 a7 bd db 57 94 3b a8 a6 57 3e
       -0.00612693 -0.081606224 0.0045270748 0.21059668
000380 3b 16 b5 3d aa 5a 3f be 33 d5 78 be db 71 94 3e
       0.08842131 -0.1868693 -0.24300079 0.28993115
000390 17 af c1 bd 36 bf 2a be a7 f3 67 be 0e 70 7b be
       -0.09457224 -0.16674504 -0.2265154 -0.24554464
0003a0 e1 0f 4b bd 68 66 25 bb 60 87 33 bd 54 6a bc 3d
       -0.04957569 -0.002523804 -0.043830276 0.09199968
0003b0 86 4c 0a 3d ba b7 2a be 5c 21 3e 3e 0f e6 cc 3d
       0.033764385 -0.16671649 0.18567413 0.10004818
0003c0 96 24 48 bd 78 0a c4 bd ea 53 ad 3c 71 f5 71 3e
       -0.048863016 -0.09572309 0.021158177 0.23628785
0003d0 7e aa 4b 3e 1b aa a9 3e d4 16 76 3e 5d 33 00 bd
       0.19889256 0.33137593 0.24032146 -0.031298984
0003e0 50 a1 a0 bc ca 0d be 3d 58 b9 54 be 08 86 c0 3d
       -0.01960817 0.09279974 -0.20773828 0.094005644
0003f0 a0 bd 26 be a8 83 18 3e e7 2f 11 3d db 41 44 be
       -0.16283274 0.14893973 0.035446074 -0.19165747

gcn.convs.1.bias f4 [64]
000000 a9 9e 41 be 84 77 85 bd fd 61 92 3d 94 fc a8 bd
       -0.1890818 -0.065169364 0.07147596 -0.082513005
000010 90 31 0e bf 0e b2 04 be b6 2a 39 bd 05 d9 b7 bd
       -0.55544376 -0.12958547 -0.045206748 -0.0897694
000020 86 a9 1b be 00 75 e9 bc 8b ce e0 bd 53 68 8f be
       -0.15201387 -0.028498173 -0.10976895 -0.2800928
000030 69 9f df be 9d 27 41 be a8 3a 65 bd 51 99 8e 3d
       -0.43676308 -0.18862768 -0.055964142 0.069628365
000040 15 53 95 be 8a 20 e3 be 78 a7 b7 3d 3c f7 4d bd
       -0.2916495 -0.44360763 0.08967489 -0.05028461
000050 fe 71 81 3d 4c 38 eb bc 6b 3f 62 be f9 06 ad bd
       0.063205704 -0.028713368 -0.22094505 -0.084485956
000060 a7 e0 f9 bd 1d 7d 84 bd 03 db 8d be 0b 50 5e bd
       -0.12201052 -0.06469176 -0.27706155 -0.054275554
000070 d3 de 16 bd 7b 76 95 3d 2b 3d 1d bd 6d 42 e6 be
       -0.036833595 0.07297989 -0.038388412 -0.44972554
000080 9e 05 d1 be 8f 6f e4 be 91 c7 b2 bd 60 a4 51 be
       -0.40824598 -0.44616362 -0.087294705 -0.2047286
000090 61 dd 21 be 2f d8 f7 bc 90 38 98 bd f2 a8 dd 3d
       -0.15807106 -0.030254452 -0.074326634 0.108232394
0000a0 60 b7 4c be 3c 88 af bc b0 06 52 bd bf c2 34 bf
       -0.19991827 -0.021427266 -0.05127591 -0.7060966
0000b0 80 bf a3 bd c3 ec 84 bd bc 09 c0 be 28 16 97 bd
       -0.0799551 -0.06490471 -0.37507427 -0.07377273
0000c0 0b e8 4e be fc 47 e7 bc 5e 4f 27 bd c1 f9 6c bd
       -0.20205705 -0.028232567 -0.040847175 -0.05785537
0000d0 0d d1 b1 3d 9b bd fe 3d fc 8b a1 bd 85 26 45 bd
       0.086824514 0.12438508 -0.07888028 -0.04813244
0000e0 4c 5a 45 be df c1 bf be 67 19 50 be 7c 36 be bd
       -0.19272727 -0.374526 -0.2032219 -0.09287736
0000f0 83 7b 42 be 30 3c e7 bd f7 61 bd bd ed 56 0a 3e
       -0.18992428 -0.11290777 -0.09247201 0.13509722

gcn.convs.1.lin.weight f4 [64, 64]
000000 80 9d 2f bc 6e 82 16 3d df 37 21 3e 87 a6 89 3e
       -0.010718703 0.03674548 0.1574397 0.26884863
000010 33 e2 09 3e 26 a5 b8 3d 48 dc 0c be 56 b4 9b 3e
       0.13465194 0.090158746 -0.13755906 0.30411023
000020 2f 8c bd 3d ee cc 10 3e fb be 87 3e 77 17 59 3e
       0.092552535 0.14140674 0.26512894 0.21200357
000030 7f ed 8b 3e d7 85 52 3e 9b 74 b1 3e fa 6b bb bd
       0.27329633 0.20558868 0.34659275 -0.09151454
000040 d9 74 f2 3e d1 e2 97 3d 97 43 55 bd 12 8f 98 3d
       0.47354773 0.07416309 -0.05206641 0.074491635
000050 00 37 90 3d 2b 6e 8e 3e 55 53 ae 3d 6e 84 88 3e
       0.070417404 0.27818426 0.08511988 0.26663536
000060 b9 71 af 3d 05 a0 5d 3d 46 96 a2 3e 09 5a 96 3e
       0.08566613 0.054107685 0.31755275 0.29365566
000070 8e 5c d9 3c 48 5c bb 3c 64 06 3a 3e 4e d8 9e 3d
       0.026533391 0.022871152 0.181665 0.077561006
000080 0f 85 fb 3d 58 5a 59 3e 41 b5 60 3e f0 1c cc 3d
       0.12281238 0.2122587 0.21944143 0.09966457
000090 48 d0 06 3e 5d 0f 2d 3d b3 91 c1 3e 4b 21 69 3e
       0.1316539 0.04225098 0.37806472 0.22766607
0000a0 9d d2 b6 3e 50 5a 92 3e b5 b5 85 3e 9c 3b 39 3e
       0.3570756 0.28584528 0.26115194 0.18089145
0000b0 a6 98 fc 3d 13 69 d3 3d 82 63 7b 3e 02 90 f2 3d
       0.12333803 0.10322776 0.24549678 0.118438736
0000c0 ec 07 12 3e 27 e0 8d 3e 75 22 6c 3e 92 95 9a ba
       0.14260834 0.27710077 0.2306002 -0.0011793843
0000d0 f6 0a 83 3e 71 a1 1a 3e 0f bc 12 3e 6c f9 53 3d
       0.255943 0.15100648 0.14329551 0.05175154
0000e0 d8 42 20 3e 5d fa 37 3d 7a a8 68 3e 06 38 79 3d
       0.15650499 0.0449165 0.22720519 0.060844444
0000f0 83 dd 8a 3e 9e f8 74 3e 94 03 74 3e 70 9e 50 3e
       0.27122125 0.23922965 0.2382949 0.20372939
000100 e2 cf cb 3d c9 c0 46 3e 9f e0 51 3e 0d 8a b5 3d
       0.0995176 0.19409479 0.20495842 0.08864222
000110 03 37 f0 3d 1b 6d 1f 3e 3a bd 9f 3d 13 41 13 3e
       0.11729243 0.15568964 0.07799764 0.14380293
000120 cc 79 30 3e d7 a6 00 3e a0 57 e4 3d 84 c0 d2 3d
       0.17233962 0.12563644 0.11149526 0.10290626
000130 f7 d2 84 3e d8 9b 10 3d 53 8c 3a 3e 6d 06 8b 3e
       0.25942203 0.035304874 0.18217592 0.2715334
000140 0b 34 00 bd 14 69 95 3e c8 ba b5 3d 68 42 b3 3d
       -0.031299632 0.2918173 0.08873516 0.087529
000150 c3 bd f3 3d 4c 11 1b 3d 23 2f d1 3d 58 20 51 3e
       0.119014286 0.037858292 0.10214069 0.20422494
000160 c7 78 1a 3e 86 39 0c 3e c0 c2 36 3d e4 5e 8d 3d
       0.15085135 0.13693818 0.04461932 0.069028646
000170 9a ff 30 3e f6 7d d8 3d 38 1d 78 3d 5d ef 80 3e
       0.17285004 0.105709 0.06057474 0.2518262
000180 d0 9c eb 3d e3 e8 68 3e 25 21 b7 bc 28 6f cc 3d
       0.11504519 0.22745089 -0.022354672 0.09982139
000190 24 a0 a1 3d 2b a6 62 3e 8a 72 5f 3e 7f 5e 90 bb
       0.078918725 0.221337 0.21821037 -0.004405796
0001a0 ff 0c 19 3e 7a 83 65 3e a0 f2 9f 3d 1d 5f b3 3d
       0.14946364 0.22413436 0.07809949 0.08758376
0001b0 9a 30 d1 3d 4c 46 c3 3d 15 b1 a8 3d 76 3c 18 3e
       0.10214348 0.095348924 0.08236901 0.14866814
0001c0 93 33 8e 3e 63 26 64 3d b2 a9 db 3d df 8c 2d 3c
       0.27773723 0.05570067 0.10725726 0.010592668
0001d0 ca 2e 75 3d 96 f2 96 3d 67 89 fb 3d ef e4 12 3e
       0.059859075 0.07370488 0.12282067 0.14345144
0001e0 e9 ae 71 3e 39 20 21 3e 87 15 21 3d 74 f9 8e bb
       0.23601879 0.15734948 0.03932717 -0.004363233
0001f0 e7 74 22 3e d5 3c 48 3d ae f9 5c 3e 4d 8c 06 3e
       0.15864907 0.04888614 0.2157962 0.13139458
000200 cc 24 3b 3d 04 02 c2 be 1a 75 1e be 10 55 13 be
       0.04568939 -0.37892163 -0.15474358 -0.14387918
000210 42 76 bf 3d 84 6b b6 be 5e e5 38 bd 81 fa 2e 3e
       0.09348728 -0.35628903 -0.045140617 0.17087747
000220 f1 72 a1 bc 62 d3 8b bd 70 a9 6c 3c 97 05 7b be
       -0.019708129 -0.068274274 0.014444694 -0.24513851
000230 3e 47 a6 bd e1 97 93 be 5b b2 52 bd ac 30 97 be
       -0.08119057 -0.28826812 -0.051439624 -0.2952932
000240 42 d0 bd 3c 8e e5 2d be 5a a2 80 bd 5c 84 ee 3d
       0.023170594 -0.169821 -0.06280966 0.11646339
000250 0c 24 4f be c0 cf 85 3b a4 b0 04 bd d9 0a b5 bd
       -0.20228595 0.0040836036 -0.03239502 -0.0883996
000260 04 79 9e be d4 c3 89 bd 4b 23 28 3d 90 f3 04 3d
       -0.30951703 -0.067268044 0.041049283 0.03245884
000270 ec d1 2a be 49 2d 16 be 74 45 fa bd b3 e4 09 be
       -0.16681641 -0.14665712 -0.122202784 -0.13466148
000280 ba 9f 80 3d f7 51 61 bd 6f 7e 48 be 20 ff a5 be
       0.062804654 -0.05500981 -0.1957948 -0.32421207
000290 16 b9 ad bd e6 ba 9c be 37 96 8b be 58 55 0f be
       -0.08482568 -0.30611342 -0.27263042 -0.139974
0002a0 d1 45 24 be 61 ce 90 be 4a fc 91 3c 5c 61 9d 3d
       -0.16042258 -0.28282455 0.017820496 0.076845855
0002b0 db e4 0a bd 60 d9 aa be 96 d7 ea 3d 35 1b c0 bd
       -0.03390966 -0.3336897 0.11466901 -0.09380189
0002c0 63 cf de bd 7e 19 72 3c 65 c4 4f be f6 a7 80 be
       -0.108793996 0.014776586 -0.20289762 -0.25128144
0002d0 1c c2 2c be 56 68 26 be d7 f1 84 be 01 b6 a9 bd
       -0.16870922 -0.16250739 -0.2596576 -0.082866676
0002e0 40 91 90 be 57 6c 4f be 58 d9 06 3d 0b 78 6c be
       -0.28235817 -0.20256172 0.03292212 -0.23092668
0002f0 d2 8f bd bd 66 c0 09 be c0 53 c8 3d ef b9 77 be
       -0.09255947 -0.134523 0.09781599 -0.24192022
000300 e2 24 93 3d 48 45 b3 3e d5 64 0d be ed c8 b9 bd
       0.07184769 0.35013795 -0.13807996 -0.09071527
000310 82 40 a3 be 95 d3 0f 3e 9b 2c 3d 3e b2 c9 b4 3c
       -0.31885153 0.14045556 0.18474047 0.022068832
000320 f1 0c 37 bd 39 36 8a bc 64 a7 54 3e 7a 5f b6 bd
       -0.044690076 -0.016871559 0.2076698 -0.089049295
000330 a3 8d db 3d fe 65 ac 3d 59 02 ff bc 7d 1f b4 3e
       0.107203744 0.08417891 -0.03112905 0.35180274
000340 50 7e 20 be a7 58 b5 3e 27 c7 3b 3e e4 97 e7 bd
       -0.15673184 0.354192 0.1833769 -0.11308268
000350 c0 f5 55 3e 23 2c b2 bd ff ba 1e be 13 3f e2 bc
       0.20894527 -0.08699825 -0.15501021 -0.027617967
000360 0c dd 8c 3d 93 f4 7d 3d 49 75 d1 be b3 81 c0 bd
       0.06878099 0.062000822 -0.40909794 -0.09399738
000370 fa 6c a8 3e 8b e2 b0 3d df f0 7f bd fc 61 64 3e
       0.32895643 0.0863696 -0.062485572 0.22303003
000380 ed 32 54 be 92 c6 1a be d1 de 3a bd 52 cd 46 be
       -0.20722552 -0.15114811 -0.04562265 -0.19414261
000390 f7 32 1d 3e 91 b4 21 3e 57 20 43 bd 18 36 8f be
       0.15351473 0.15791537 -0.047638264 -0.27970958
0003a0 12 90 6e be e8 c2 4a 3e 1a 35 81 bd 73 42 c5 bd
       -0.23297146 0.19800913 -0.063089564 -0.09631815
0003b0 2c ff c1 bd f7 aa 05 3e 6d 3f 59 be 5e 8d 36 bd
       -0.09472498 0.13053499 -0.21215601 -0.044568412
0003c0 ba 03 71 bd d5 29 30 be 04 fa 56 3d ff 6a 96 3e
       -0.058841445 -0.17203458 0.052484527 0.29378507
0003d0 45 09 52 bd 0d 21 dd ba df 34 04 3d 1f c3 3a 3e
       -0.05127837 -0.0016870812 0.032276984 0.18238495
0003e0 66 38 58 3e ea c8 d6 3d 3a dc ab bd c4 4e 8f 3e
       0.21115264 0.1048754 -0.08391614 0.2798978
0003f0 6b fd 54 3d 1f 00 69 3e 52 b1 7d 3e bf 0c 82 bd
       0.05199949 0.22753952 0.24774674 -0.063500874

gcn.convs.2.bias f4 [64]
000000 b1 8f 2e 3b ee 85 1f 3c e0 fe 03 bd 87 d2 37 be
       0.002663594 0.009736521 -0.03222549 -0.17951404
000010 34 48 f2 bd b9 59 79 bc 20 9c 96 bc 22 7a 8f bd
       -0.11830178 -0.015219145 -0.018384993 -0.07005717
000020 00 17 6f 3d 7f 5d 50 3e 6d 0f 24 3e 2c 82 64 bd
       0.058371544 0.20348166 0.1602151 -0.055788204
000030 3c 96 72 bd e6 db bd 3c 36 0c 15 be 75 c9 9e bd
       -0.059225306 0.023176145 -0.1455544 -0.07753269
000040 2b a6 29 3e 7d 8d 33 3d 30 8f 25 bd 1d 99 af bd
       0.16567294 0.043836106 -0.040419757 -0.08574126
000050 a1 0e 88 3d a5 80 98 3d e3 0e 1f 3d 2f 28 24 be
       0.06643415 0.07446412 0.038832556 -0.16030954
000060 ac 63 a8 3b 17 c7 0e bd 31 a8 45 3d 6f 4a 1f bd
       0.005138835 -0.034857836 0.048256103 -0.038889345
000070 ba 52 1c 3e b0 f1 27 3c 83 69 3d be 2c 49 bf 39
       0.15265933 0.010250494 -0.18497281 0.00036484876
000080 34 d5 f6 3c 95 81 a3 bb 7d 58 44 bd db 13 51 3c
       0.03013096 -0.0049898126 -0.04793595 0.012761082
000090 5f 1e 4f 3d 7b a7 0c 3e 15 10 da bd a6 cb c0 3c
       0.050566074 0.13735764 -0.10647599 0.023534607
0000a0 83 e6 5d 3e f2 a1 06 bd 27 8a 01 3d d1 2d 0d bc
       0.21669964 -0.032869287 0.031625893 -0.0086168805
0000b0 40 c8 03 bd dd 82 05 bb 1a 16 bd 3b 02 d5 93 3d
       -0.032173395 -0.002037219 0.005770457 0.072183624
0000c0 75 02 7c 3c 21 b6 48 bb 43 3b 94 bd f7 7a 3b 3d
       0.015381445 -0.0030626135 -0.07237866 0.045771565
0000d0 3e fd 69 bd b6 39 9c bd 17 bd 3d be f8 48 94 3c
       -0.057126276 -0.07628195 -0.18529163 0.0181012
0000e0 d7 00 26 3e 9f 27 e9 3c 45 a2 a8 3d cd f8 78 bd
       0.16211258 0.028461276 0.082340755 -0.06078415
0000f0 2e 38 4d 3d dc ae c7 3d 0c 85 00 be 98 f1 fd 3b
       0.050102405 0.09750149 -0.12550753 0.0077497475

gcn.convs.2.lin.weight f4 [64, 64]
000000 55 d0 d2 3d 0a da 07 3c cc fb 4c be 95 89 a0 bd
       0.102936424 0.008291731 -0.20017928 -0.07838742
000010 ff 8b 3e 3e 29 b2 2d 3c 14 ef de 3b 2a fa 22 3c
       0.18608092 0.010601559 0.0068034027 0.009947339
000020 ea 72 93 bd 40 75 27 3e ff 8e 1f 3d ee 5e 60 bd
       -0.071996525 0.16353321 0.03895473 -0.054778032
000030 d1 93 6a 3d 37 2b bc 3c c2 af 9d 3d 29 91 89 bd
       0.057269875 0.022969825 0.07699539 -0.0671714
000040 2b fb 07 3e ae 7a 24 3d e7 6f ee bd 13 d4 19 3c
       0.13279407 0.04015606 -0.116424374 0.009388941
000050 9c 77 9f bd 8a df 1e bd 94 cb 06 be 4f 40 3f 3b
       -0.077864856 -0.038787402 -0.13163596 0.0029182618
000060 0f ad 0f 3e e7 f2 65 3d a1 4e 78 3c 6b 54 e8 3c
       0.1403086 0.056139853 0.015155465 0.028360566
000070 66 9d 00 3d d3 12 45 be fe ee db bc 6b cd 74 3b
       0.031400107 -0.19245462 -0.026847359 0.0037353884
000080 4a 1e e3 3d 9e f5 96 bd d5 f8 cb bd 47 82 b5 bc
       0.110897616 -0.073710665 -0.0995957 -0.022156848
000090 6d 63 a1 bd 1d 5a 46 bd 05 53 8d 3d e0 a1 fe bd
       -0.07880292 -0.048425782 0.069006 -0.12433219
0000a0 0d a6 32 3d 54 14 0a bd 24 5e a6 bd 92 c7 28 3e
       0.04361539 -0.033710793 -0.08123425 0.1648238
0000b0 16 01 22 bd 36 e1 f7 bc b7 24 29 bc dd 7c ca bc
       -0.039551817 -0.030258756 -0.010323695 -0.024717743
0000c0 94 5f 27 bb e9 9c 58 3c e1 aa cd bd 65 ec b1 bc
       -0.0025539147 0.013221004 -0.10042358 -0.021719167
0000d0 c7 f4 0f be 4c ed e7 bd 1b a3 e8 bd 2f aa 45 3d
       -0.14058219 -0.11324558 -0.11359235 0.048258003
0000e0 d4 0e 8c 3c 2a 5c 4f bd 5f 5d d9 bb 64 c9 49 bd
       0.017096914 -0.050625004 -0.006633445 -0.049264327
0000f0 8c ae e2 3d 1d 43 3a 3d 02 24 3c bd ce d8 f4 bd
       0.110684484 0.04547416 -0.045932777 -0.11955415
000100 f8 1c 0b 3d 9c 92 54 bd 78 9f ca bd 22 09 62 bc
       0.033963174 -0.05189763 -0.098936975 -0.013796123
000110 3a 36 d8 bc c7 1c 9e 3d c0 88 a1 3d 20 5a a4 3d
       -0.026393045 0.077203326 0.07887411 0.080250025
000120 0e ae 1b 3d cb 2e 5e bd 78 e1 66 3c 02 60 64 bd
       0.03800779 -0.054243844 0.014091842 -0.055755623
000130 26 6f 12 3d 50 27 04 bb c2 74 46 3d 71 79 00 bd
       0.03575053 -0.0020165034 0.048451193 -0.031365816
000140 e2 68 92 bd 87 c8 7e 3d d1 d6 a2 bd bd 8e 36 3d
       -0.07148911 0.062202957 -0.07951129 0.04456972
000150 46 41 e2 bd 3d 45 19 bd c5 56 a2 3d db 2f 73 3d
       -0.11047606 -0.037419546 0.07926706 0.05937181
000160 da 94 30 3a dd 56 8c 3d 6d 82 4e 3d 12 d5 ca bd
       0.0006736048 0.06852505 0.050417352 -0.09903921
000170 1d d4 93 bd b5 8b 61 bd 54 6f b4 bc 3a ff c4 bc
       -0.07218192 -0.055064876 -0.022025742 -0.024047483
000180 88 09 91 3d ec 53 af bd 2d d9 05 bc 75 aa 27 3b
       0.07081896 -0.08560929 -0.0081694545 0.0025583778
000190 be cd ad bd a2 48 2c bd 7a 6a 97 bd c0 8d ce bd
       -0.08486508 -0.042061456 -0.07393356 -0.100856304
0001a0 06 c8 57 bd c7 45 92 bd f1 2d 0f 3d d3 d7 1f 3e
       -0.05268099 -0.07142215 0.034955923 0.15609674
0001b0 dd 35 33 bc 73 13 b3 bd d7 76 89 bd 47 3f 09 bd
       -0.010938135 -0.08743944 -0.0671212 -0.03350761
0001c0 62 f8 4a bd 5b 6b 81 3c d6 d4 ee 3c 37 7c 88 3b
       -0.049553283 0.015798261 0.029154222 0.004165198
0001d0 38 e2 17 be 66 cd 7c 3d ee 6d 8f bd e6 b5 99 3a
       -0.1483239 0.06171932 -0.07003389 0.0011727184
0001e0 9d 0c ab 3b 26 04 4a 3d 7c de af 3d 38 c1 29 bd
       0.0052200095 0.049320363 0.085873574 -0.041444033
0001f0 2b 85 78 bd 28 8c 5d 3c 22 6d c1 3d 13 a2 6b bd
       -0.060673874 0.013522185 0.094446436 -0.057527613
000200 65 08 26 3d 63 d0 58 3c bc cd b9 3d 58 c2 c9 bd
       0.04053535 0.013233277 0.09072444 -0.09851521
000210 aa dd 81 bd 45 a7 ca bd 05 9e 19 bc 58 ad ad 3d
       -0.06341107 -0.098951854 -0.009376054 0.08480328
000220 88 29 b6 3d 37 68 62 3d fc e4 e7 3d f1 9b d5 bd
       0.0889464 0.05527517 0.11322972 -0.10430134
000230 9a cb ad bc 2a 98 82 bd ec de 0c bd 9c dd ab 3d
       -0.021215249 -0.06376679 -0.034392282 0.08391878
000240 b8 e1 10 be 98 9e bd bb 68 26 4b 3d 36 c2 6e 3d
       -0.14148605 -0.005786728 0.049597174 0.058290683
000250 03 c3 61 bd e7 34 2c 3e c8 37 81 bc ff f2 a7 bc
       -0.05511762 0.16817056 -0.015773669 -0.020501612
000260 90 75 d6 bc 07 71 49 bd a0 0c 17 be bb 24 3f 3c
       -0.026179105 -0.049180057 -0.1475091 0.011666472
000270 f7 09 34 bc dc ad 0e 3d 34 98 a1 bc fe a4 b7 3c
       -0.010988704 0.034833774 -0.019725896 0.022417542
000280 81 a5 85 3c 65 86 30 3c 41 04 5b 3c 94 e3 5b 3d
       0.01631427 0.01077423 0.013367713 0.053683832
000290 e8 e5 0d 3c c1 53 5e 3d c8 55 d7 3c f4 45 ae bc
       0.008660771 0.054279093 0.02628602 -0.02127359
0002a0 2e b0 ae bd 0f ea ec bd ed af 0b 3e 5f 9b eb 3c
       -0.08529697 -0.11568081 0.13641329 0.02876061
0002b0 4e 23 79 bd db 70 33 bd b8 a7 80 bd 03 67 06 3e
       -0.060824685 -0.0438088 -0.0628199 0.13125233
0002c0 2f 55 cc bb eb 22 2e bd 5b 10 66 3d 24 a8 04 bd
       -0.0062357406 -0.04251377 0.05616794 -0.032386914
0002d0 2b 87 a7 bb 96 b2 57 bd ba 55 48 bc e1 43 11 bd
       -0.005112549 -0.052660547 -0.01222747 -0.035465125
0002e0 22 5e 17 bd b4 e7 0a be ea 94 3f bc a7 50 14 3e
       -0.036955006 -0.1356495 -0.011693219 0.14483891
0002f0 54 b1 b6 3d a7 bd 09 3c 11 9b ab 3d d7 99 f7 3d
       0.089205414 0.008407033 0.08379186 0.120898895
000300 3d 46 23 3d 17 72 c1 3d 74 4f 79 be ac 2f b3 3e
       0.039861906 0.09445589 -0.24346715 0.34997308
000310 5b 8c e3 3e a7 d3 98 3d db 15 22 3e b5 6d 87 3e
       0.4444302 0.074622445 0.1582865 0.26450887
000320 d4 90 46 3e f6 a8 6e 3e 8d 59 0e 3e 6e 26 d4 bd
       0.19391185 0.23306641 0.13901348 -0.103588924
000330 25 c5 ab 3d 06 fa 6e 3e 05 50 ab 3e 02 53 92 be
       0.08387212 0.23337564 0.33459488 -0.28578955
000340 f9 b3 6a 3e 05 2f 9c 3e 7e 79 49 be 2d 04 b1 3d
       0.22920217 0.30504623 -0.19675252 0.086433746
000350 75 d9 09 be 0b df 1f 3d 43 00 19 3e 02 03 18 b9
       -0.1346186 0.03903107 0.14941506 -0.0001449697
000360 23 11 3f 3e f2 23 39 3e e0 fb bb 3d ee 4b 37 3e
       0.18658881 0.18080118 0.09178901 0.17900059
000370 8b 29 34 bc 3d e7 5b be 12 86 80 3e 49 e8 6e 3d
       -0.010996233 -0.21474929 0.25102288 0.058326993
000380 ba 45 74 3e 0f f6 79 3e c5 c5 6a 3e 10 90 8c bd
       0.23854724 0.2441027 0.22927006 -0.06863415
000390 a2 09 10 be 03 08 74 3e 9d a5 5c 3e 32 c3 86 be
       -0.14066175 0.23831181 0.21547551 -0.26320797
0003a0 01 f3 7c 3c f2 bc 65 3e 48 19 f5 3d 4d f8 9f 3e
       0.015438796 0.22435358 0.11967713 0.31244126
0003b0 ab 30 48 bd 88 35 87 3e 27 8f 10 3e fc ff 66 3e
       -0.04887454 0.2640803 0.14117108 0.22558588
0003c0 7c a0 a5 3d 26 32 36 3e 28 b4 83 3e b1 06 2d 3e
       0.080872506 0.17792568 0.25723386 0.16897084
0003d0 2c 97 5e be 3f 46 a5 3b c4 67 25 3d 95 69 0e 3e
       -0.21737355 0.0050437744 0.04038216 0.13907464
0003e0 7e 01 99 bd 72 28 1d 3e 42 0d 12 3e a6 bf fb bd
       -0.07470988 0.1534746 0.1426287 -0.122924134
0003f0 41 85 c3 3c 08 b6 a3 bc 2d 6f 3c be 8c 06 b8 be
       0.023867251 -0.01998426 -0.18401785 -0.35942495

edge_feature_mlp.0.weight f4 [64, 5]
000000 67 9e 4c 8a 1e 56 55 8a 88 e7 52 8a be dd 57 0a
       -9.852035e-33 -1.0271774e-32 -1.01546784e-32 1.03935785e-32
000010 21 98 50 0a 51 cb 4b 8a 3c fe 45 8a 8c 4a 58 8a
       1.0043448e-32 -9.812334e-33 -9.533021e-33 -1.04140424e-32
000020 4d bc 46 8a 1d 3c 4c 0a b5 1a 6f 0a 54 f7 56 8a
       -9.568769e-33 9.833549e-33 1.15124545e-32 -1.03502425e-32
000030 a7 1a 53 8a d3 02 5c 0a 42 99 4b 0a 78 5a 4f 8a
       -1.0164293e-32 1.0593146e-32 9.802919e-33 -9.983703e-33
000040 3b 39 56 0a ff ed 5a 0a 85 d7 49 8a b4 de 46 8a
       1.0314489e-32 1.054108e-32 -9.718333e-33 -9.575239e-33
000050 a1 68 46 8a b5 94 4d 0a ad f4 4d 8a ac a7 46 8a
       -9.553032e-33 9.89836e-33 -9.916409e-33 -9.564889e-33
000060 17 fd 56 0a a4 cc 49 8a b9 80 52 0a 63 ce 55 0a
       1.0351326e-32 -9.7162866e-33 1.0135342e-32 1.0294394e-32
000070 b5 8a 47 0a 67 54 59 8a f0 4f 4c 0a 70 d3 5e 8a
       9.607589e-33 -1.0464044e-32 9.837277e-33 -1.0728678e-32
000080 58 70 44 8a 43 d8 56 0a ea 4d 46 8a 19 50 54 0a
       -9.458186e-33 1.03443995e-32 -9.548007e-33 1.02224934e-32
000090 9f 89 54 8a 1e 4c 5e 0a fe 06 5b 0a 97 29 4d 8a
       -1.0233312e-32 1.0703227e-32 1.05457815e-32 -9.878213e-33
0000a0 82 0a 54 0a 52 1c 59 0a ee ff 4f 0a a9 c2 4a 8a
       1.0209405e-32 1.04534964e-32 1.00148225e-32 -9.762558e-33
0000b0 df b8 56 0a 80 4d 58 8a 5d 97 57 0a 6a 5e 54 0a
       1.03384956e-32 -1.0414598e-32 1.0380342e-32 1.0225186e-32
0000c0 14 f9 4f 0a f2 01 56 0a b5 2e 46 0a f5 ae 60 0a
       1.0013534e-32 1.0304091e-32 9.542138e-33 1.08181134e-32
0000d0 75 7a 53 8a 27 48 4e 8a bf 6b 52 8a 60 7b 5a 0a
       -1.0182312e-32 -9.9321096e-33 -1.0131397e-32 1.05195225e-32
0000e0 6f c1 4e 0a 1e fe 4e 0a b7 b1 46 0a 2f 79 52 0a
       9.95492e-33 9.966333e-33 9.566778e-33 1.0133924e-32
0000f0 a1 34 44 8a f4 cd 57 0a 1a b4 5e 8a 0d c6 4a 8a
       -9.446955e-33 1.0390609e-32 -1.07227845e-32 -9.7631954e-33
000100 d4 bb 5b 0a 6e de 4b 0a 0b 77 43 0a 6b e0 59 0a
       1.0579793e-32 9.815929e-33 9.411298e-33 1.0490378e-32
000110 b0 7e 58 0a fb a7 6e 0a 84 f6 4d 8a 54 f7 49 0a
       1.0423849e-32 1.1490877e-32 -9.9167554e-33 9.724315e-33
000120 8d e5 4f 8a 91 e3 58 0a 01 02 56 0a c7 48 54 8a
       -1.0009861e-32 1.0442822e-32 1.0304102e-32 -1.02211166e-32
000130 e4 84 4f 8a 85 7f 48 8a 5e b3 4c 0a 24 b3 4e 8a
       -9.9916814e-33 -9.6536335e-33 9.855978e-33 -9.952232e-33
000140 b5 07 53 8a bc 71 58 0a ab ed 44 8a 0d 53 4e 0a
       -1.016073e-32 1.0421413e-32 -9.481757e-33 9.934159e-33
000150 bb 32 5b 8a e4 49 50 8a 4b 27 55 8a a7 0b 4f 0a
       -1.0554008e-32 -1.0028733e-32 -1.0262967e-32 9.968879e-33
000160 a8 bc 5b 8a 42 02 4b 0a f4 d9 4d 0a 00 10 5b 8a
       -1.0579949e-32 9.774519e-33 9.9113834e-33 -1.0547476e-32
000170 19 16 50 8a cd 3e 54 8a 18 3d 53 8a 9c b7 45 8a
       -1.0018992e-32 -1.021924e-32 -1.0170771e-32 -9.519738e-33
000180 74 36 4f 8a bd 66 56 8a 51 d6 43 0a 82 fe 58 8a
       -9.976929e-33 -1.0323048e-32 9.429217e-33 -1.0447889e-32
000190 cc 02 57 8a a0 e5 54 0a e1 ad 62 0a 0d da 53 0a
       -1.03523995e-32 1.02506164e-32 1.0914207e-32 1.0200291e-32
0001a0 c1 0d 50 8a d2 3a 55 0a 58 39 4e 0a 9f bf 5b 8a
       -1.00174225e-32 1.026664e-32 9.9293244e-33 -1.05805064e-32
0001b0 44 27 57 8a c4 c3 54 8a 0c 5a 4e 0a c3 99 57 0a
       -1.03592585e-32 -1.0244248e-32 9.935475e-33 1.0380793e-32
0001c0 a7 14 5c 8a 09 90 57 8a 9f 3c 4b 0a f8 7d 4e 8a
       -1.0596499e-32 -1.03789635e-32 9.785496e-33 -9.942231e-33
0001d0 1c ca 5c 8a 83 39 57 0a 45 2e 5a 0a 8a 1a 5f 8a
       -1.0630627e-32 1.036269e-32 1.05050205e-32 -1.0742051e-32
0001e0 97 5a 51 8a 42 fa 45 8a 46 61 71 8a 7c 6f 50 8a
       -1.0080022e-32 -9.532273e-33 -1.1622023e-32 -1.00358036e-32
0001f0 02 36 5b 8a 14 dc 49 8a 22 5e 59 0a 82 df 52 0a
       -1.0554624e-32 -9.71919e-33 1.0465874e-32 1.0153169e-32
000200 d7 47 4d 8a ad f2 52 0a 39 be 54 0a 19 92 51 8a
       -9.8839025e-33 1.01567744e-32 1.02432056e-32 -1.0090462e-32
000210 d5 c8 4f 0a 99 14 51 0a 2c f2 4e 8a 18 24 52 8a
       1.000446e-32 1.0066858e-32 -9.964087e-33 -1.0117921e-32
000220 47 53 59 0a 26 83 51 8a d9 23 57 0a 3f 36 4a 8a
       1.0463833e-32 -1.008765e-32 1.0358616e-32 -9.736149e-33
000230 34 a1 4e 0a 3f 37 59 0a 3f 0b 64 8a 83 61 45 8a
       9.948858e-33 1.04585606e-32 -1.0979916e-32 -9.503545e-33
000240 cd df 50 8a 25 5a 52 0a 87 58 48 0a 9f 0c 5b 8a
       -1.0056928e-32 1.01280865e-32 9.6463e-33 -1.054684e-32
000250 01 55 54 0a 62 7b 5d 8a 56 4b 56 0a 47 6e 5b 8a
       1.0223416e-32 -1.0663969e-32 1.0317894e-32 -1.0565207e-32
000260 61 2f 56 0a f8 a9 58 8a 5a 64 56 0a c0 9c 5b 0a
       1.0312636e-32 -1.0431989e-32 1.0322599e-32 1.0573948e-32
000270 de 24 54 0a f9 9b 5d 0a d1 ff 5a 8a 49 fe 4f 0a
       1.0214363e-32 1.0670098e-32 -1.0544432e-32 1.0014513e-32
000280 e6 d9 56 8a a1 3d 4e 0a 80 87 48 0a 41 83 59 0a
       -1.0344707e-32 9.93013e-33 9.6551344e-33 1.0472856e-32
000290 35 e9 56 8a b9 60 4e 0a d7 75 49 8a fe 58 4f 8a
       -1.03475866e-32 9.936731e-33 -9.699961e-33 -9.983425e-33
0002a0 f9 60 47 8a 87 a5 62 8a 96 14 56 8a 76 57 4d 8a
       -9.59974e-33 -1.09126364e-32 -1.0307597e-32 -9.8868405e-33
0002b0 a7 f0 56 0a 8a 1e 56 8a 06 76 53 0a eb b8 52 8a
       1.0348987e-32 -1.0309469e-32 1.0181478e-32 -1.01459114e-32
0002c0 b3 a8 58 0a 06 9e 66 8a a0 f0 56 0a 96 23 58 8a
       1.04317505e-32 -1.1103818e-32 1.0348982e-32 -1.0406715e-32
0002d0 62 b7 4d 0a 01 6b 53 0a ce 19 5b 0a 62 66 50 8a
       9.9048814e-33 1.0179406e-32 1.054932e-32 -1.0034092e-32
0002e0 4d 16 52 0a e4 17 52 0a 3b a4 4d 0a d9 db 58 8a
       1.01153265e-32 1.01156255e-32 9.901279e-33 -1.04413704e-32
0002f0 f3 47 4e 8a db 90 55 0a a6 c8 4b 0a 09 22 4f 0a
       -9.932071e-33 1.0282821e-32 9.811832e-33 9.973089e-33
000300 37 08 55 0a a1 91 4f 8a 87 e8 4c 8a e2 9e 58 0a
       1.0257122e-32 -9.994077e-33 -9.865976e-33 1.0429904e-32
000310 0b 10 5a 8a 8d 0b 4d 8a 0a 8b 4d 0a d2 ce 55 0a
       -1.04993355e-32 -9.8725634e-33 9.896541e-33 1.02944755e-32
000320 1b 9d 4c 8a e4 1a 58 0a d1 f1 55 0a 15 d1 47 0a
       -9.851791e-33 1.0405079e-32 1.03010576e-32 9.6208254e-33
000330 00 2e 4d 8a 6d d9 46 0a 35 bf 60 0a 6c 62 4e 8a
       -9.8790426e-33 9.5742465e-33 1.082117e-32 -9.93705e-33
000340 6e ce 58 0a 07 43 54 0a 76 db 5a 0a a3 37 4e 8a
       1.0438847e-32 1.0220035e-32 1.0537594e-32 -9.929003e-33
000350 ae dd 4b 0a 39 24 5a 8a 8a 8f 4b 8a 22 de 57 8a
       9.815788e-33 -1.0503131e-32 -9.801091e-33 -1.0393652e-32
000360 64 16 4e 8a 39 24 4c 8a d1 f4 52 0a b3 04 4d 0a
       -9.9227504e-33 -9.8290554e-33 1.0157177e-32 9.871275e-33
000370 08 1f 4f 0a 53 07 53 0a 37 37 57 8a fb 22 44 8a
       9.972524e-33 1.0160658e-32 -1.0362258e-32 -9.443636e-33
000380 4a 2e 5e 0a db ed 4b 0a 50 bf 58 0a a8 d9 5b 0a
       1.0697617e-32 9.81883e-33 1.04360036e-32 1.0585403e-32
000390 1b af 5b 8a 67 89 56 0a 15 94 57 8a 0d 63 44 0a
       -1.05774e-32 1.0329568e-32 -1.03797246e-32 9.455686e-33
0003a0 72 14 5e 8a 0c 2a 54 0a 79 c2 58 8a c8 a2 4f 0a
       -1.06927565e-32 1.0215337e-32 -1.0436598e-32 9.997303e-33
0003b0 63 f2 5b 8a 89 4c 60 0a 1a f0 57 8a 0f 3a 59 0a
       -1.0590054e-32 1.0799602e-32 -1.03970315e-32 1.04590896e-32
0003c0 f4 62 5d 0a 0d 8a 58 8a b4 bb 5b 0a 56 ee 4a 0a
       1.0659374e-32 -1.0425986e-32 1.05797695e-32 9.770772e-33
0003d0 5b f8 54 0a 92 03 6c 0a 54 c3 67 0a 61 4d 5e 8a
       1.0254139e-32 1.1363658e-32 1.11589826e-32 -1.07034645e-32
0003e0 62 48 52 8a 57 4f 5a 0a 47 a6 55 0a a7 f0 55 0a
       -1.0124746e-32 1.051124e-32 1.028685e-32 1.03008386e-32
0003f0 54 4c 4c 0a ad 79 4d 0a d7 88 54 8a fd ef 53 0a
       9.8365984e-33 9.893276e-33 -1.02331654e-32 1.0204417e-32

edge_feature_mlp.0.bias f4 [64]
000000 53 63 01 a5 12 cf 75 b8 25 c8 86 ad 62 e4 d4 ae
       -1.1222619e-16 -5.86054e-05 -1.5322918e-11 -9.681213e-11
000010 7f e8 a9 bc 5b 84 8c 3d a1 0c be af ec 59 b3 bc
       -0.020740746 0.06861182 -3.4569772e-10 -0.021893464
000020 4f 72 22 b0 30 b6 48 bc 59 16 84 bc ed 5a 64 ba
       -5.90977e-10 -0.012250468 -0.016123937 -0.0008711059
000030 e7 28 43 97 82 a1 4c bc 55 94 75 bb 41 cc 1a ba
       -6.3059524e-25 -0.012489678 -0.0037472446 -0.000590507
000040 cc a3 86 b6 c2 e4 6b b9 77 a1 87 bb da 5c eb ac
       -4.0125797e-06 -0.00022496565 -0.004139121 -6.6894103e-12
000050 17 30 de ad 79 48 45 a0 c1 c2 07 bb 4c d1 4d b7
       -2.5259834e-11 -1.6710528e-19 -0.0020715448 -1.2267683e-05
000060 f0 34 ba ba ba 9c 3a ba fe d3 fc 8f a8 2f cf b4
       -0.001420645 -0.0007118691 -2.4930775e-29 -3.859143e-07
000070 e4 d2 de ba cd f0 24 b8 4e 85 4f bc cf ab 1c b9
       -0.0017000106 -3.932491e-05 -0.01266606 -0.00014941323
000080 d1 85 97 94 b2 e7 67 a5 df 9b d3 97 b5 fd 3f bb
       -1.5299885e-26 -2.0114558e-16 -1.3674903e-24 -0.0029295508
000090 9d b3 09 bb 9a 32 52 bc 1c 85 b7 bc e1 b8 74 90
       -0.00210116 -0.012829447 -0.022402339 -4.826294e-29
0000a0 62 dd 48 8a 18 d3 6e 8e 4d 11 cf b6 dc de 23 bb
       -9.671287e-33 -2.9437403e-30 -6.171095e-06 -0.002500466
0000b0 e4 02 cf ba 26 9f 20 ba 6b fd d6 ba a9 84 2c 98
       -0.0015793708 -0.00061272306 -0.0016402429 -2.2297455e-24
0000c0 f4 5c 2c b9 1e 3a 87 ab 70 a1 17 bb e6 d2 09 8a
       -0.00016437826 -9.608458e-13 -0.0023136996 -6.635976e-33
0000d0 7c 50 b0 af 09 1b 7d bc ef 00 a1 bc 96 bd 8b bb
       -3.20714e-10 -0.01544834 -0.019653765 -0.0042645438
0000e0 cc 06 54 b8 4c 9c 05 a4 a6 a6 5e a4 bb 4b 09 3e
       -5.055107e-05 -2.8972166e-17 -4.8279733e-17 0.13407795
0000f0 e1 d6 0b 94 a5 9f a8 3d 3f be 78 bb 05 f2 cd b9
       -7.060084e-27 0.08233575 -0.0037955192 -0.00039280966
