results/dropped_jaccard_similarity/best_gcn_model.pth (torch, 303851 bytes, 13 tensors)

node_embedding.weight f4 [64, 770]
000000 70 6d 1c 3e b6 54 d2 bd 00 49 0e 3e 02 41 16 bd
       0.15276122 -0.102700636 0.13895035 -0.03668309
000010 2d 7d c4 bd 86 0a 49 3d 55 d5 f5 3d 04 60 1d 3c
       -0.09594188 0.0490823 0.120035805 0.009605411
000020 6c 63 f7 3d 0f c1 bb 3c 04 c0 de bd 73 b7 46 be
       0.1207951 0.022919206 -0.10876468 -0.19405918
000030 82 a2 5a 3e 44 27 b2 bc 71 3c dd bc b3 68 96 3d
       0.21351054 -0.021747239 -0.02700636 0.073441885
000040 1e 7b 02 3d 17 d4 9d bd 93 2c 40 be ad 2d 24 3d
       0.031855695 -0.077064686 -0.18767004 0.040082622
000050 a1 33 e2 bd 41 90 19 be 99 50 5e 3e ee 48 b3 bd
       -0.11045004 -0.14996435 0.21710433 -0.087541446
000060 45 45 d3 3d c0 c1 db 3c a4 46 b8 3e 79 5f 8c bd
       0.103159465 0.026825786 0.35991395 -0.068541475
000070 b3 e4 55 3e 5a 66 02 3e b8 74 5b bd b0 51 05 3e
       0.20888023 0.12734357 -0.05357811 0.13019443
000080 59 b7 44 3e 32 f7 ed 3d ca d0 f1 3d e6 c5 55 bd
       0.19210567 0.116194144 0.118074015 -0.052190684
000090 0b b8 8f bd 30 49 ee 3d 2d 78 b4 bc ea 1b 70 be
       -0.07017525 0.11635053 -0.02202996 -0.23448148
0000a0 19 65 dc 3d 2a 79 22 3d ff 80 73 3d 42 d1 4a be
       0.1076147 0.039666332 0.059449192 -0.19806388
0000b0 96 bd 0c 3b 17 ff f5 bd c0 2c 53 be 83 90 55 be
       0.0021475307 -0.12011545 -0.2062254 -0.20855908
0000c0 d9 98 96 3d c1 e2 4a be 64 ea ad 3b 9c ea 28 3e
       0.07353372 -0.19813062 0.0053074826 0.16495746
0000d0 1e db 00 be f9 73 2b 3e f5 77 01 3e d9 c3 1c 3e
       -0.12583587 0.16743459 0.12643416 0.15309085
0000e0 6c 37 37 bd 9a dd 74 3d 12 00 63 bc 77 0d a6 3e
       -0.04473059 0.05978165 -0.013854997 0.32432148
0000f0 d5 91 1c be 93 08 6e 3e 8b a2 3b be b6 ce 18 be
       -0.15290006 0.23245458 -0.18323724 -0.14922604
000100 ad 26 aa bb 38 7f c2 bc d6 8c 14 bd ce dd ea 3d
       -0.005192599 -0.023742303 -0.036267124 0.11468087
000110 27 89 63 3d 52 28 25 be 9c 5f 44 be 54 50 e8 3d
       0.05555072 -0.16128662 -0.19177097 0.113434464
000120 eb e2 01 3e e7 d8 12 be db 29 bc 3e 88 ec 29 be
       0.12684219 -0.14340554 0.36750683 -0.16594136
000130 9e 90 23 be 28 1b 5c 3d 9b d1 18 be ec 62 90 be
       -0.15973136 0.053736836 -0.14923708 -0.2820047
000140 71 5f 17 3e 07 92 d1 3d ba 47 91 3e 0a 86 2b bd
       0.14782502 0.10232931 0.28375036 -0.041875876
000150 8a 92 39 3e 16 97 0a be 19 04 c7 bd 29 b1 51 be
       0.18122306 -0.13534197 -0.097175784 -0.20477737
000160 93 04 53 3c ca 5c b4 bc e2 ab ea 3d 27 f2 9d bd
       0.012879509 -0.022016902 0.11458565 -0.077122025
000170 22 8b 85 be 1a 62 8d be 7b 3e a3 3d b5 ec f9 bc
       -0.26082712 -0.27613908 0.079709016 -0.030508379
000180 51 03 8a bd 94 5b 2b 3e a4 44 ca bd 61 84 ab bd
       -0.06738914 0.16734153 -0.098763734 -0.08374859
000190 bc 40 af bc ae 0b c6 3d 63 67 1c be ed 3e ae bd
       -0.021393172 0.096701965 -0.15273814 -0.08508096
0001a0 e4 12 d3 bc 1c c5 a9 3d c3 b5 7f 3e 04 8b 2e bd
       -0.025765844 0.08289549 0.2497168 -0.042613044
0001b0 fa d2 36 3e d8 d5 ce 3c 45 30 cc 3c 79 7b 00 bd
       0.17853919 0.025248453 0.02492536 -0.031367753
0001c0 b2 7f a7 bd e7 b6 a7 3e 00 51 84 3e 32 53 f9 3d
       -0.08178653 0.3275673 0.25843048 0.12174071
0001d0 86 f9 f2 bd 85 06 06 be dd d4 51 3d b0 8c e9 bb
       -0.11863999 -0.13088425 0.051228393 -0.007127367
0001e0 ad fa 83 bd 09 44 af 3d 82 5c 70 3e e9 4f e8 3d
       -0.06444297 0.085578986 0.23472789 0.11343367
0001f0 59 d0 9e bd 01 33 7d bc 75 00 84 be 1b 08 8e 8e
       -0.07754583 -0.015454055 -0.257816 -3.5013508e-30
000200 61 7a 61 3d 6a bc e8 bc a4 6c a4 bd 83 8b d3 bd
       0.05504835 -0.028410155 -0.08028534 -0.10329344
000210 17 e9 13 3e 51 17 e5 bc df 93 bd be 69 11 db 3d
       0.14444385 -0.02796522 -0.3702688 0.1069668
000220 66 2e cc 3d 3a e4 1c be d0 e5 b7 3e af 03 ff 3d
       0.09969787 -0.15321437 0.3591752 0.124518745
000230 f4 c5 8f 3e bf 7c b1 3e 53 ee a5 bd 57 b1 16 bd
       0.28080714 0.34665486 -0.08102097 -0.03679022
000240 eb 2e 21 3e 15 81 0e 3f 31 90 bf 3e 07 df 59 3d
       0.15740554 0.55665714 0.37414697 0.05319121
000250 2c 68 82 bd c4 b6 bc bd 52 d6 ae 3c f1 40 d8 bc
       -0.063675255 -0.09214547 0.02134243 -0.026398154
000260 8b 3a 3c be cb 02 9d 3c 76 f2 0f 3e fa 8c b0 3d
       -0.18381707 0.01916637 0.14057335 0.08620639
000270 c6 f0 eb 3d b7 0a 78 bd 66 5a 6c 3c cb 4a 1c 3e
       0.11520533 -0.060557093 0.01442585 0.15262906
000280 6a 3b 4a 3e 4a 20 a5 3d 5e 07 2b be 12 c3 6b bd
       0.19749227 0.08062799 -0.16702029 -0.05755908
000290 73 13 62 be 31 a7 79 3d 85 d9 a1 3d 83 f3 81 bd
       -0.22077732 0.06095046 0.07902817 -0.06345274
0002a0 cc 1c fb be 54 ab 0a be 5d 5a 27 bd 22 99 04 3e
       -0.49045408 -0.13541919 -0.04085766 0.1294904
0002b0 79 f7 04 be 49 a7 85 bc 1f 3a b7 bd 05 5f 83 bd
       -0.12985028 -0.01631512 -0.089466326 -0.06414608
0002c0 cb 46 f9 bd 9e 54 92 3e bc 04 a5 3d c9 02 3c bd
       -0.12171706 0.28580183 0.08057544 -0.045901094
0002d0 a9 3b a5 3b 4e f7 8e bc 95 a3 4d be c7 c2 32 3e
       0.0050425124 -0.017451908 -0.20081933 0.17457114
0002e0 ea b2 52 be 66 3e 3f bb 5c 97 95 3e a4 63 a1 bc
       -0.20576063 -0.002918148 0.2921704 -0.019700833
0002f0 6f f5 81 bd 46 50 e4 3b 43 ea c5 bd 87 97 b4 bb
       -0.06345641 0.006967577 -0.096638225 -0.0055112275
000300 11 1c 1f be f7 4d 0e be 07 f7 26 3d 79 70 6f 3d
       -0.1553805 -0.13896929 0.040762927 0.05845687
000310 58 b8 d5 bd 8d e4 d2 bd 7b 35 d6 3c 06 0f 80 3d
       -0.104355514 -0.10297499 0.026148548 0.062528655
000320 26 7f 56 3e 6d 25 8f bd 4d 8c a8 3e 7e a8 87 be
       0.20946941 -0.0698956 0.3291954 -0.26495737
000330 16 6f bb bc e7 0c 96 be db 6a 21 3e 06 0c b6 3e
       -0.022880118 -0.2930672 0.15763418 0.35556048
000340 c2 1f b5 bd d8 96 8c be fb 8a ab 3d e4 6f ea 3d
       -0.08843948 -0.27458835 0.08376118 0.11447123
000350 38 d8 81 bd 3a cf 22 be 6c 39 8a 3d 43 cb c7 bd
       -0.063400686 -0.15899363 0.067492336 -0.09755566
000360 b9 5d f3 3d 73 a1 5a 3e 1a ed 14 3e 2e d9 c3 b9
       0.118831106 0.2135065 0.14543572 -0.0003735511
000370 b5 e5 a1 be 86 64 9b bd 05 da 6c 3e 65 08 db 0d
       -0.31620565 -0.07587533 0.23130043 1.3498938e-30
000380 63 b9 df 3d 73 63 a6 3d 1a 68 93 3d c9 89 48 be
       0.109240316 0.08124437 0.0719759 -0.19583811
000390 35 f9 91 3b 3b 3a 01 3e 14 46 eb 3d 3e 80 6b 3e
       0.0044547566 0.1261987 0.11487976 0.2299814
0003a0 4f bb 97 3e 1c 6b b1 bd b3 c1 14 3c 5e 28 82 bd
       0.29635093 -0.086630076 0.009079385 -0.06355356
0003b0 9d a7 f3 3c b0 4d 2c be f8 08 e8 3c ee 8b 89 be
       0.02974301 -0.1682651 0.02832459 -0.2686457
0003c0 49 67 8c 3c 93 49 f3 bd c8 11 da 3d 75 88 5a 3e
       0.017139094 -0.118792675 0.10647923 0.21341117
0003d0 11 3c 2f be da 04 9f 3d b7 8d 42 be 01 5b 44 be
       -0.17112757 0.07764597 -0.18999372 -0.1917534
0003e0 32 5e 63 bc fe d7 22 bd 8f 04 03 be 2c 2d 59 3e
       -0.013877438 -0.039756767 -0.12794708 0.21208638
0003f0 c2 e5 df bd 83 53 23 be 27 f8 bc 3d 37 6c ad 3d
       -0.10932495 -0.15949826 0.09227019 0.08467906

node_embedding.bias f4 [64]
000000 6e bf 89 3e 35 3f 75 be ee c8 ac be 6e c4 37 3d
       0.26903862 -0.23949893 -0.33747047 0.044865064
000010 fe 38 cc 3c 50 a8 ac bc 61 63 bd bd b4 2c b1 be
       0.02492952 -0.021076351 -0.09247471 -0.34604418
000020 28 cf 8f bd 02 5d 65 be 29 59 87 3e 98 02 96 be
       -0.07021934 -0.22398761 0.2643521 -0.29298854
000030 2c 17 9b be 55 da 80 3e e5 a4 55 be 37 94 54 be
       -0.30291116 0.25166574 -0.20863684 -0.20759664
000040 4e 63 67 be 4b c4 27 be 53 22 8e be 4a 6a c9 bd
       -0.22596475 -0.16383474 -0.27760562 -0.09834726
000050 a0 68 b8 3d 28 62 11 be 8f 37 ec 3d 63 e9 63 be
       0.09004331 -0.141976 0.115340345 -0.22256999
000060 55 b4 9e be e9 72 12 3e 55 12 65 3e f3 7f fd bd
       -0.30996957 0.14301647 0.22370274 -0.1237792
000070 f7 ce 40 3d a3 2b 02 bf 8e 58 bb be 2b 4e 64 bd
       0.047072377 -0.50847834 -0.36591 -0.05573861
000080 1e 4f b6 be 7b 86 8e be ec ab a0 bc 61 76 03 be
       -0.35607237 -0.27836975 -0.019613229 -0.12838127
000090 41 89 33 3d df 0b 85 be ad 50 bf be 69 34 3b be
       0.043832067 -0.2598562 -0.37366238 -0.18281712
0000a0 96 6d a8 bd 24 c3 5b bd ee f6 e9 3d 3a ac 38 be
       -0.08224027 -0.053652897 0.11424051 -0.18034449
0000b0 ce d8 84 be 89 fe 28 3e 4a a2 b7 3e 4c e7 a1 be
       -0.2594666 0.16503347 0.35866004 -0.31621778
0000c0 10 55 78 be 68 ed 4d be ff 03 1c bc ee 79 96 be
       -0.24251199 -0.20110095 -0.009522437 -0.293899
0000d0 88 44 a5 be 37 2f 01 3e 85 8c 5b 3e 52 9b e9 3e
       -0.32278848 0.12615667 0.21440323 0.45626312
0000e0 f0 53 a5 3e 1f 1b b9 be b9 38 b6 3e 45 24 ab 3e
       0.32290602 -0.36153504 0.3559015 0.3342611
0000f0 12 4a 01 3f a2 fe c4 bd 0a 47 10 3e bb 1b 22 3e
       0.5050365 -0.0961888 0.14089599 0.15830891

gcn.convs.0.bias f4 [64]
000000 33 5e 85 bf 1a f5 6d bf b8 d3 48 be 7a 23 7e bf
       -1.0419372 -0.9295212 -0.19612014 -0.9927288
000010 cd c9 90 bf 18 88 98 3d 08 18 77 bf fa 93 8f bf
       -1.1311585 0.07447833 -0.96521044 -1.1217034
000020 07 b9 75 bf 61 46 15 3d 6f ef 0e bf 49 92 69 bf
       -0.95985454 0.03644407 -0.55834097 -0.9123884
000030 cc 34 81 bf 75 40 8c bf e7 1e b4 bf 34 55 86 bf
       -1.0094237 -1.0957171 -1.4071931 -1.0494752
000040 80 42 8c bf 7f 58 86 bf 2c 49 69 bf b9 f1 88 bf
       -1.0957794 -1.0495757 -0.91127276 -1.0698768
000050 b8 fd 4f bf 2b 20 52 bf 4c 54 97 be 2b 27 68 bf
       -0.8124652 -0.82080334 -0.295565 -0.90684766
000060 ee f1 77 bf 79 7c 80 be 19 0f 7c bf 6a c8 92 bf
       -0.9685353 -0.25094965 -0.9846054 -1.1467412
000070 8f 82 87 bf f8 13 80 bf 3f f5 8b bf a1 a5 84 bf
       -1.0586718 -1.0006094 -1.0934218 -1.0363046
000080 1e 33 97 bf 16 68 ff bd dd d4 4c bf df 7b 85 bf
       -1.1812475 -0.12471025 -0.80012304 -1.0428427
000090 60 88 8d bf 84 8b 9e bf bd 87 e8 bd 4a b9 64 bf
       -1.1057243 -1.2386327 -0.11354015 -0.8934523
0000a0 60 42 88 bf ec fe e7 bc 91 5a b5 bf 8b 59 8d bf
       -1.0645256 -0.028319798 -1.4168264 -1.1042951
0000b0 ce ee 15 bf 42 f4 ef be 28 7a 6a bf 23 a8 98 bf
       -0.5856751 -0.4686604 -0.91592646 -1.1926311
0000c0 9a 3a b7 be 57 79 89 bf 44 c6 a6 bf 61 26 6d bf
       -0.35786897 -1.0740155 -1.3029256 -0.92636687
0000d0 a9 60 55 bf 8c 9e 88 bf 4d d1 06 3d 7b b4 82 bf
       -0.83350617 -1.0673385 0.03291445 -1.0211328
0000e0 92 8c 97 bf 91 12 48 bf 90 7a 88 bf 55 ef 94 bf
       -1.1839774 -0.7815333 -1.0662403 -1.1635538
0000f0 e5 62 7f bf 51 9d 6c bf 4b 60 6b bf 74 4e 94 be
       -0.99760276 -0.92427546 -0.91943806 -0.28966105

gcn.convs.0.lin.weight f4 [64, 64]
000000 3b 5f ed 3d 19 81 28 be bf f1 8e 3e 73 6c d8 bb
       0.115904294 -0.16455497 0.27918813 -0.006604725
000010 1c 87 a7 3d c4 18 38 3d 5d 90 f3 bd fa da e0 3d
       0.08180067 0.044945493 -0.118927695 0.109792665
000020 c7 40 e4 3e dd 6a 36 bd 0b 59 11 3e 14 81 b6 be
       0.4458067 -0.044535507 0.14194123 -0.35645354
000030 92 32 a3 3e 9b ab 1d 3e 90 36 c1 bc 38 0a 8b 3e
       0.3187452 0.15397494 -0.023585588 0.27156234
000040 61 e4 da bc 7d 19 8c bd 23 88 64 3e 35 86 3c be
       -0.026720228 -0.06840799 0.22317557 -0.18410571
000050 e5 7c 43 3d 74 9d a5 be 6d 82 6b 3e d3 bf d2 be
       0.04772653 -0.3234669 0.22998972 -0.41161975
000060 3d 79 8b 3b 1c 8f 8b be 3d 78 3d be f2 a4 27 be
       0.004256396 -0.2725762 -0.18502899 -0.16371515
000070 b5 c6 a5 bd 4f f2 28 3e 50 4b 55 be 63 b8 eb be
       -0.08094541 0.16498683 -0.2082951 -0.46039113
000080 99 78 02 3e cd 0a 72 be 27 df a6 3d 6f 05 29 3e
       0.12741317 -0.23636933 0.08148032 0.16505979
000090 dc f9 52 3b 90 6b 11 3d 54 e8 18 bd b6 1f 88 3e
       0.0032192385 0.03550297 -0.03733094 0.26586694
0000a0 73 fc 7c 3d f0 de 81 be 78 c2 7c bd 44 41 44 be
       0.06176419 -0.253654 -0.061708897 -0.19165522
0000b0 a5 93 25 3e b0 02 2f be d2 a1 03 3c a2 9c bc 3d
       0.16169603 -0.17090869 0.008034186 0.09209563
0000c0 18 03 8f 3e 4d 60 5b be 1c 73 a3 bd a1 20 5a be
       0.27932048 -0.21423455 -0.0798094 -0.2130151
0000d0 01 dc 0e 3d c1 4f a0 bd e8 d9 59 3d 0d 3f 3d bc
       0.03487778 -0.07827712 0.053186327 -0.011550677
0000e0 f5 bc 9c bd 27 ea 26 3f 2b 35 83 be 81 64 92 bc
       -0.07653228 0.6520104 -0.256265 -0.01787019
0000f0 43 ba 16 bf 1a a2 fc bd 60 f6 2d be 94 6a 6d 3d
       -0.5887796 -0.12335606 -0.16988516 0.05796297
000100 c1 63 f6 3d d5 4a b6 bd 16 4f 08 3d db 29 c3 bb
       0.12030745 -0.08900992 0.033278547 -0.0059559173
000110 a8 79 3e 3e 4d 20 23 be 13 c3 2a 3e 28 ae 0f 3e
       0.18601096 -0.1593029 0.16675977 0.14031279
000120 b2 42 d3 be 0e f0 1d 3d e2 7e 3b be 2b 66 99 3c
       -0.41261822 0.038559012 -0.1831012 0.018725475
000130 8e d7 31 3e 74 a6 84 3d 81 69 14 be ca a6 ec bd
       0.17367384 0.06477061 -0.14493372 -0.1155525
000140 24 70 c6 bd bc c7 91 3d 80 cc 87 be 53 b7 76 be
       -0.09689358 0.071181744 -0.2652321 -0.2409337
000150 fc d8 36 be 5b 67 46 3e d1 e6 66 3d 19 b2 0b 3e
       -0.1785621 0.19375364 0.056372467 0.13642158
000160 22 d0 bf 3a cc bf b3 be c8 00 7b 3e 08 e6 02 3f
       0.0014634172 -0.35107267 0.24512017 0.5113225
000170 b5 b1 9d 3e 8c c2 f2 3e 03 5c a5 be cc d6 78 be
       0.30799642 0.47414052 -0.32296762 -0.24300689
000180 4a 0b 7f be 25 0f 01 3f 54 c5 71 3e ae cc 97 3e
       -0.2490665 0.50413734 0.23610431 0.29648346
000190 cd 07 2e 3d 3e 8a c7 3e 0c e9 07 bd 50 85 8f be
       0.04248791 0.38972658 -0.033181235 -0.28031397
0001a0 91 21 9d 3c 91 5a 0c be 5b ac 4b 3e 1a d1 73 3d
       0.019181045 -0.13706423 0.19889967 0.059525587
0001b0 53 cd 87 3d c7 07 60 3e 8c 5f 39 bd ba dd 58 3e
       0.06630959 0.21877967 -0.045257136 0.21178332
0001c0 39 82 a4 3d 6d ee 2d be 30 0f 7a 3d aa ed b2 3e
       0.080326505 -0.16985483 0.06104964 0.34946948
0001d0 b3 6d 58 3c 49 22 2c 3b ad d0 9c be 98 80 37 3d
       0.013209748 0.0026265553 -0.30627957 0.04480037
0001e0 b7 4d 6a be 36 9c 89 3e bd d6 99 bd a9 4d d1 bd
       -0.22881208 0.26876992 -0.07511661 -0.102198906
0001f0 25 5b 62 be a4 a2 40 3e 8d a9 e0 3e 1b 7f 68 3d
       -0.22105081 0.18812042 0.43879357 0.056761842
000200 c2 99 09 3d bd 93 92 bd f1 c4 15 3c 36 69 cc 3c
       0.0335939 -0.07157085 0.009141193 0.024952512
000210 75 e8 a7 bb c4 2c 27 3e 38 38 94 bd 11 a7 4d bd
       -0.0051241466 0.1632567 -0.072372854 -0.050208155
000220 dd 19 1b 3e b3 65 0e be a1 ff ca 3b 88 42 8f 3d
       0.15146585 -0.13905983 0.006195024 0.06995112
000230 15 8d ea bb 40 7b 04 3e 7a ba 60 be 30 af 18 be
       -0.0071579316 0.12937641 -0.21946135 -0.14910579
000240 92 cb 9d 3d c7 97 3c be e0 68 a9 3b 84 36 2a bd
       0.077048436 -0.18417273 0.005169973 -0.041555896
000250 4c bb 80 be d2 2b 58 bb 2f 6f 8f 3d 52 4c 45 bd
       -0.25142896 -0.0032985103 0.070036285 -0.048168488
000260 0e 98 61 be 66 1c b0 3d 0f 85 1a 3e ba e9 12 3e
       -0.2203066 0.085991666 0.1508982 0.14346972
000270 01 26 d0 3d e0 50 64 bd 5d f2 16 3d 5b a4 5e 3e
       0.10163499 -0.05574119 0.03685223 0.21742384
000280 49 5a 02 3d 4f f3 2e bd 7e 92 c1 3d 66 1c cc 3c
       0.031824384 -0.042712506 0.09451769 0.024915885
000290 66 91 41 3d 3a 7d f6 bd 7c ee e8 bd 9d 64 de bc
       0.047257803 -0.12035604 -0.11373612 -0.027147586
0002a0 85 2e 23 be 18 fd 00 be 93 ed f1 3d 43 89 80 bc
       -0.15935715 -0.12596548 0.11812892 -0.015690451
0002b0 c7 17 97 bd 8c 69 13 3d a5 57 5d bd 72 45 26 bd
       -0.07377582 0.03598933 -0.054038662 -0.040593572
0002c0 d3 84 fe bb 9e 8e 85 bc 6b df d7 3d 7f ec 05 be
       -0.0077672987 -0.016303357 0.105406605 -0.13078497
0002d0 ab d4 04 bd a4 4e 66 3d f7 96 4a 3d e2 73 38 3e
       -0.03242938 0.05622734 0.049460378 0.18012956
0002e0 b3 78 a4 bd ed 52 e8 bc d8 9d d2 bd 77 6d 2b 3e
       -0.08030834 -0.028359855 -0.102840126 0.16740976
0002f0 1a f1 7c 3e 3a 02 e5 3d fe 28 80 3b f6 1b c8 3d
       0.24701348 0.11182065 0.0039111366 0.09770958
000300 36 54 85 3e 9f 33 30 be 5c 00 35 bd 3d a7 b2 be
       0.2604081 -0.17207192 -0.044189796 -0.34893218
000310 de d8 32 3c f7 e9 97 3d 25 7e c8 be 05 7a 39 3e
       0.010915963 0.07417672 -0.3915874 0.18112953
000320 74 df 9d be de 88 98 be d3 df 1b bd 5e f5 be 3e
       -0.30834544 -0.2979192 -0.038055252 0.37296575
000330 cf 96 e1 3d b4 37 ca 3d 1a e5 96 be 7d 41 96 3e
       0.110150926 0.09873906 -0.29471666 0.2934684
000340 38 c5 94 bc 07 4b c9 3e a0 2a 8b be 73 fb 33 3e
       -0.018160447 0.39315054 -0.27180958 0.17576389
000350 0a 42 5c be 1c 71 97 3c 34 31 36 3e f1 a2 09 bf
       -0.21509567 0.018486552 0.17792207 -0.53764254
000360 fc 7e 92 3d 92 4d 86 be 85 6c 56 3e 37 2d 45 3e
       0.071531266 -0.26231056 0.20939834 0.1925553
000370 b1 98 4d be fd 6a 66 3e e0 2e cd 3d d2 87 74 be
       -0.20077778 0.2250175 0.10018706 -0.23879936
000380 c0 fa 35 be 96 47 02 3e 90 c8 af 3e 25 a7 62 3e
       -0.17771435 0.1272262 0.34332705 0.22134073
000390 5c b9 00 3e 46 5e 2e bd 96 42 56 be 07 45 04 be
       0.12570709 -0.042570375 -0.20923838 -0.12916957
0003a0 b0 98 cb bd b2 8c 79 3d 17 27 86 bd 50 0b 07 3d
       -0.09941232 0.060925193 -0.065504245 0.032969773
0003b0 45 93 85 3e ca 9c a0 bb c0 b9 80 bd 55 4f c6 bd
       0.2608892 -0.004901503 -0.06285429 -0.096831
0003c0 de cc ac bc b0 06 86 be 67 1a 53 3d cb 97 af 3e
       -0.021093782 -0.26176977 0.05153885 0.34295496
0003d0 69 14 92 3d 33 c0 e8 3d e7 d6 4d be 76 47 41 3e
       0.07132799 0.11364784 -0.2010151 0.18874916
0003e0 db d5 40 bd 94 42 e1 3d 54 be f6 3d cb 06 73 3e
       -0.04707895 0.10999027 0.12048021 0.2373306
0003f0 de 87 fe be d6 8a 44 be b6 9c 69 3e ce c3 aa be
       -0.49713033 -0.19193587 0.22813687 -0.33352512

gcn.convs.1.bias f4 [64]
000000 40 e0 f2 3e b4 93 99 3e cf da 1f bf 62 c5 da 3e
       0.47436714 0.299955 -0.6244325 0.42728716
000010 5f f8 ba be ff 01 98 bf 70 1b a6 bf 90 f3 e3 be
       -0.36517617 -1.1875609 -1.2977123 -0.4452176
000020 83 1a 89 3e 06 1f 36 bf 67 b7 a6 3e cc 0d 02 3f
       0.2677804 -0.7114109 0.325618 0.508023
000030 c3 de 32 be bc 0d a6 bf e5 87 d0 3e 8f f0 0a 3f
       -0.1746779 -1.2972941 0.4072868 0.54273313
000040 8e dc 01 3f b9 e9 4e bf 49 94 4e bf 12 84 63 3e
       0.50727165 -0.8082538 -0.80695015 0.2221835
000050 49 58 19 bf 94 6a 5e bf 3f 31 e6 3e 52 ed f1 be
       -0.5990034 -0.86881375 0.44959447 -0.47251374
000060 fa e6 f0 3e d4 9d 6e bf d0 76 4d bf 21 3f 8a bf
       0.4705122 -0.93209577 -0.8025942 -1.0800515
000070 ed 9f ae bf e7 b2 91 bf cb 22 47 bf 7e 38 6c bf
       -1.3642555 -1.1382722 -0.77787465 -0.922737
000080 54 c8 98 bf b8 64 87 bf 7f b1 0d 3f 2e a4 14 3e
       -1.1936135 -1.0577612 0.5534896 0.14515755
000090 d3 50 28 bf 22 73 35 bf 6a d3 24 bf 6a ae 1f bf
       -0.6574833 -0.70878804 -0.6438509 -0.6237551
0000a0 8d 75 06 bf 6b 84 22 bf 01 0b 1b be 8f 0c 08 bf
       -0.5252312 -0.63483304 -0.15140916 -0.5314416
0000b0 81 31 35 bf 14 d2 09 3f 30 d0 5e 3e 62 55 b0 3e
       -0.7077866 0.5383618 0.21759105 0.34440142
0000c0 76 f0 a5 bf f0 81 06 3f 85 2f a3 bf cc 85 2c bf
       -1.2964008 0.5254202 -1.2748877 -0.6739166
0000d0 63 89 39 3e b7 e6 84 bf cd 3d 7e bf c3 d0 ee be
       0.18118815 -1.0382909 -0.9931305 -0.46643648
0000e0 21 5e e5 3e ca a8 18 bf 0f 23 17 bf f9 5a ed 3d
       0.44798377 -0.5963255 -0.5903787 0.11589617
0000f0 f0 f0 59 3e 13 c2 04 3f 23 a7 f6 3e a1 0b 12 3e
       0.21283317 0.51858634 0.4817439 0.14262249

gcn.convs.1.lin.weight f4 [64, 64]
000000 81 77 85 be c4 af 4a be ec 55 c8 3b d6 4c 45 be
       -0.26067737 -0.19793612 0.0061137583 -0.19267592
000010 8c bd 97 be ca 5f 75 3d b6 81 75 be ab d0 95 be
       -0.296368 0.059905805 -0.23975262 -0.29260764
000020 19 51 89 be b2 46 1a 3d 70 05 31 be a4 b0 97 be
       -0.26819685 0.037665077 -0.1728723 -0.29626954
000030 9c f9 50 be 91 c3 8f be a9 90 08 bf c4 b3 f0 be
       -0.20407718 -0.28078893 -0.53345734 -0.4701215
000040 37 fa c4 be 77 54 f9 be d3 1d 5b be 09 c2 6d be
       -0.3847215 -0.48697254 -0.21398096 -0.2321855
000050 81 ba 4b be ad 44 8c be b6 96 47 3d c8 d7 a1 be
       -0.19895364 -0.27396145 0.048727714 -0.3160994
000060 f7 3f d1 be f9 51 9d bb ba 5b ac be e3 35 26 be
       -0.40869114 -0.0048010317 -0.33663732 -0.16231494
000070 8c b0 93 be 21 71 5a be 6f 99 af be 5a 8d e8 be
       -0.28845632 -0.21332218 -0.34296748 -0.45420343
000080 0d 02 b1 be 23 0d bd 3d ae bd 2e be dd 1c ad be
       -0.34571877 0.09231021 -0.17064545 -0.33811083
000090 bc b9 af be ff 70 b7 be f9 a6 8d 3d 8f e9 38 be
       -0.34321392 -0.35828397 0.06916613 -0.18057846
0000a0 fe 85 5b be 01 91 69 3d 7c 1f 99 be e3 54 97 be
       -0.21437833 0.057023052 -0.29906833 -0.2955695
0000b0 8e cd 3d be 9f 67 73 be 92 bf 56 be b6 13 26 be
       -0.18535444 -0.23769997 -0.20971516 -0.16218457
0000c0 c9 37 00 3e 03 4d d5 be 1b 60 a5 be 2e 30 44 be
       0.1252128 -0.41660318 -0.32299885 -0.19159004
0000d0 13 de 5d be 48 98 8b be f5 c1 56 3d 8d 1a 4e be
       -0.21666746 -0.2726462 0.052431066 -0.20127316
0000e0 d9 b6 8a be 89 d1 31 be fc 8e ac be c9 04 d2 be
       -0.27092627 -0.17365088 -0.33702838 -0.41019276
0000f0 4f a2 bd be 40 60 8a be b4 7c 9c be 0f 6a de 3c
       -0.37037894 -0.27026558 -0.3056389 0.027150182
000100 1d c0 45 be 29 d2 c5 be 4f 91 86 bc 40 37 be be
       -0.19311567 -0.38636902 -0.01642671 -0.37151527
000110 4c 64 4d be 78 9b e0 3d 2b ba a8 be 7a 8b 8e be
       -0.20057791 0.10967153 -0.32954535 -0.27840787
000120 47 cc 7c be e5 e6 ea 3c 6a 7f bd be b6 ea 62 be
       -0.246873 0.028674552 -0.37011272 -0.22159848
000130 7a 93 d8 be 90 3e 22 be b6 19 ce be f3 ad 24 be
       -0.42300016 -0.15844178 -0.4025399 -0.16081981
000140 93 09 99 be f8 b4 38 be 83 f4 85 be d8 0e a6 be
       -0.29890117 -0.18037784 -0.2616311 -0.324332
000150 e9 50 7c be a7 bb dc be 2e 38 0b 3e 74 ae 0b be
       -0.2464024 -0.43111917 0.1359565 -0.13640767
000160 de f8 c9 be d7 52 d5 3d cb 53 9d be d8 2c 4a be
       -0.39447683 0.10416191 -0.3072799 -0.19743669
000170 e5 6f d9 be fa 8b bc be 4f 21 0a bf 34 59 dd be
       -0.4246818 -0.36825544 -0.53957075 -0.4323212
000180 de 37 a8 be 3e b5 28 3d 20 54 c1 be f4 73 85 be
       -0.32855123 0.04118847 -0.37759495 -0.26065028
000190 69 97 69 be c7 9b f1 be 6e 5b 97 3d e6 08 c6 bd
       -0.22811665 -0.4718916 0.07390486 -0.09669666
0001a0 63 96 11 bf bf 2a 82 3d 1c 4a fb be 3e 7d ac be
       -0.56870097 0.063558094 -0.49079978 -0.33689302
0001b0 ef a5 87 be e6 50 b0 be 43 3c 5a be ee 1d 9c be
       -0.26493785 -0.3443672 -0.2131205 -0.30491585
0001c0 08 36 ad bb 79 33 6c be 9c 18 1a bf 82 8c b8 be
       -0.005285982 -0.2306651 -0.601938 -0.360447
0001d0 00 15 26 be ef f8 df be e0 3d b5 3c 85 a4 c7 be
       -0.16218948 -0.4374461 0.02212423 -0.38992706
0001e0 f9 ce 0e bf e5 8b d5 be 20 72 f2 be c8 1c 11 bf
       -0.55784565 -0.41708294 -0.47352695 -0.5668454
0001f0 88 10 0d bf 79 37 e5 be a5 d1 b3 be b6 e4 c0 3d
       -0.5510335 -0.44768885 -0.35120884 0.09418623
000200 f7 1e 4a 3e fb f2 9d 3e 77 cd 94 bd fa 76 27 3e
       0.19738375 0.30849442 -0.07265752 0.1635398
000210 39 0f d7 3d 5f 59 18 bd 29 dd 16 3e 83 82 7b 3e
       0.1050095 -0.037194606 0.14732803 0.24561505
000220 ff 83 23 3e 6a b5 41 bd 8e 1c 1b 3e 6d 0f 88 3e
       0.15968321 -0.04729215 0.15147611 0.2657427
000230 6c 9a ce 3d 62 c3 83 3e 68 bb d3 3e df 5a 63 3e
       0.100880474 0.25735003 0.41353917 0.22202633
000240 4a 62 3e 3e b5 ee 56 3e 5c 33 a2 3e 12 f0 5b 3e
       0.18592182 0.20989497 0.3167981 0.21478298
000250 3f 69 f9 3c 4b fb 64 3e e8 7b b7 3d 57 85 f0 3d
       0.030445693 0.22361486 0.0895918 0.117441826
000260 f4 6a 82 3e c8 a2 93 bc cc d1 85 3e f5 cb 81 3e
       0.25472224 -0.018021956 0.26136625 0.2535092
000270 3a 1a 7a 3e 0b 37 99 3e 39 28 c6 3e 31 b4 98 3d
       0.24424067 0.29924807 0.38702562 0.07456244
000280 9e d5 96 3e 7f b0 62 bc fc 2e b8 3e 6f 6e 8e 3e
       0.29459852 -0.013836025 0.35973346 0.2781863
000290 ad 8a b9 3e a7 55 b7 3e d2 68 6c bd 1a d0 1b 3e
       0.36238614 0.35807535 -0.057717152 0.15216103
0002a0 42 6c 14 3e 87 a0 55 bd d7 c1 7d 3e 0c 60 49 3e
       0.14494422 -0.052155044 0.24780975 0.19665545
0002b0 a7 3f 25 3e 6c 18 22 3d 40 67 9a 3e cb c4 54 3e
       0.16137563 0.03957407 0.30156898 0.20778196
0002c0 09 63 d6 3d 6a bd b1 3e 9d fc 80 3e 54 62 a6 3e
       0.10468108 0.34714824 0.2519273 0.32496893
0002d0 07 b9 6f 3e df f2 1f 3e a8 dc 00 3c 98 89 3f 3e
       0.23410426 0.15619992 0.007865109 0.18704832
0002e0 7b 9c da 3d 00 95 cf 3d f8 8f 33 3e a2 90 58 3e
       0.106743775 0.10135841 0.17535388 0.21148923
0002f0 d2 9d 3d 3d e4 b9 92 3e 93 40 19 3e 68 36 10 bb
       0.046293087 0.28657448 0.1496604 -0.0022005085
000300 70 78 90 be fb 01 36 be 62 a7 d9 3d f3 ae b8 be
       -0.28216887 -0.17774193 0.10627629 -0.36070976
000310 ca 68 90 be 5d 00 19 3c 18 d3 15 be c7 ec a7 be
       -0.28204948 0.0093384655 -0.14631307 -0.32797834
000320 ad 5a 4b be f2 b5 27 3d ac 4d ee be d3 8e 57 be
       -0.19858809 0.040945 -0.46543634 -0.21050577
000330 34 a9 fc bd 7e 95 9e be ff 15 ac be 7c 36 ca be
       -0.123369604 -0.30973428 -0.33610532 -0.39494693
000340 95 61 3d be e0 4e 7b be 78 b5 0f be 57 2c a8 be
       -0.18494256 -0.24541807 -0.14034069 -0.3284633
000350 ce a6 40 be 69 f2 b0 be f0 ae 3b be 7f 06 1f be
       -0.18813631 -0.34559944 -0.18328452 -0.15529822
000360 6c d5 2b be e9 f1 0d 3d 70 58 63 be 07 f9 cb be
       -0.16780633 0.03465453 -0.22201705 -0.3983843
000370 dd eb 5a be 80 50 73 be 80 75 be be 9d 44 ed bd
       -0.21379037 -0.23761177 -0.3719902 -0.115853526
000380 ff 27 7a be 1f 91 38 ba 60 94 73 be 94 28 d9 be
       -0.2442932 -0.00070406677 -0.2378707 -0.4241377
000390 fd f3 bf be c9 fb 92 be 56 dd d8 3d ce 04 61 be
       -0.37490836 -0.28707722 0.105890915 -0.21974489
0003a0 86 97 74 be 71 e1 1a bd a0 ce 8f be 56 d0 9a be
       -0.23885927 -0.037812654 -0.2808733 -0.30237073
0003b0 e9 25 2b bd 91 53 70 be 58 35 9e be 72 4f d1 be
       -0.0417842 -0.23469378 -0.30900073 -0.40880924
0003c0 ce 6d a4 bc b6 06 c3 be 3f df 80 be c6 d1 c5 be
       -0.02007189 -0.38091058 -0.25170323 -0.38636607
0003d0 65 d0 9a be ef 50 5d be 25 a4 66 3d 38 89 58 be
       -0.30237117 -0.21612905 0.056308884 -0.21146095
0003e0 46 2d 52 be 80 19 59 be 18 4d 24 be 12 75 33 be
       -0.20525083 -0.21201134 -0.16045034 -0.17525128
0003f0 a4 b7 29 be d4 2f 92 be 5f fb 68 be 52 7e 0b 3d
       -0.1657396 -0.28552115 -0.2275214 0.034056015

gcn.convs.2.bias f4 [64]
000000 56 3c 4c 3b 4c 8d c4 bc eb 35 69 3c a2 a5 4e bb
       0.0031163893 -0.023993157 0.014234046 -0.003153183
000010 e3 44 aa 3c 71 c5 6a 3d 9e 9d f1 bc 54 d2 67 3e
       0.0207848 0.0573172 -0.029494103 0.22638828
000020 05 19 a9 3c 6e 8a bb bd df 8b 02 3d 03 06 b4 3d
       0.020641813 -0.09157263 0.031871673 0.08790209
000030 9a 73 82 bc 9f 9b 81 bd 8e f5 42 bd 08 a4 53 bc
       -0.015924264 -0.063285105 -0.04759746 -0.012917526
000040 a9 90 97 3d e2 76 b1 bd 9f de 1b 3d 35 3b 06 3c
       0.074006386 -0.08665253 0.038054105 0.008192827
000050 59 4e ff bc bd ac 61 bc 7c 88 a4 bd 4e 62 91 bc
       -0.031165289 -0.013774094 -0.08033845 -0.01774707
000060 8f 22 4e 3d 27 27 eb bd 9f 69 00 bc 68 55 8c bd
       0.050325926 -0.11482077 -0.007837682 -0.068522274
000070 48 9c 10 bd d0 11 af bc 18 b2 a2 3b c7 d0 1d 3e
       -0.03530529 -0.021370798 0.004965078 0.15411673
000080 eb 94 2b 3d 13 45 10 3d 47 57 18 3d 1e b5 e9 3e
       0.041890066 0.035222124 0.03719261 0.45645994
000090 3c e2 29 bd fa 2c a3 3e 6b c8 7a bd 3a 18 0a be
       -0.04147552 0.31870252 -0.06122629 -0.13485804
0000a0 05 24 c1 3c 97 45 f8 bb 8e 30 72 bc d9 78 b5 3d
       0.023576746 -0.007576655 -0.014782084 0.088609405
0000b0 ab f7 01 bd b8 d7 56 bb 80 0c d7 3e fa 9b 51 3d
       -0.031730335 -0.0032782387 0.42001724 0.05117414
0000c0 70 42 53 bc 25 ae 38 bd 1e 9d 0b 3d 76 83 1f ba
       -0.012894258 -0.045087952 0.034085386 -0.0006084958
0000d0 47 3f 9e bc 94 0b bc 3c 6e ae a0 3c 53 b6 bf 3d
       -0.019317282 0.02295474 0.019614425 0.093609475
0000e0 13 9d ed bd 01 2c 3e bb aa 9f 00 3d be d8 e5 3c
       -0.11602225 -0.0029017928 0.031402268 0.028057452
0000f0 37 52 1a bd c6 40 21 bd 82 91 d6 3d 3a 4c b9 bd
       -0.037676062 -0.039368413 0.10476972 -0.09047742

gcn.convs.2.lin.weight f4 [64, 64]
000000 35 7b 7b 3e e6 a4 61 3e 02 42 9b bd cf c7 e9 3d
       0.24558719 0.2203556 -0.07580949 0.114150636
000010 3c a6 8e bd 5e 3e 91 be cd 99 90 be 60 50 2b be
       -0.069653004 -0.28367895 -0.2824234 -0.1672988
000020 3e 33 29 3e c8 ce 23 be 71 71 74 3e 0f 93 49 3e
       0.16523454 -0.1599685 0.238714 0.19685005
000030 f2 4b 87 bd 12 9c e1 be 2e 30 3a 3d e6 ac 13 3e
       -0.06606282 -0.44064385 0.045456104 0.14421424
000040 a9 14 9d 3c 51 5d dd bd e3 bb 02 bd 3d 22 2f 3e
       0.01917489 -0.10808814 -0.031917464 0.17102905
000050 0c 59 28 be 32 c5 59 3b a9 0d 1a 3e 05 2e 57 3c
       -0.16440219 0.003322911 0.15044273 0.0131335305
000060 00 8e 4c 3e 4d 3a e8 bd e3 93 dc bd df c5 88 be
       0.19976044 -0.11339245 -0.10770395 -0.26713464
000070 1f a7 73 be cf 50 b6 be 1a 66 1e be 94 ae 14 be
       -0.2379422 -0.35608527 -0.15468636 -0.14519721
000080 18 b9 ad be c5 f4 b8 be bf d6 a1 3d e4 92 12 3e
       -0.33930278 -0.36124244 0.07902288 0.14313847
000090 b8 14 8d 3c 4a 0c 89 bd c7 3d 61 3c 68 ff ab bd
       0.017221794 -0.06691797 0.013747639 -0.08398324
0000a0 f3 f1 64 bd 99 91 0a be d9 26 f8 3d c3 82 01 be
       -0.055894803 -0.13532104 0.121167846 -0.12647538
0000b0 65 99 2a be 31 38 d3 3d ba 8c fb bb 4d 80 47 3e
       -0.16660078 0.10313452 -0.007676688 0.19482537
0000c0 75 80 56 be 1d ed e1 3d 11 ad af be a7 12 a8 3d
       -0.2094744 0.11031554 -0.34311727 0.08206683
0000d0 1a 8e 5c 3e 60 07 df bd fc cd 00 be e5 75 05 be
       0.21538582 -0.108900785 -0.12578577 -0.13033254
0000e0 04 89 0f 3e 71 3c 21 3c cd 57 47 3d 08 af 77 3e
       0.14017111 0.0098410705 0.048667718 0.24187863
0000f0 40 08 98 3d c2 6a 22 3e d6 c1 55 3e ff 3c 3b 3e
       0.074234486 0.15861037 0.20874724 0.18284987
000100 96 db 88 3c 25 b7 25 3c d2 ca d5 3c b1 4c 6e 3d
       0.01670627 0.010114466 0.026097689 0.058178607
000110 9b 43 cd 3d d4 1d 40 3d 4c 39 50 3e 14 7e 44 3d
       0.1002266 0.046903446 0.20334357 0.0479718
000120 cf ef 14 3e 43 00 05 be a0 42 2d be 25 3b 5a 3c
       0.14544605 -0.12988381 -0.16919947 0.013319765
000130 3e c4 08 3e e0 55 eb 3d c5 13 84 ba 2f 15 6a 3d
       0.1335611 0.11490989 -0.0010076693 0.05714911
000140 fa 8c e3 3d 4d 72 60 bc 50 d0 08 be d9 8b 82 3d
       0.111108735 -0.013699126 -0.13360715 0.0637433
000150 ec 8a 97 3c 21 d3 11 bd bf a0 46 bd 25 93 85 3c
       0.01849886 -0.03560174 -0.048493143 0.016305516
000160 06 a7 77 bd bd 3f 51 3d fc f6 6c 3d cd 1d 70 bb
       -0.06046202 0.051086176 0.05785273 -0.0036638856
000170 74 7a d9 3c 99 00 6f 3c c8 bb 8e bd 4d b1 19 3d
       0.026547648 0.014587545 -0.0696941 0.037522603
000180 c9 87 85 3d 30 d9 58 be 83 8d 0e 3c 27 8b 3b bd
       0.065200396 -0.211766 0.008700731 -0.045787003
000190 ca fd a9 3d e1 fb 4a 3a 62 d0 c4 3d 38 f8 03 3d
       0.083003595 0.00077432214 0.09610058 0.03221914
0001a0 67 c6 08 3c d5 cf 59 bc fe d4 95 bd b1 3e 69 bc
       0.008348084 -0.01329418 -0.07316016 -0.014236138
0001b0 84 0b ed bc c2 ea f2 bb 87 cf 93 3d 6e 1f ff bd
       -0.028936155 -0.007413239 0.07217317 -0.124571666
0001c0 e8 28 3b 3e 0a a0 1b 3d bb 0b 29 bd cf 9a d5 3b
       0.18277323 0.037994422 -0.041270953 0.0065186988
0001d0 26 b0 b5 bd e8 12 fc bd db be 1c 3a 35 75 95 bc
       -0.08871488 -0.123082936 0.00059793674 -0.018244365
0001e0 a0 db b2 3c 6b 9a 76 3c e9 21 ba 3c 56 b8 99 bd
       0.021833241 0.015051465 0.022721248 -0.075058624
0001f0 a9 78 20 be 6c 6a 38 be 04 a6 b3 bd f5 b1 13 be
       -0.15671028 -0.18009347 -0.08771899 -0.14423354
000200 2e a5 43 bd 04 23 af bd 77 f9 89 bd ec 2f e7 bc
       -0.04776495 -0.085516006 -0.06737035 -0.028221093
000210 08 b1 81 bd 99 ae dc bd f3 d1 cf 3e 9e 30 96 bd
       -0.06332594 -0.10775489 0.40589866 -0.07333492
000220 95 2c e5 3d f2 4d c2 3d ad 8a 12 3e 9f 49 04 3e
       0.11190144 0.09487523 0.14310713 0.12918709
000230 29 2f 95 bd 85 01 49 3e 7a 82 fe bd 9a 01 76 3d
       -0.07284386 0.19629486 -0.1242723 0.06006012
000240 10 9a 92 bd 6e ef b4 bd 9f f9 ed bc 93 31 2c 3e
       -0.07158291 -0.0883473 -0.029049693 0.16815786
000250 54 e2 3a 3d f8 77 d1 bd c0 10 c8 bd 95 8d d6 3d
       0.045626 -0.1022796 -0.0976882 0.104762234
000260 34 51 ae bd 2a f3 fa bd bd 4f 8c 3d 91 d1 31 3c
       -0.08511582 -0.12253411 0.06851146 0.010853187
000270 13 c6 91 3d d5 d7 03 3e 5a 53 de bc ff 0f c7 bd
       0.07117858 0.12875302 -0.027139354 -0.09719848
000280 9b 49 9d 3d 82 f9 86 be ce 4e 7d 3d d1 e6 f1 3e
       0.07680055 -0.26362234 0.061842732 0.4724641
000290 31 90 5b 3c e1 cd cc bd be 3a 60 bc c7 2a 86 3d
       0.013401077 -0.10000206 -0.01368588 0.06551128
0002a0 f6 f0 0b bc 23 ef 4d be 37 d7 c1 bd 2f 1c 2f bd
       -0.008541336 -0.20110755 -0.09464877 -0.042751487
0002b0 2a e1 7a bd 4c 9f 41 be cf 3f ca bc fc f3 2f 3e
       -0.06124989 -0.18908423 -0.02468863 0.17182916
0002c0 de 66 3a 3e f2 9c 7b 3d 9a 18 fd bc 2a 53 d1 bd
       0.18203303 0.06142897 -0.03089552 -0.102209404
0002d0 d3 c3 76 3e 14 d6 c4 b9 b7 b7 f1 bc ee ad fa bd
       0.24098139 -0.00037543534 -0.029506547 -0.12240206
0002e0 fc cc f4 bd db b1 16 bd c9 fa 0c 3e e7 37 f4 3e
       -0.1195316 -0.03679071 0.13767542 0.476989
0002f0 38 80 86 3e af ab e8 3a 1a c2 58 3d 01 ac a0 3e
       0.26269698 0.0017751361 0.052919485 0.3138123
000300 33 c9 47 3d db 94 38 bd 04 dc fa 3d 61 f9 30 bc
       0.048775863 -0.045063835 0.12248996 -0.010801644
000310 e2 05 30 3d 79 87 ae 3b db 68 8e 3d 4f 4c d4 bd
       0.04297436 0.005326208 0.06953593 -0.10366117
000320 eb d1 8a bb 0c d0 9d bb ff 3c e8 3d f8 e5 f1 3d
       -0.00423645 -0.004816061 0.11339759 0.11811441
000330 58 0b ea bc 41 90 70 be 12 e7 2f 3b c9 8c 9c bd
       -0.028569862 -0.23492528 0.002684061 -0.0764404
000340 cb d2 7a 3d 87 36 88 3c 0c ba 7c be 58 47 e3 3d
       0.061236184 0.016627563 -0.24680346 0.11097592
000350 e4 00 3a bd f0 27 1c be c4 24 84 bd 84 66 13 be
       -0.045411006 -0.1524961 -0.06452325 -0.14394575
000360 27 10 75 3d eb 02 29 bd 76 8c 87 3d 2d 9e 0e be
       0.059829857 -0.04126255 0.06618588 -0.13927527
000370 4e 8c 90 be fe ad aa bd ba ad ed 3d fc c9 cf bd
       -0.28232044 -0.083339676 0.11605401 -0.10145947
000380 38 5f 5e be f1 fb 33 be 97 83 c2 bd f4 7e 87 3e
       -0.2171601 -0.17576577 -0.09497755 0.26464045
000390 60 22 e9 3d 88 87 9f 3d 82 3f 99 3d 7c 79 fa 3d
       0.1138351 0.077895224 0.07482816 0.122302026
0003a0 a6 a8 26 3d c4 4b f0 3d 57 16 2f 3c 07 68 e1 bc
       0.04068818 0.11733201 0.010686479 -0.027515424
0003b0 54 0c 4c bd d1 80 57 bc 69 6f b9 3d 70 a4 90 3c
       -0.049816445 -0.013153271 0.09054453 0.017656535
0003c0 5e ff 58 bd 3b 2e 3c bd d1 63 ea bd 13 8e 3f 3c
       -0.052977912 -0.045942526 -0.1144482 0.011691588
0003d0 b1 40 26 3e 8a c2 8f bc e7 78 48 bd b4 b1 42 bd
       0.16235615 -0.017548818 -0.048943426 -0.047532752
0003e0 c5 72 0e bd b2 4c 17 ba a9 40 b3 3d 0b ee 8b 3e
       -0.03477742 -0.00057716214 0.08752567 0.2733005
0003f0 d6 44 15 3e 9f 27 97 bd de 39 b5 bc a9 5d 28 3e
       0.1457704 -0.07380604 -0.02212232 0.16441979

edge_feature_mlp.0.weight f4 [64, 5]
000000 6e 74 07 00 12 1d 0a 80 9d b5 0c 80 a9 f8 0b 80
       6.84616e-40 -9.28783e-40 -1.167177e-39 -1.099393e-39
000010 bb dd 03 80 09 08 03 00 f2 5d 01 80 54 f3 0d 80
       -3.55048e-40 2.78389e-40 -1.25537e-40 -1.281151e-39
000020 34 0b 04 80 58 20 02 00 a8 21 0d 00 ea 8c 00 80
       -3.71361e-40 1.95274e-40 1.205935e-39 -5.055e-41
000030 cd b5 01 00 88 1c 01 80 ba 0f 10 00 67 19 12 00
       1.57053e-40 -1.0207e-40 1.47501e-39 1.662152e-39
000040 87 1c 0b 80 33 32 0b 00 a1 c3 05 80 5c 8f 04 80
       -1.020424e-39 1.028199e-39 -5.29356e-40 -4.1877e-40
000050 32 f6 06 00 9d 0e 0e 00 0c cc 08 00 a5 19 0b 00
       6.39331e-40 1.290939e-39 8.07882e-40 1.01939e-39
000060 b0 92 03 00 c6 3d 06 80 71 0f 13 00 e8 b8 04 80
       3.28128e-40 -5.73173e-40 1.750414e-39 -4.33674e-40
000070 fd 2f 00 00 f7 a1 0f 00 fd 2d 09 80 00 05 0e 00
       1.7215e-41 1.435634e-39 -8.43017e-40 1.28749e-39
000080 c3 46 04 00 75 9d 06 00 fd f8 07 00 d1 96 0a 80
       3.92727e-40 6.07498e-40 7.32169e-40 -9.72458e-40
000090 68 e9 0c 80 51 f9 0b 00 5e 26 0f 80 ca b0 15 80
       -1.185756e-39 1.099628e-39 -1.391296e-39 -1.991965e-39
0000a0 01 c5 0b 00 e6 2a 07 00 e7 30 0b 00 0c 9f 03 00
       1.080862e-39 6.58238e-40 1.027733e-39 3.32562e-40
0000b0 b2 c3 03 00 f9 2b 10 00 f9 ef 0b 00 8d 4f 07 00
       3.45709e-40 1.485142e-39 1.096276e-39 6.71386e-40
0000c0 ca f9 05 00 b2 79 14 80 93 39 06 80 1e 3b 04 00
       5.48785e-40 -1.880366e-39 -5.71667e-40 3.88549e-40
0000d0 07 f1 0f 80 7e fd 02 00 b2 25 08 00 82 99 05 80
       -1.463997e-39 2.74607e-40 7.48206e-40 -5.14246e-40
0000e0 1a aa 0c 00 39 be 14 00 a8 b4 07 00 04 cb 0e 80
       1.163047e-39 1.904949e-39 7.07656e-40 -1.358525e-39
0000f0 47 77 08 00 0e e0 02 80 43 59 09 80 81 9e 01 00
       7.77473e-40 -2.64047e-40 -8.5854e-40 1.48696e-40
000100 c3 29 07 80 80 18 0b 80 91 1e 06 80 d7 d7 06 80
       -6.5783e-40 -1.01898e-39 -5.61978e-40 -6.28442e-40
000110 5a ad 08 00 4c e8 04 80 a0 a3 06 00 29 ef 14 80
       7.96871e-40 -4.50674e-40 6.0971e-40 -1.922504e-39
000120 cc 87 12 00 ae 84 05 00 98 d7 14 00 1d 96 0e 80
       1.701754e-39 5.06774e-40 1.91405e-39 -1.339547e-39
000130 62 9b 0c 80 be 32 01 80 82 f2 0b 80 c4 b3 02 00
       -1.157767e-39 -1.10038e-40 -1.097186e-39 2.48159e-40
000140 f2 bc 0b 80 dd c1 07 00 85 4a 12 00 c7 aa 05 80
       -1.077971e-39 7.12394e-40 1.679772e-39 -5.20441e-40
000150 05 bf 13 80 22 11 0c 80 f9 d3 0e 00 b9 1c 0b 00
       -1.8134e-39 -1.108172e-39 1.361738e-39 1.020494e-39
000160 d8 94 0d 80 e5 7d 01 00 cc 86 09 80 c6 88 11 00
       -1.247257e-39 1.36998e-40 -8.74875e-40 1.610268e-39
000170 a9 60 0b 80 61 92 0a 00 ef 9d 09 80 92 48 03 80
       -1.044866e-39 9.70866e-40 -8.83175e-40 -3.0154e-40
000180 f6 7e 0d 80 51 33 0c 80 78 9a 0b 80 12 68 0a 00
       -1.239406e-39 -1.120435e-39 -1.065603e-39 9.55688e-40
000190 15 bf 03 00 5c 68 08 00 a3 ba 02 80 ea 47 00 00
       3.44054e-40 7.72121e-40 -2.50624e-40 2.5798e-41
0001a0 4c b6 00 80 2a ea 0c 80 af b8 04 00 31 73 0e 80
       -6.5396e-41 -1.186028e-39 4.33594e-40 -1.32702e-39
0001b0 80 30 0b 80 7f ed 09 00 c7 18 07 00 e3 54 06 80
       -1.027589e-39 9.11717e-40 6.51737e-40 -5.81465e-40
0001c0 65 e0 08 00 07 06 04 00 ce 72 0b 00 90 17 07 80
       8.15182e-40 3.69504e-40 1.051375e-39 -6.51301e-40
0001d0 57 f0 0b 00 ae 55 09 00 a9 41 00 00 59 b5 09 00
       1.096408e-39 8.57256e-40 2.3554e-41 8.91575e-40
0001e0 cb 63 0a 80 b6 8e 09 80 2d de 0f 00 e9 4d 05 80
       -9.54154e-40 -8.77715e-40 1.457234e-39 -4.87126e-40
0001f0 e9 ac 0e 80 25 15 03 80 ae 71 06 00 d8 e1 07 00
       -1.347725e-39 -2.83092e-40 5.91794e-40 7.23866e-40
000200 2d 81 04 00 61 08 13 80 d8 2b 05 00 4f c0 13 00
       4.13682e-40 -1.74788e-39 4.74906e-40 1.813862e-39
000210 20 17 0c 80 4a 71 0a 80 1c f4 10 00 ff 68 0a 80
       -1.110322e-39 -9.58995e-40 1.556938e-39 -9.5602e-40
000220 b1 94 0c 80 ed e0 08 00 28 4b 06 00 d4 22 01 00
       -1.155366e-39 8.15372e-40 5.77974e-40 1.0433e-40
000230 c3 a7 10 00 f1 a9 0a 00 87 b8 01 80 38 c6 0d 80
       1.52955e-39 9.79318e-40 -1.58031e-40 -1.264969e-39
000240 62 81 0f 00 b1 02 0a 00 a0 7a 15 80 24 f5 09 00
       1.423946e-39 9.1932e-40 -1.972535e-39 9.1446e-40
000250 82 9f 08 00 de b8 0a 00 1e 64 13 00 46 c2 0e 80
       7.91905e-40 9.84673e-40 1.78079e-39 -1.355389e-39
000260 b1 7a 0b 80 ed f7 08 00 d8 a3 13 80 38 39 03 80
       -1.054204e-39 8.23623e-40 -1.80365e-39 -2.96033e-40
000270 31 cc 08 00 52 f1 09 80 74 36 0a 00 c3 b7 05 80
       8.07934e-40 -9.13089e-40 9.37889e-40 -5.25099e-40
000280 db ae 00 80 a1 3d 08 80 bb 82 02 00 dc dd 0c 80
       -6.2726e-41 -7.56792e-40 2.30568e-40 -1.181614e-39
000290 07 54 09 00 a7 20 01 80 ac 4f 0b 00 07 a2 05 80
       8.56663e-40 -1.03549e-40 1.038771e-39 -5.17302e-40
0002a0 b8 35 02 00 62 f0 0e 00 a4 4f 02 00 d7 aa 05 80
       2.02942e-40 1.37193e-39 2.1224e-40 -5.20463e-40
0002b0 04 ad 02 00 3b 4f 05 00 38 b9 09 00 eb c3 00 80
       2.45737e-40 4.876e-40 8.92963e-40 -7.0282e-41
0002c0 ca c7 10 00 d4 1d 03 00 db 7b 0e 00 8c 10 03 80
       1.541039e-39 2.86207e-40 1.330128e-39 -2.81442e-40
0002d0 54 07 02 80 a3 12 0d 80 69 82 11 80 52 04 08 80
       -1.863e-40 -1.200547e-39 -1.607986e-39 -7.36234e-40
0002e0 f6 0b 02 80 91 79 0a 80 99 3e 00 00 63 e9 0a 80
       -1.87962e-40 -9.61965e-40 2.2456e-41 -1.002078e-39
0002f0 58 2a 0d 00 11 0c 0c 00 54 a9 06 00 6e 82 08 80
       1.209052e-39 1.106355e-39 6.11756e-40 -7.81473e-40
000300 49 52 00 80 22 cb 04 00 fe 81 07 00 3d 6a 12 80
       -2.9518e-41 4.40212e-40 6.89481e-40 -1.69115e-39
000310 8c 66 08 00 32 6f 11 00 5e a2 01 00 d1 d1 05 80
       7.71471e-40 1.601093e-39 1.50082e-40 -5.34445e-40
000320 3c 19 0e 80 6a 89 0a 00 69 3f 0c 00 ca 49 0d 80
       -1.29475e-39 9.6765e-40 1.124773e-39 -1.220332e-39
000330 da be 0e 00 dd 1d 04 00 9c 0d 0e 00 8b 85 00 80
       1.354162e-39 3.78055e-40 1.290579e-39 -4.7906e-41
000340 41 14 11 80 a5 a0 05 00 ac 18 14 00 24 37 10 00
       -1.568469e-39 5.16806e-40 1.84556e-39 1.489149e-39
000350 f3 50 02 00 4b 71 0d 80 69 22 06 80 3f 6f 0e 80
       2.1271e-40 -1.234503e-39 -5.63357e-40 -1.325605e-39
000360 1b 0a 0d 00 90 a4 04 80 82 19 0b 00 7e ea 13 80
       1.197487e-39 -4.26376e-40 1.019341e-39 -1.828994e-39
000370 f3 17 0c 80 39 ff 11 00 44 cf 0f 00 41 90 03 00
       -1.110617e-39 1.65276e-39 1.451885e-39 3.27255e-40
000380 89 9e 06 00 5f 20 07 00 7d 6f 0e 00 85 c2 01 80
       6.07885e-40 6.54461e-40 1.325691e-39 -1.61616e-40
000390 8c d2 07 80 5a 55 09 00 26 de 0c 80 27 f4 0f 80
       -7.18378e-40 8.57138e-40 -1.181718e-39 -1.465118e-39
0003a0 e6 2c 14 80 b4 09 03 00 4e e1 13 00 5f c7 10 00
       -1.852816e-39 2.78987e-40 1.825699e-39 1.540889e-39
0003b0 3a 87 11 00 aa 82 03 00 c0 c2 13 80 49 1c 0a 00
       1.609714e-39 3.2238e-40 -1.814738e-39 9.28502e-40
0003c0 0b 56 0d 00 86 47 03 00 f6 48 0b 00 ac 22 0d 00
       1.224728e-39 3.01164e-40 1.036364e-39 1.2063e-39
0003d0 c0 58 05 00 01 af 0e 00 fe ab 0a 80 d8 81 11 80
       4.91015e-40 1.348477e-39 -9.80054e-40 -1.607783e-39
0003e0 a5 53 05 80 75 89 07 00 89 67 01 80 ee e6 07 80
       -4.89183e-40 6.92159e-40 -1.28977e-40 -7.2569e-40
0003f0 b1 68 0b 00 42 69 0f 80 e8 21 13 80 a7 b7 0e 00
       1.047747e-39 -1.415292e-39 -1.757038e-39 1.351579e-39

edge_feature_mlp.0.bias f4 [64]
000000 b8 74 33 bb b0 58 49 bb 76 ec cc ba 6d 87 55 bb
       -0.0027382802 -0.0030723028 -0.0015634436 -0.003258194
000010 89 45 8b ba 55 72 cd 88 de ea c1 8c ac d3 d4 ba
       -0.0010625581 -1.2364868e-33 -2.9877714e-31 -0.00162374
000020 eb 9a 25 8f 84 7d 11 bc 96 f8 8a bb ee 05 43 a0
       -8.164964e-30 -0.008880023 -0.0042410595 -1.6519104e-19
000030 69 f5 cb bc 19 8a 53 b6 41 1d 28 ba 78 97 ba b1
       -0.024897294 -3.1521834e-06 -0.00064130506 -5.4305325e-09
000040 e2 f8 28 9e 84 99 ab bc e3 f9 29 bb 45 8b 26 b7
       -8.945314e-21 -0.020947225 -0.0025936298 -9.926797e-06
000050 6c 4b 73 3c 0d 5f 3a b7 7e c7 48 b8 d9 fb 3f bb
       0.014849525 -1.1108595e-05 -4.7869507e-05 -0.00292944
000060 b3 82 3b 8b 84 f7 df 3c 00 32 37 bb a3 fa aa bb
       -3.6113217e-32 0.027339704 -0.0027953386 -0.0052178665
000070 9d ac b5 ae 3e ca aa b9 49 d6 0f ba 09 10 1f b7
       -8.261589e-11 -0.0003257561 -0.0005486948 -9.480872e-06
000080 6c 04 b1 9e d1 5c 26 85 b8 6c a8 b4 6d 30 80 88
       -1.8742433e-20 -7.82233e-36 -3.1371542e-07 -7.715105e-34
000090 28 a3 c2 b7 b0 9e 4b bc 50 2b 58 ba 33 26 b3 a9
       -2.3202578e-05 -0.012427971 -0.00082462 -7.9558234e-14
0000a0 8b ec 86 b7 70 64 f4 9d 5d 4d 9a bc 8e 12 8d 9f
       -1.6084194e-05 -6.4690112e-21 -0.018835718 -5.974652e-20
0000b0 5a f6 9a ba c0 65 14 bb 10 63 37 bc e8 b6 b9 86
       -0.0011822686 -0.0022643656 -0.011193052 -6.985802e-35
0000c0 d7 dc e1 9f 74 bc ae b1 c5 8e ea 90 ba 24 89 92
       -9.5656555e-20 -5.085491e-09 -9.25167e-29 -8.654969e-28
0000d0 8b 3f cb b0 09 22 68 a0 ce 19 a8 b8 ec 71 89 3c
       -1.4788254e-09 -1.9662426e-19 -8.015671e-05 0.016777955
0000e0 6c 68 86 bb 5f c9 e6 ba ae ec b3 bb 0e 75 3b bb
       -0.0041018035 -0.0017607621 -0.005490861 -0.0028603706
0000f0 b3 49 f8 3d aa ee 11 b6 b3 7f 4b b2 18 f2 aa ba
       0.12123432 -2.1745604e-06 -1.1845191e-08 -0.001304212
