results/dropped_title_embedding/best_gcn_model.pth (torch, 303851 bytes, 13 tensors)

node_embedding.weight f4 [64, 770]
00000000: 35a1 0700 9612 0980 a48d 1280 51cb 0280
00000010: efb2 1080 7f79 0d80 caf4 0e00 a647 0c00
00000020: 5a36 1480 a588 0800 4d15 0a00 b356 0500
00000030: caa7 1300 28e8 0300 9178 0300 e1ef 0100
00000040: ec8b 0c00 3ee7 0c80 17e1 0a00 77d0 0a00
00000050: dd8f 0900 669d 0180 e4bd 1200 5c90 0080
00000060: 7157 0780 d463 1100 1f2e 0800 2dd4 0080
00000070: b070 0200 0aec 0980 cb24 0c80 36a4 0200
00000080: de91 1080 d5fb 0980 19cd 1400 ad81 0d00
00000090: a742 1080 d5d4 1100 34ff 0500 454b 0c80
000000a0: 586a 1480 411a 0300 1460 0b80 39ca 0680
000000b0: a24c 1180 00ee 0480 56b9 1500 b126 0380
000000c0: 8981 0a00 9607 0e00 fb6f 1380 be62 1180
000000d0: 8a17 1300 752d 0900 ca46 0900 e7b2 0b00
000000e0: 2ba5 1100 a698 1280 e154 0580 85b6 0a00
000000f0: 44f8 1500 c362 1000 ede3 0280 f9ba 0900
00000100: 042f 0900 072e 1400 33b3 0e80 4aae 0900
00000110: 2ad7 0f00 6a2a 0980 c39b 0180 68c1 0880
00000120: 4067 1380 a82f 0100 c4fc 1100 ac22 0d80
00000130: 0b55 0280 a2eb 0c80 c2f9 0780 5559 0080
00000140: 6358 0680 cc89 0180 572b 0f00 6a77 0180
00000150: 1e43 0c80 568d 0080 f8a7 0d80 81f8 0e00
00000160: db8a 0600 6f52 0900 2565 0780 31ac 0c80
00000170: aeac 1000 58af 0b00 8913 0680 7eae 0280
00000180: 025c 0480 dc0c 1380 aa71 0a80 941e 1380
00000190: 02c6 1580 2bbd 0600 ec6f 1400 a86c 1480
000001a0: f126 0280 07fa 0e80 ad26 1280 080d 0000
000001b0: c73b 0600 1d86 0c00 df91 0280 3599 1000
000001c0: 55ac 0e00 e3a7 0700 3b52 0100 ad51 1300
000001d0: 2289 1180 825f 0180 78f0 0000 6232 0280
000001e0: c871 1300 0cbb 0180 cb88 1000 fd70 0e00
000001f0: b516 0a00 195d 0b80 0fba 0c00 ce72 1180
00000200: 586b 0480 e06a 0b00 238b 0b80 194a 0600
00000210: bc5e 1300 1cad 0280 efad 0e00 1cb3 0d00
00000220: 65e1 0c80 1c67 0600 6932 0700 0723 0a00
00000230: 1b57 0e80 93f1 0b00 9b4b 1180 03ce 0b00
00000240: 1594 0380 e1df 0980 52cd 0980 18ae 0200
00000250: 93c2 1080 a6d9 0c00 d1f3 0e00 aa63 0100
00000260: acc6 0600 69b4 0b00 bfed 0880 048e 0900
00000270: f2b9 0800 c670 0680 8a24 1400 d154 1200
00000280: fec6 0b80 59ba 1200 d7c6 0380 9e73 0a80
00000290: 44b0 0580 d894 0a80 bd1a 0300 9e9a 1000
000002a0: f5fd 1080 e922 0680 b979 0780 538e 1080
000002b0: 2655 1080 0c38 1400 1b20 1000 1147 0200
000002c0: 412d 0900 b74d 0080 0b41 1300 600c 0680
000002d0: 82dc 0700 b837 0200 1820 0f00 d1e6 0a00
000002e0: a346 0480 bfcb 0700 ca9c 0e80 752c 1300
000002f0: 87b3 1300 7fc8 0000 06d5 1280 ce6d 1080
00000300: 821f 1680 42eb 0b80 3adc 0b00 25ca 0180
00000310: 3dd3 0b00 55f8 1000 a116 0900 9db4 0600
00000320: 95e2 0300 b8c8 0980 e7c9 1580 be5c 1400
00000330: aad6 1000 e855 1080 71b0 0900 e58a 0500
00000340: a3ea 1300 a07c 0c80 7924 0300 a4cc 0b80
00000350: a795 0b00 9fb0 1080 9f7c 0800 5b84 1000
00000360: 3733 0f00 53a8 0700 b06f 0b00 8c23 0080
00000370: 2bd5 0900 6fa1 1500 f303 0a00 5e60 0200
00000380: 741a 1300 6a93 0280 bac7 1500 a3d3 0f80
00000390: 13a3 0b00 074a 0a80 9830 0600 c081 0480
000003a0: 7cd5 0a80 56b6 1280 3ea0 0a00 ea36 0300
000003b0: 29e0 0700 d2d5 0c00 8fe6 0a00 2610 0a00
000003c0: 948d 0780 3b35 0200 3e46 0600 16ac 0b80
000003d0: 3b7f 0c00 8f5e 0880 9154 0300 1413 1100
000003e0: 2794 1080 4a43 0900 a5c3 0e80 3d73 0f00
000003f0: cd96 0d80 8087 1000 ef95 1180 8cb5 0a80
7.00679e-40 -8.33187e-40 -1.70385e-39 -2.56607e-40 -1.533557e-39 -1.237446e-39 1.373511e-39 1.127729e-39
-1.856208e-39 7.83703e-40 9.25996e-40 4.9028e-40 1.805066e-39 3.58788e-40 3.18758e-40 1.77888e-40
1.15222e-39 -1.18498e-39 9.99102e-40 9.93138e-40 8.78128e-40 -1.483e-40 1.721159e-39 -5.1786e-41
-6.74217e-40 1.597015e-39 7.51229e-40 -7.6114e-41 2.24096e-40 -9.11194e-40 -1.115225e-39 2.42579e-40
-1.521695e-39 -9.1686e-40 1.910285e-39 1.24038e-39 -1.493278e-39 1.637553e-39 5.50727e-40 -1.129028e-39
-1.874859e-39 2.84925e-40 -1.044657e-39 -6.23557e-40 -1.588694e-39 -4.5272e-40 1.995031e-39 -2.89386e-40
9.64823e-40 1.288418e-39 -1.785045e-39 -1.596625e-39 1.753319e-39 8.42826e-40 8.51914e-40 1.074369e-39
1.620455e-39 -1.707799e-39 -4.89626e-40 9.8383e-40 2.017606e-39 1.504797e-39 -2.65435e-40 8.93593e-40
8.43385e-40 1.853221e-39 -1.349982e-39 8.89043e-40 1.454719e-39 -8.41735e-40 -1.47712e-40 -8.04065e-40
-1.781914e-39 1.08931e-40 1.651879e-39 -1.2063e-39 -2.14179e-40 -1.186555e-39 -7.32445e-40 -3.2046e-41
-5.8272e-40 -1.41268e-40 1.39308e-39 -1.34673e-40 -1.126103e-39 -5.0702e-41 -1.254117e-39 1.374843e-39
6.00825e-40 8.56091e-40 -6.79132e-40 -1.163797e-39 1.531314e-39 1.073092e-39 -5.58021e-40 -2.46267e-40
-4.00348e-40 -1.749488e-39 -9.5913e-40 -1.755844e-39 -1.999577e-39 6.18874e-40 1.87686e-39 -1.875688e-39
-1.9764e-40 -1.37539e-39 -1.666913e-39 4.675e-42 5.72457e-40 1.150137e-39 -2.36e-40 1.524328e-39
1.347518e-39 7.03075e-40 1.21334e-40 1.774174e-39 -1.610397e-39 -1.26097e-40 8.6264e-41 -2.01745e-40
1.785691e-39 -1.58935e-40 1.51844e-39 1.32623e-39 9.26501e-40 -1.043588e-39 1.168771e-39 -1.602388e-39
-4.0585e-40 1.04853e-39 -1.060103e-39 5.77594e-40 1.778859e-39 -2.45771e-40 1.348093e-39 1.258114e-39
-1.182882e-39 5.88002e-40 6.60932e-40 9.3092e-40 -1.316945e-39 1.096851e-39 -1.588326e-39 1.084094e-39
-3.28628e-40 -9.06832e-40 -9.00175e-40 2.46124e-40 -1.539168e-39 1.180104e-39 1.373162e-39 1.27588e-40
6.22283e-40 1.07491e-39 -8.19971e-40 8.77465e-40 8.01389e-40 -5.91468e-40 1.849818e-39 1.683465e-39
-1.081575e-39 1.719888e-39 -3.46837e-40 -9.5983e-40 -5.2241e-40 -9.7175e-40 2.85098e-40 1.524834e-39
-1.56047e-39 -5.63536e-40 -6.86514e-40 -1.520424e-39 -1.499913e-39 1.856816e-39 1.480885e-39 2.09165e-40
8.42754e-40 -2.7879e-41 1.768207e-39 -5.55452e-40 7.21952e-40 2.03659e-40 1.389046e-39 1.001156e-39
-3.92682e-40 7.15939e-40 -1.341942e-39 1.760823e-39 1.809277e-39 7.1924e-41 -1.729457e-39 -1.508758e-39
-2.031684e-39 -1.094585e-39 1.089193e-39 -1.64351e-40 1.085968e-39 1.558453e-39 8.34637e-40 6.15805e-40
3.56789e-40 -8.98524e-40 -2.000974e-39 1.86998e-39 1.546375e-39 -1.500185e-39 8.89815e-40 5.09003e-40
1.829046e-39 -1.146733e-39 2.8859e-40 -1.083602e-39 1.063876e-39 -1.532728e-39 7.7939e-40 1.516848e-39
1.395905e-39 7.03232e-40 1.050256e-39 -1.2752e-41 9.0299e-40 1.986457e-39 9.19772e-40 2.18241e-40
1.754364e-39 -2.36553e-40 2.000194e-39 -1.453453e-39 1.06869e-39 -9.44911e-40 5.68445e-40 -4.13888e-40
-9.94939e-40 -1.718449e-39 9.75839e-40 2.95206e-40 7.23262e-40 1.17873e-39 1.001064e-39 9.24148e-40
-6.93637e-40 2.02766e-40 5.76211e-40 -1.071923e-39 1.147668e-39 -7.68605e-40 3.05843e-40 1.568047e-39
-1.522515e-39 8.50658e-40 -1.355881e-39 1.418872e-39 -1.247959e-39 1.517976e-39 -1.61499e-39 -9.83482e-40

node_embedding.bias f4 [64]
00000000: d3dd cc3d 19ea afbd 18ed 1bbe 5520 ea3c
00000010: fa84 c7bc 7dbd 07bd 65ae 62be 5f01 2cbe
00000020: 401f db3b d712 64bd 5b25 6fbc 6a5f 1ebe
00000030: 0e12 6dbd 9e44 353e 7fc8 c3bd 9da7 65bd
00000040: d39f 76be 3383 dabd 40ec 31be 34cc 1f3d
00000050: efc5 f2bd fcab 48bd 865e 743d 9ef3 1dbe
00000060: 1885 ebbd df17 ce3d 6857 e7bc ee80 0bbd
00000070: e539 df3d a9f8 32be f019 1abc 5261 843d
00000080: d66f febd 0df0 6abc ef26 0fbe c607 0f3d
00000090: 24b3 fb3c d7a9 83bd c895 9bbd d572 8bbd
000000a0: e2cd e1bd 56e3 113d a4fc 5c3e 821f 2a3d
000000b0: 6285 8bbd cb99 673e 05e7 483d 3258 31be
000000c0: d19d a9bd 998d 28be f97c e73d 7358 9dbe
000000d0: 3927 b6be dd61 753d 3967 b23d 67d5 fa3d
000000e0: 89c8 343d 4838 923d 40c8 cd3d 5ca2 8a3e
000000f0: 086e 423e 628f e73c afdf 803e 5b5c 3d3d
0.10003247 -0.085895725 -0.15227163 0.02857987 -0.0243554 -0.033139694 -0.22136839 -0.16797398
0.006687075 -0.05568203 -0.014596309 -0.15466085 -0.057878546 0.17701957 -0.09559726 -0.05606805
-0.24084406 -0.106695555 -0.17375278 0.039013103 -0.11854159 -0.048992142 0.059660457 -0.15424964
-0.11499995 0.10063147 -0.02823992 -0.034058504 0.108997144 -0.17477669 -0.009405598 0.06463875
-0.12423675 -0.014339459 -0.13979696 0.034919523 0.03072507 -0.06428879 -0.07596928 -0.06809012
-0.11025597 0.035617195 0.2158075 0.041533954 -0.0681255 0.22617261 0.049048442 -0.173188
-0.08282054 -0.16460265 0.113031335 -0.30731544 -0.355768 0.059907783 0.087110944 0.122477345
0.044136558 0.07139641 0.1004796 0.27076995 0.18987286 0.028266612 0.25170657 0.046230655

gcn.convs.0.bias f4 [64]
00000000: bc65 65bf 26c5 5abf 0997 82bd fc21 69bf
00000010: 3876 7ebf b1f3 1fbe 5cf8 53bf 7085 49bf
00000020: c73e a3be f6c6 cebd c299 33bf d8c3 8bbf
00000030: 8360 82bf ee49 32bf b28b 72bf 7625 43bf
00000040: d428 34bf 2aa7 88bf c0d5 61bf 8f04 32bf
00000050: b6c7 8abf 9c94 81bf f216 92be 4772 7bbf
00000060: 87ce a0be 8eb3 7cbe eafb 75bf dcf1 3abf
00000070: 77ef 7cbf 9382 94bf 704c 7dbf 28fe a2bf
00000080: c10a 6dbf b7d5 8dbe 0e5f 53be 9313 15bf
00000090: b393 57bf 1472 6fbf dda7 45bf a3ce 70bf
000000a0: 367c 8ebf e664 3bbe f3af fcbe fbff 65be
000000b0: 4b7c 48bf 9549 cebe 6bac 74bf 0e3e 83bf
000000c0: 0bfa e0be 2ac4 8dbf 3dfa 50bf 522d 52bf
000000d0: 9716 77bf e80b 6cbf 1d85 b2be 32db 99bf
000000e0: d476 11bf 2b8b 6abf 303b 98be ca47 71bf
000000f0: f21d 77bf 37b3 97bf fee2 7dbf 4e8e 76bf
-0.8960836 -0.85457075 -0.06376464 -0.9106748 -0.9939914 -0.15620305 -0.8280084 -0.78719234
-0.31883833 -0.100965425 -0.7015649 -1.0919142 -1.0185703 -0.6964406 -0.9474441 -0.76229036
-0.703748 -1.0676014 -0.8821678 -0.69538206 -1.0842197 -1.0123477 -0.2853313 -0.9822125
-0.31407568 -0.2467787 -0.96087515 -0.730253 -0.98802894 -1.1602348 -0.9894476 -1.2733812
-0.92594534 -0.27702114 -0.20641729 -0.5823299 -0.84209746 -0.93533444 -0.77209264 -0.940653
-1.1131656 -0.18300208 -0.4935299 -0.2246093 -0.78314656 -0.40290514 -0.9557559 -1.0253313
-0.43940768 -1.107549 -0.81631833 -0.82100403 -0.96518844 -0.9220567 -0.34867182 -1.2020018
-0.5682194 -0.91618603 -0.29732656 -0.94250166 -0.9653007 -1.1851567 -0.9917449 -0.9631089

gcn.convs.0.lin.weight f4 [64, 64]
00000000: 0900 c3be b403 0abe 46cb c03e fa60 4f3e
00000010: 0f75 673e 396b 7e3e 340a 18bb ed44 7cbd
00000020: 667d 323e 02af 0ebe b322 d63d e544 9bbe
00000030: a842 95bd 4fe5 e43d f264 ca3d 0ec8 68bd
00000040: 73fa bcbc 7ec5 68bd 4943 723d 1670 b0be
00000050: a97b c4bd f1b6 8ab9 09f3 783e f50f efbd
00000060: 158c 4d3d 9eb2 2f3e 9ccd d0be 68f7 ee3d
00000070: d035 2d3d 9e46 be3e a60e a13d 4713 efbe
00000080: f557 d0bd 757f c8be 39ac c53e 74e8 03be
00000090: f8ba 4e3d 71d9 983d 7022 8e3e 6857 153d
000000a0: 8538 1d3e cf34 b6be 306d 63be 2ffe cdbd
000000b0: 3763 8c3d 577b 2c3c 7e35 43bd 89a8 3abe
000000c0: 6733 aa3d afce 5cbe 575b 86bd a73f 19be
000000d0: 38f5 393f 368a 37bd a006 9e3d 5da9 203c
000000e0: e8ad 16bd c329 8a3e 4cc9 b73d 1d57 9bbe
000000f0: 35fa e4be f0f4 dcbd 4159 a4be 8f3d 88be
00000100: 1779 61bc 84c6 99bd 6eff a23e 0e26 21bd
00000110: 370e b13e d838 5fbe 6c8b 063f e0e1 56be
00000120: a679 11be c078 dc3d 2d27 9c3d 0e71 9e3e
00000130: 3750 0e3e 8b71 813e f734 2cbe e234 99bd
00000140: 983b c53d 3ef0 f7be 4df9 b03d 5ec2 dabe
00000150: e2a6 80bb ec69 423e 6f5d 2a3e 62b1 ce3e
00000160: 2c7b 013e 613c 47be f0bd 493e 318e 3f3e
00000170: a293 6a3d 0ad2 e83e 5998 b5be 48bd 5ebe
00000180: 2918 53be bc83 633e 97d1 8e3e 3053 c53e
00000190: ee3c 25be 41ef 8e3e 4ace 4e3e 6dd3 16be
000001a0: fc15 10be 1ab9 71be a86d 953e 108b 9d3d
000001b0: d74b 903e c681 033d a029 e73d ca01 303e
000001c0: b28e 833e 602b 98be 0d2f 87bd cb5b 1dbd
000001d0: 34db c83d bca9 f1bd e581 33be 4bd7 823e
000001e0: efec b13d 5bee 533e 571c 2d3e 3e53 2fbe
000001f0: dfec 4c3d 3412 0b3d f73e e73c f918 12be
00000200: 35a5 3e3e 430a c4bd 4db5 3a3d 20dc b63d
00000210: e802 87bd abca 14be cd75 0fbe 49ab 97bd
00000220: 5d36 ed3d 7ec6 23be 09da b83c b732 05be
00000230: 2eb1 fc3c 9f83 033e 86cf 74bd b32e fe3c
00000240: 822a 3cbd 6d16 cfbd e249 d33c eee9 10bd
00000250: cfbd 43bd 6df1 6ebd 6a13 823e ef9b a23d
00000260: 39f5 1dbe 78f8 f63d afa4 02be fe41 45bc
00000270: 29cb 84bc 01a4 2fbe 7f53 2a3e 1cd4 0d3e
00000280: ecff 94bd 9d2e 45bd 5d31 e03d f204 9d3c
00000290: 3f03 cdbd 1fad adbd d16c c3bd bc7b a43b
000002a0: f1c5 febc d79e aa3d 9966 5f3d 5bb4 54bd
000002b0: 7adc 40bc 6668 293e a92c cb3b b351 1ebe
000002c0: 0d64 30bd 2d39 9dbd 7be2 183d 39f9 9ebe
000002d0: 7ee2 c6be 234b ff3c 14a9 203e 2d4d 303e
000002e0: 25c3 c3bc 6aca 12bd a040 f6bd 8226 e53e
000002f0: 3b22 493e ff0f a13d aaa7 cabd 9370 9f3c
00000300: 36ef 643e 3286 eb3e 6fed 5bbe c2cc 93be
00000310: b91f 49be 7144 d7bd 1eb7 e9be 1556 89bd
00000320: d274 6cbe 5497 1bbe a992 7bbb 2249 993e
00000330: 5dd6 45bb 7677 233e a956 093e 1f13 373e
00000340: fc00 213e 1bbd 3a3d df03 c93d 32ad 883e
00000350: 3937 b4bd b2be a53d 594f 4b3e 2d77 5abe
00000360: cdcb 803e bd74 15be d33e 133e c5fe 883e
00000370: ba4c 943e a8c5 9e3e d000 ca3c dc82 b2be
00000380: 0d6e 003d 6775 f9bd 5006 723e 0036 fa3d
00000390: 74e1 5d3d fef9 6c3d 665c a83c b9ce 183e
000003a0: 71d8 293d e764 7dbe 3e7c 8c3e 3318 ad3e
000003b0: 8b7b ad3d 53cc 7dbe 82f1 adbe 1587 82be
000003c0: 31c0 f9be 6b04 2e3d d8f8 87bd a30a 993e
000003d0: 193f ddbc 6495 bebb 1cdd d2bc 3001 143e
000003e0: 3606 09bd 473d a5bc e588 de3d 7fa3 163e
000003f0: 472f 57be 3dc5 a4be c34c 2f3e a809 813b
-0.38085964 -0.13477975 0.37655085 0.20251837 0.22603248 0.2484559 -0.002319944 -0.06158917
0.17430648 -0.13933948 0.10455837 -0.30326 -0.07288104 0.1117655 0.09882535 -0.056831412
-0.023068642 -0.05682897 0.0591462 -0.34460515 -0.09593899 -0.00026457713 0.2431146 -0.116729654
0.05018242 0.17157981 -0.40781868 0.11668283 0.042287648 0.37163252 0.07864122 -0.46694395
-0.101730265 -0.39159742 0.38607958 -0.12881643 0.050471276 0.07463349 0.2776065 0.03646031
0.15353592 -0.35587165 -0.2220962 -0.10058247 0.06854861 0.010527453 -0.047658436 -0.18228354
0.083105855 -0.21563219 -0.065603904 -0.14965688 0.726398 -0.044809543 0.07716107 0.009806004
-0.036786944 0.26984987 0.08973941 -0.303399 -0.44722143 -0.107889056 -0.32099345 -0.26609465
-0.01376178 -0.07508567 0.31835502 -0.039342932 0.34581158 -0.21799028 0.5255649 -0.20984602
-0.14206561 0.10765219 0.0762466 0.3094563 0.13897787 0.2528194 -0.1681708 -0.0748079
0.09630507 -0.48425478 0.086413 -0.42726415 -0.003926144 0.18985718 0.16637205 0.40369707
0.12644643 -0.19456626 0.19701362 0.18706585 0.0572697 0.45472747 -0.35467795 -0.21751893
-0.20614685 0.22218221 0.2789428 0.3854003 -0.16136524 0.2791691 0.2019588 -0.1472909
-0.14070886 -0.23605767 0.29185224 0.0769254 0.2818286 0.032106183 0.11287236 0.17188182
0.25694805 -0.29720592 -0.06600771 -0.03841762 0.09807435 -0.117999524 -0.1753002 0.2555488
0.086877696 0.20696394 0.16905342 -0.17121598 0.050030585 0.033952907 0.028228266 -0.14267339
0.18617709 -0.0957227 0.04558306 0.08928704 -0.06592351 -0.14530437 -0.14009781 -0.07405717
0.115826346 -0.15993688 0.022564905 -0.13007627 0.030846205 0.12843178 -0.059768222 0.031028127
-0.045938976 -0.10111699 0.025792066 -0.035379343 -0.047788437 -0.05833571 0.25405437 0.07939898
-0.15425576 0.120591104 -0.12758134 -0.01203966 -0.016210156 -0.17152406 0.16633414 0.13850445
-0.07275376 -0.048140157 0.10946915 0.019167397 -0.10010385 -0.08480286 -0.095422395 0.005019633
-0.031100245 0.083310775 0.054541204 -0.051929813 -0.011771316 0.16543731 0.0062003923 -0.15460853
-0.043064166 -0.07676921 0.037325364 -0.31049517 -0.38844675 0.031163758 0.15689498 0.1721694
-0.023896763 -0.03583757 -0.12024045 0.44755942 0.19641964 0.07864379 -0.09895261 0.01946286
0.22356877 0.4600082 -0.21477292 -0.28867155 -0.19641007 -0.10511101 -0.4564752 -0.06705872
-0.23091438 -0.15194446 -0.0038386977 0.29938608 -0.0030187585 0.1596354 0.13411964 0.17878388
0.15723032 0.0455905 0.098151915 0.26694638 -0.087995954 0.08093013 0.19854487 -0.21334524
0.25155488 -0.14595313 0.14379434 0.26756874 0.28964788 0.31010175 0.02465859 -0.34865463
0.031354953 -0.12180596 0.2363522 0.12217331 0.054170087 0.0578556 0.020551872 0.14922608
0.04146618 -0.24745522 0.2743854 0.33807525 0.084708296 -0.24784975 -0.33973318 -0.25493684
-0.48779443 0.042484682 -0.0663926 0.29890928 -0.027007626 -0.0058161486 -0.025740199 0.14453578
-0.03345319 -0.02017082 0.10865954 0.14710806 -0.21014129 -0.3218173 0.17119126 0.0039379187

gcn.convs.1.bias f4 [64]
00000000: ac3d c13e 0542 3a3e 3323 07bf 0dfa a23d
00000010: 7098 16bf 669d b9be 324c 18bf 9d55 ce3d
00000020: 7463 733d 72c9 4ebf fd62 c4be d9af aa3e
00000030: 43fb 1b3e bf06 4dbf fe1c 863e 40b3 dc3e
00000040: 67a7 c13e 2f31 bbbe 215e 86bf 5203 943e
00000050: 0462 b4be 6c21 d0be b81d c43e f03b cbbe
00000060: c27b 853e e133 5fbf ac5b 4cbe 7bd3 80bf
00000070: 64e2 76bf 25db 24bf 0177 c7be 3e11 febe
00000080: 7251 b6bf eb7c 50bf c3b1 bf3e 9930 e1bb
00000090: 7633 97be 1de7 86bf 1e19 8dbe 7de8 4abf
000000a0: 3b53 b2be 2630 523e 6083 26bf 204e b83e
000000b0: 7116 17bf 8161 8f3e ca40 cf3e 96fa 3f3e
000000c0: 30fa 0bbf 3f4e 8ebf 747a cebd 4d9b 1fbf
000000d0: 5d8a adbe d9cd 35bf 37ac eabe 8ba3 9dbe
000000e0: 4f0d b13e f8b4 18bf d833 603d 2d08 05bf
000000f0: 6944 93be 5405 fe3d 934c 38be 762c 90be
0.37742364 0.18189247 -0.52788085 0.0795785 -0.5882635 -0.36252898 -0.59491265 0.10074923
0.059421018 -0.8077613 -0.38356772 0.33337286 0.15232567 -0.8008842 0.26193994 0.43105507
0.3782303 -0.36560962 -1.0497476 0.28908783 -0.3523103 -0.406505 0.38303924 -0.39694166
0.26070982 -0.87188536 -0.19956845 -1.0064539 -0.96439195 -0.6439689 -0.3895798 -0.4962253
-1.4243605 -0.8144061 0.3744031 -0.0068722484 -0.2953145 -1.053928 -0.27558225 -0.79261
-0.34829125 0.2052618 -0.6504421 0.35997105 -0.5901862 0.28004077 0.40479118 0.18747935
-0.5467863 -1.1117629 -0.1008195 -0.62346345 -0.33894625 -0.71017224 -0.45834514 -0.30788836
0.34580466 -0.59651136 0.054736942 -0.519656 -0.2876313 0.1240336 -0.17997961 -0.2815892

gcn.convs.1.lin.weight f4 [64, 64]
00000000: 7cbf c9be aa9d 8fbe 5a44 f03b 1f40 25be
00000010: 2b9d 9bbe 996d 873d 3524 5fbe 19de 0dbf
00000020: 5d1d 483d a63e 82bd 76f2 6dbe 6667 87be
00000030: 54c5 06bf a224 6abe 008b 19be 50b5 26be
00000040: 91bb 5cbe c6c7 3dbe 73a9 8bbe 9fac 9cbe
00000050: be6d cdbe 0ebf b6be 05df 983d 56a4 95be
00000060: ca3f 0bbe 2f1e 913a fda1 7abe a725 63be
00000070: 6712 5abe beaf a8be 939b fdbe 86a5 dabe
00000080: 628f 2cbe ab9f 4b3d 92e4 e63c b98d b7be
00000090: 3012 f4bd 7ae4 6ebe 646a 1fbf 4e85 ddbd
000000a0: 33ca 7dbe 3459 f53c 2f33 5dbc 7c6d 073e
000000b0: b0ac 88be daf4 41ba 337a 17bd 725a 7fbe
000000c0: adf5 06be 3bea 75be 6249 15be c800 9abe
000000d0: c8f1 bdbe 6277 24be 5ef5 8b3d 9914 ebbd
000000e0: 3674 bfbe 92c2 b9be bdf7 503d f529 8cbe
000000f0: 0308 86be fee1 44be bbd4 98be 1773 56be
00000100: 2aec 7dbe cfc4 33bf dd60 4b3d 9682 00bf
00000110: 57d8 0bbf 21d2 003e 0c2c 8bbe 6da3 fabe
00000120: 27c7 253c cb65 a93c 130c 21bf 2f09 a2be
00000130: f755 c4be 6192 0bbf b5d4 0dbf b8a4 05bf
00000140: f466 20be ff61 17bf 56f4 4abe b20f 6dbe
00000150: a8b4 03bf bc8d b1be d501 c13d f2f4 7fbe
00000160: eafd aebe 578e 713d 05b9 ddbe f6d8 cebe
00000170: 793f 39bf d2e5 60bf 4f7c 12be d0b9 ecbe
00000180: 860f 9bbe db6d 1d3e f626 6c3e 5556 d2be
00000190: 79b1 ccbe 39e7 bcbe 601d 5bbe 5eb1 a7be
000001a0: e2e1 adbe 5f54 db3d e195 d13d 8664 b5bd
000001b0: e7c1 d3be 142e 973d 886d bebe 7796 1fbf
000001c0: 0d14 65bd a81e c4be cb44 42bf 70de 1abf
000001d0: 849e bcbe cbb0 95be 14a0 9b3d 9f04 21bf
000001e0: 2261 c6be 7104 18bf e983 173d 87e7 c4be
000001f0: 34ec ebbe c1a0 37bf 45c1 95be a888 e6be
00000200: cb4f 943e 9d8c 443e ff5e 66bd 3ef3 4a3e
00000210: 6932 6c3e eb1d a4bb 86a0 903e c22c 513e
00000220: 049c c9bd 9dd8 c2bc b6b1 7b3e 5dff 823e
00000230: e768 373e edcd 543e 08b3 a93e 8811 993e
00000240: 4f0f a93e 7a27 813d 155d 953e 527a 3f3e
00000250: b55d ba3e ffb1 743e 7e58 d3bd 9118 dd3e
00000260: 1aa0 8c3e 16ae 46bd 67a6 663e 9a0a 393e
00000270: 19c5 ab3e 6e4b e23e 97d2 683e ea80 8b3e
00000280: f6f5 7e3e 0f76 40bd cd77 ffbd e0b4 c03d
00000290: 65ae 783e 02f4 213d 1347 ad3e 59c4 2d3e
000002a0: 3753 c43e 3701 eabd 3862 e9bd 8e35 15be
000002b0: c15f 883e e5d4 14bd fc2d dc3e a19c a23e
000002c0: 50f9 d83c 625e dd3e 30fd 7c3e 2e33 d53e
000002d0: 431d b13e 0cf3 853e 857e 03bd a0d2 553e
000002e0: f7ca b4bc 05e3 3a3e 4ab7 873d c570 fd3d
000002f0: 87c1 4c3e f1dc 853e 4278 b13e f598 503d
00000300: 279d 26bf 09c9 34bf db76 af3c 1672 bdbe
00000310: d617 a5be 6cb3 5d3c 6ae8 d7be cafb 98be
00000320: 8b46 773d a6dd 823c 65a1 0cbf 8d24 80be
00000330: 7cb8 51be f07c 01be fdac c1be 7651 c0be
00000340: 978b 16bf d030 0abf 83e9 b6be d317 693d
00000350: 463e d3be a4ad 21bf 1315 2e3e 1f68 cebe
00000360: 00e7 37bf 24f3 a53d 2fa8 d6be e53d dbbe
00000370: 419a ebbe 3b0c 39bf cb11 09be cb09 22bf
00000380: c56c 84be f96a 8e3d 17f8 853c eefc 4dbe
00000390: 5792 b6be 14f4 c8be a492 17be 202c 0bbf
000003a0: 2598 f6be a5f8 563d cf16 4b3c 5a75 c5bd
000003b0: 66a1 ccbe 500b dd3c 452e 1bbf 91cf b1be
000003c0: cb51 043e 90d7 0ebf 8cc9 0ebf 9425 03bf
000003d0: 979c 03bf 999a 68be 88a4 c03d c8cd 35bf
000003e0: 83b8 22bf e4e8 15bf f953 8d3d 5a16 e5be
000003f0: b09b a2be af55 13bf 2b48 53be 1214 08bf
-0.39403903 -0.28049976 0.007332367 -0.16137742 -0.30393347 0.06612701 -0.21791156 -0.5541702
0.048856128 -0.063596055 -0.23237023 -0.26446074 -0.5264485 -0.22865537 -0.1499443 -0.16280103
-0.21555926 -0.18533239 -0.27277717 -0.3060045 -0.4012279 -0.35692638 0.074644126 -0.2922694
-0.13598552 0.0011071617 -0.24475856 -0.22182332 -0.21296082 -0.3294658 -0.49532756 -0.4270441
-0.16851571 0.049712818 0.028185163 -0.35850313 -0.119175315 -0.23329344 -0.62271714 -0.108164415
-0.24784164 0.029949762 -0.013500973 0.13225359 -0.2669425 -0.00073988514 -0.036981773 -0.24936846
-0.13179655 -0.24015133 -0.14578775 -0.3007872 -0.37098527 -0.16061166 0.068339095 -0.11478538
-0.3739335 -0.36281258 0.05101751 -0.2737576 -0.26177987 -0.19226834 -0.298498 -0.20942341
-0.2479712 -0.7022218 0.049652923 -0.5019926 -0.54626983 0.12580158 -0.27182043 -0.4895281
0.010118282 0.020678421 -0.6290905 -0.31647632 -0.38346836 -0.5452023 -0.5540269 -0.52204466
-0.15664274 -0.59133905 -0.1981977 -0.23150519 -0.51447535 -0.34678447 0.094241776 -0.24995783
-0.34178096 0.058973636 -0.4330522 -0.40399903 -0.72362477 -0.8785068 -0.14305232 -0.46235514
-0.3028528 0.15373938 0.23061737 -0.4108149 -0.3997915 -0.3689516 -0.21397924 -0.32752508
-0.33961397 0.10709452 0.10233665 -0.08857064 -0.41358873 0.073818356 -0.3719294 -0.62338966
-0.055927325 -0.3830464 -0.7588622 -0.6049566 -0.36839688 -0.29236445 0.07598892 -0.62897676
-0.3874598 -0.5938178 0.036991034 -0.3845789 -0.46078646 -0.71729666 -0.29249015 -0.45026135
0.28967127 0.19194265 -0.05624294 0.19819352 0.23066105 -0.0050084493 0.2824747 0.2042723
-0.09844211 -0.02378493 0.2457951 0.25585452 0.17911111 0.2078168 0.33144403 0.29896188
0.33019492 0.06306358 0.29172578 0.18699005 0.36399618 0.23896025 -0.10319613 0.43182805
0.27465898 -0.048505865 0.22524415 0.1807045 0.3354881 0.44198173 0.22736584 0.2724679
0.24898514 -0.04698759 -0.12474022 0.09409499 0.24285276 0.039539345 0.33843288 0.16969432
0.38344738 -0.11426013 -0.11395687 -0.1457121 0.26635554 -0.036335845 0.43003833 0.31760123
0.026486069 0.4323607 0.24705958 0.4164061 0.34592637 0.26161993 -0.03210308 0.20881128
-0.022069437 0.18250664 0.066267565 0.12375025 0.199957 0.26145127 0.34662062 0.05092712
-0.65083545 -0.70619255 0.02141898 -0.37001103 -0.32244748 0.013531547 -0.42169505 -0.298796
0.06037001 0.01597483 -0.5493377 -0.25027886 -0.20480531 -0.12645316 -0.37827292 -0.3756215
-0.5880675 -0.5398073 -0.3572503 0.056907486 -0.41258448 -0.6315558 0.17000227 -0.40313813
-0.71836853 0.08103016 -0.4192519 -0.4282066 -0.46016124 -0.7228429 -0.13385694 -0.6329619
-0.25864235 0.06953997 0.01635365 -0.20116016 -0.35658523 -0.39248717 -0.14802033 -0.54364204
-0.48162952 0.05248322 0.012395575 -0.09641524 -0.39966887 0.026982933 -0.60617477 -0.34728673
0.12921827 -0.5579767 -0.55776286 -0.51229215 -0.5141081 -0.22715224 0.09406382 -0.7101712
-0.6356279 -0.5855849 0.06900782 -0.44743615 -0.31759405 -0.5755262 -0.20632999 -0.53155625

gcn.convs.2.bias f4 [64]
00000000: a97a ccba 8dd4 2c3e a378 403b 4cf9 be3b
00000010: 7b48 c7bc 3536 53bb a30d d93c 07f8 063e
00000020: d272 283d 8dd5 c2bc 519e 133c 9579 3dbd
00000030: 4620 15bd 61b5 aebc 08f7 03bd b977 cd3b
00000040: 9c6c 403d db4d 08bc 19ed 6ebd 3239 cabb
00000050: baca 163d afd8 b5bc 9b9c 78bd 20ca 8bbb
00000060: f226 bbbc e608 17bd 96ba 153c c55d df3a
00000070: e74d 223c 119a 77bd e81b d8bb b8ab b03b
00000080: 0566 b63c a8ae 8d3c f130 073c d8bf 23bc
00000090: b793 253d f6cd 6dbc 12c6 3b3d 1a18 b13c
000000a0: 5e56 f9be cae6 e23c 1309 293c 9aad 9a3c
000000b0: b210 cfbc 2b55 a0be e000 c13e 3ce3 b93c
000000c0: c501 e3bc cb6e ebbc d1a2 23bd 6014 61bc
000000d0: 6fd1 d33b da71 b93d 5b2d 143d 59e0 b03d
000000e0: 5c5f 4b3c fd2c 153d c681 7bbc 9999 d63c
000000f0: ad09 c93c 7e54 f9b8 d690 4bbd e4fc b03d
-0.001560052 0.16877957 0.002936878 0.0058280583 -0.024326554 -0.0032228355 0.02649576 0.13180552
0.041125126 -0.02378347 0.009009914 -0.046258528 -0.03640773 -0.021326723 -0.03221801 0.0062703756
0.046978578 -0.008319343 -0.058331583 -0.006171369 0.03681443 -0.02219805 -0.060696226 -0.0042660385
-0.022845719 -0.03687372 0.009138724 0.0017041495 0.009906269 -0.060449664 -0.0065951236 0.005391564
0.022265444 0.017295197 0.008251415 -0.00999447 0.040424075 -0.014514437 0.04584319 0.021617938
-0.48698705 0.02769794 0.010317105 0.018881608 -0.025276516 -0.31314978 0.3769598 0.022691362
-0.027710805 -0.028739354 -0.039950196 -0.013737768 0.0064641754 0.090549186 0.036176067 0.08636541
0.012412872 0.036419857 -0.015350765 0.026196288 0.024540747 -0.00011888983 -0.049698673 0.08641985

gcn.convs.2.lin.weight f4 [64, 64]
00000000: 8bde 023e ed0e d43c 5189 d53c e5a3 1a3d
00000010: 730a 3abc 3543 be3c ade8 4dbb 07cc 2f3e
00000020: 2233 ab3d e337 e9bd 1b22 d2bd 84c0 243c
00000030: 46df 483a 9844 00be d0e3 44bd a8cc 153d
00000040: 9452 42bd 5c32 e33d abd1 d5bc fc98 5a3d
00000050: 74a4 18be 3a4d 8d3d f01f 633d 69e3 463c
00000060: 5a8d ed3c 8660 113d d318 f2bc 39f0 1fbd
00000070: 3954 c5bd abf9 84bd 7aec d8bd f4fe 993c
00000080: 34dd 393c e158 1fbd be19 af3c 8134 8f3d
00000090: 08ca 823d 6a6e 9ebd 0bec 1fbe e4eb c73d
000000a0: c4a3 963d cb69 61bd 63d4 d43d 8839 863d
000000b0: cf20 7c3c 26d9 4bbd 4866 93bd 3adb 26bd
000000c0: d481 74bd 46cb 49be 7991 553b 30e3 13bb
000000d0: 1bea 64bd a7fe 4b3d 7daf 853d 1871 8f3d
000000e0: 2bf2 7f3c 35dd 8abc cff8 d53d 2e5d 7dbd
000000f0: fa51 c93c 8241 44bc b4f5 d33c 482f de3d
00000100: 736d 91be 5f40 e0be 4be9 833d 07de 0bbf
00000110: c3ae 1b3e 18bb 9c3d b158 2a3e f8e0 28bf
00000120: 7abd e0be 9079 b0bd f43d d7bd 20e6 47be
00000130: 6038 3fbd ef42 a23d 9639 8a3d a204 97be
00000140: 9a97 9cbd 49c2 223d 1176 2abe f77c 2fbe
00000150: 6652 913c 3d1c 09bb cf02 7bbd d682 d63d
00000160: ad53 71be 8303 1abe 7035 6b3e ed56 d8bc
00000170: 17db 123d cf39 c53d ae90 cabd 1227 61bd
00000180: 6f07 34bf bbc6 d5bd 05f9 50be 0def 0dbf
00000190: 051d 0e3d f911 9a3e 5170 f73d 4348 353e
000001a0: bc80 29be 86e1 98bd 250e 943e c9ca 8abe
000001b0: 58cc 003b 9547 df3d 5788 29be f0b6 a8be
000001c0: 32f0 d13d ac57 55ba f19e 5cbe 6363 be3e
000001d0: 5019 f43d ff03 35be f2d1 343c 09cd c0bd
000001e0: 6b84 bdbd acbe 973b 91f6 10bf 0dd0 6fbd
000001f0: a01f a4bb 95c0 9cbd 6023 1abe 3e32 173e
00000200: 4ebb d23d 17e1 0b3d 95ab 91bc 5b0e 113e
00000210: 3f99 ecbc cc9a 953c 8957 aa3d 5d8c 863e
00000220: 9998 1c3e 8f4f 1bbd c646 c7bc 31fd 4ebd
00000230: b41f efbc a6f5 38bd 9a02 e6bd c3fe a33d
00000240: 26a0 60bd 44ff 913c 0dd2 98bd a1a6 e33c
00000250: 64ae 60bd 22f5 33bd 1c00 55bd 31a2 9a3d
00000260: 5e96 67bd a63f 3ebe 17e3 4b3c 9925 55be
00000270: 727d 25bd 6df0 2cbc 8867 f23b 6a97 84bd
00000280: 7373 afbc baca 0ebe 4b08 de3d 2e8b 873e
00000290: 79bc bbbb c851 e13c 0cb3 bdbd fb2b 9cbd
000002a0: 4f8a 49bc 7137 be3c a03b 363d 9d72 a73d
000002b0: 23b9 ecbc e419 e5bd 4137 03be 6eff 663d
000002c0: 2c18 14bd d845 a1bc 7654 c6bd cd22 24bd
000002d0: 3880 0c3e a9f5 67be ef87 403a 9df3 e3bc
000002e0: 7831 14bc f7e6 6fbd 7fb5 983e eb48 4e3e
000002f0: d26b c23a c4e8 723d 5fd6 9e3d b8fc 953d
00000300: 64ef 003e dad2 c13d 01a6 6ebc 3e15 643e
00000310: 7dc9 73bd 3ae3 4b3d ce16 1f3e a43c 743e
00000320: b799 3a3e 2d4a 1abd 24ee 9cbd 04eb 40bd
00000330: 27a0 213d 0761 e6bc 6291 bbbd 549a 29bd
00000340: ca42 0fbd 9420 253e 5a58 86bd e2b8 c8bd
00000350: 58f2 b7bd 13c0 48bd 7a8e debc ee63 8ebc
00000360: f82e 623c b931 0bbe d0ab 89bd 4a6d 42be
00000370: 503c d3bd 9149 f7bc 24ab 763c 3777 7ebd
00000380: f758 6bbd a195 55bd 2d67 883b 20e3 923e
00000390: 900f b83b 95b9 003d 5dfa fcbc 69be e03a
000003a0: 5ea1 b5bd 7b3b 393d 433a c73d 4766 39bc
000003b0: 7f18 56ba 8cfa 06bd 2480 7abc 5324 e4bc
000003c0: c263 203d 9b7b 22be 8b8e bcbd f444 7f3c
000003d0: 55fe af3c 2a4d d9bd c5c0 233d 80d7 783d
000003e0: 5e33 99bd 7251 2a3d 9458 833e 44e8 3f3d
000003f0: 7ad5 79bb 01f4 e6bd 7fa0 1f3b 2f04 d2bb
0.12780206 0.025886023 0.026066454 0.03775396 -0.01135503 0.023225406 -0.0031419203 0.17167674
0.08359362 -0.11387613 -0.10260411 0.010055665 0.0007662665 -0.12526166 -0.04806882 0.03657213
-0.047442034 0.1109359 -0.026100954 0.053368554 -0.14906484 0.068994954 0.05545038 0.01213918
0.028998066 0.035492443 -0.029552853 -0.039047454 -0.09635205 -0.06492933 -0.10591979 0.018798329
0.011344243 -0.03890312 0.02137458 0.06992436 0.06386191 -0.077359036 -0.15617387 0.097617894
0.073554546 -0.055032533 0.10392072 0.06553942 0.015388682 -0.049767636 -0.07197243 -0.040736414
-0.059694126 -0.19706449 0.003258793 -0.0022565834 -0.055887323 0.049803402 0.06527612 0.07003993
0.015621702 -0.016951183 0.10447847 -0.06185644 0.024575222 -0.011978509 0.025873996 0.10848862
-0.28403816 -0.4379911 0.064409815 -0.5463566 0.15203385 0.07652873 0.16635396 -0.65968275
-0.4389456 -0.08616936 -0.105098635 -0.1952138 -0.046684623 0.07922923 0.06749265 -0.29495722
-0.07646103 0.039736066 -0.16646601 -0.17137514 0.017739486 -0.0020921372 -0.061281975 0.10474174
-0.23567076 -0.15040402 0.22969604 -0.026408637 0.03585347 0.09630167 -0.09890877 -0.0549689
-0.7032384 -0.104382955 -0.20407493 -0.5544289 0.034695644 0.30091837 0.120819695 0.17703347
-0.16553015 -0.0746489 0.2891704 -0.27107838 0.0019653048 0.10902325 -0.16555916 -0.3295207
0.10250892 -0.00081383693 -0.21545006 0.371852 0.119188905 -0.17677306 0.011036383 -0.09414107
-0.09253772 0.004630884 -0.5662623 -0.058548022 -0.005008653 -0.076539196 -0.15052557 0.1476526
0.10289632 0.03415021 -0.017782012 0.14165632 -0.028881667 0.01826229 0.08317477 0.26278964
0.15292586 -0.03791767 -0.02432574 -0.05053443 -0.029189922 -0.045156144 -0.11230965 0.08007576
-0.05484023 0.017821915 -0.07461939 0.027789416 -0.05485381 -0.04393495 -0.052002057 0.07550467
-0.056539886 -0.18578967 0.012444279 -0.20815124 -0.040402837 -0.010555369 0.007397596 -0.064741924
-0.021417355 -0.13944522 0.108414255 0.26473373 -0.005729255 0.027504817 -0.09262666 -0.07625576
-0.012301042 0.023219796 0.044490457 0.081761576 -0.028896874 -0.11186579 -0.12814046 0.05639594
-0.036155865 -0.019686624 -0.096840784 -0.04007225 0.13720787 -0.22652306 0.00073444744 -0.027826125
-0.009044997 -0.058569875 0.2982597 0.20145003 0.0014833158 0.059304014 0.07755732 0.07323593
0.1259132 0.09464045 -0.014565946 0.22273728 -0.059518326 0.049777247 0.15536043 0.23851258
0.182227 -0.037668396 -0.07662609 -0.04709913 0.039459374 -0.028122438 -0.09158589 -0.041406944
-0.034975804 0.16125709 -0.065598205 -0.098008886 -0.0898177 -0.0490113 -0.027167547 -0.017381635
0.013805144 -0.13593186 -0.06722224 -0.18987003 -0.10314238 -0.030186446 0.015055452 -0.06212541
-0.05745789 -0.05214465 0.00416269 0.28688908 0.0056170896 0.031426985 -0.030881101 0.001714659
-0.08868669 0.04522274 0.097279094 -0.011315889 -0.00081671024 -0.032953784 -0.01528934 -0.027849352
0.039157636 -0.15867464 -0.092068754 0.015580405 0.02148358 -0.10610421 0.03997876 0.06075239
-0.07480501 0.04158158 0.25653517 0.046852365 -0.0038121627 -0.11277009 0.0024357138 -0.00640919

edge_feature_mlp.0.weight f4 [64, 5]
00000000: f26e 0f80 8e9e 0300 9d80 0080 573c 0000
00000010: c571 0e00 494a 1200 0ed7 0a00 54be 0180
00000020: 340b 0480 5855 0e00 d82d 0580 eac1 0c80
00000030: 337f 0a80 c85e 1080 e615 1680 b9bc 0180
00000040: 794d 0d00 2db1 0b80 8157 0a80 5c8f 0480
00000050: 5262 0200 e340 0480 7483 0980 bbc9 0b80
00000060: 9026 0800 ba11 0c00 31cd 0300 9896 0d00
00000070: ddf8 1000 89ad 0280 fd2d 0980 0065 0a80
00000080: a3da 0800 5531 0b00 1d65 0300 2f9e 0100
00000090: 1866 0500 af70 0c80 c2af 0400 d674 1000
000000a0: bfcc 1580 7ab8 0f80 079d 0600 74b0 0e80
000000b0: ce8b 0e80 b9e9 0000 67f3 0a80 adbb 0200
000000c0: b655 0c80 8e32 1300 532c 0380 029b 0f80
000000d0: 59f2 0600 0252 0f80 d291 0300 5e2f 0b00
000000e0: 1a75 0000 87d3 0c80 68dc 1000 c4bd 0b80
000000f0: 196c 0e80 726f 0f00 3df6 0800 9f02 0680
00000100: c329 0780 4040 1480 71b2 0a80 57f2 0c80
00000110: 7a19 0400 4ce8 0480 e0ab 0b80 97a2 0c00
00000120: 8c7a 0f00 3244 0b80 28ba 0c80 0340 0500
00000130: 6266 0080 4202 0b00 3e9f 1500 bc9b 0f80
00000140: 8e92 0600 8321 0f80 c522 0900 47c5 0b80
00000150: c57c 0480 de23 0000 877b 0380 d988 0600
00000160: a8ba 0400 25c0 1000 945c 0d00 da9c 1480
00000170: 57d4 0000 9fa2 0180 91b1 0800 72dc 0780
00000180: 6a64 0900 af36 0c00 08b5 0600 4e7b 0c80
00000190: 7538 0200 7cd4 0300 834e 0780 16ed 0b80
000001a0: 7471 0800 36f9 0900 8f4c 0900 4fdc 0300
000001b0: e0b2 0b00 8147 0280 99ca 0f80 9dfa 0b00
000001c0: fb02 0e80 4748 1300 b2dc 0680 9017 0780
000001d0: a979 0c80 b28d 0d80 17e6 0880 072e 0d80
000001e0: d557 0300 d6fa 0480 f3f7 0380 9701 0d00
000001f0: 97a2 0300 3b99 0700 8e05 0b00 d8e1 0700
00000200: 2d81 0400 21c6 0380 186e 1400 f1eb 1380
00000210: a07a 1500 564a 0300 04e2 0280 0101 0e00
00000220: 4fd5 0b00 ede0 0800 78a5 1380 d422 0100
00000230: dd7d 1580 6f39 0c80 87b8 0180 c8a3 0a00
00000240: fe61 0780 afe0 0c80 2017 0c00 dc74 0e80
00000250: a20b 0400 822a 0c80 828c 0680 86cf 1180
00000260: 4fba 0000 edf7 0800 187c 0a80 4816 0f00
00000270: 4f83 0980 0ef2 0c00 8cfe 0180 a34b 0a80
00000280: dbe3 0c80 a13d 0880 9b16 0700 e4b3 1400
00000290: 27c0 0400 e762 1080 ccbb 0600 994e 1400
000002a0: b835 0200 22e3 0b00 fc6b 0b80 b73e 0a80
000002b0: e440 0700 1be3 0900 5825 0500 ebc3 0080
000002c0: 8a85 0100 b4b1 0700 db46 0200 6ca4 0780
000002d0: ac2d 0a00 5d57 0b00 2975 0e80 5204 0880
000002e0: f640 0e80 6fbb 0100 67f6 0b80 fdf9 0b00
000002f0: 58f5 0000 4fd7 0a80 2ca6 0b80 12cd 0900
00000300: 29e6 0480 fe0a 0f80 6261 0f80 e36b 0100
00000310: 8c66 0800 f22c 0200 5ed7 0d00 0ff7 0a00
00000320: 24ca 0800 96e0 0d80 e924 0600 ca14 0180
00000330: 8624 0880 a331 0e80 e441 0480 75af 0b00
00000340: 01d2 0180 dbae 0c80 f4d7 0580 bc91 0080
00000350: d3e4 0600 b5f8 0a00 49b6 0a80 3f3a 0280
00000360: e55f 0b80 d0e6 1380 1ea2 0280 c2c1 1300
00000370: 73fd 0580 79d7 0800 3c80 0280 df45 1080
00000380: 1752 1380 5f20 0700 e373 0880 7b72 0a00
00000390: 8cd2 0780 7ac1 0400 3a05 0a00 6701 1380
000003a0: 5a7f 1300 cc45 0f80 f2ca 1380 1f85 0100
000003b0: 5abe 0000 ea8f 0600 80e9 1300 6988 0500
000003c0: 0b21 0100 1a74 0a80 0aec 0080 5447 0b80
000003d0: 2070 0b80 5f34 0880 0289 0100 983f 0280
000003e0: a553 0580 eb59 0f80 976e 1200 eee6 0780
000003f0: 4fcc 0080 3ee6 0200 28fa 0980 67aa 0b00
-1.417332e-39 3.32385e-40 -4.6138e-41 2.1646e-41 1.32651e-39 1.679687e-39 9.95502e-40 -1.60112e-40
-3.71361e-40 1.316313e-39 -4.75623e-40 -1.171589e-39 -9.63985e-40 -1.503369e-39 -2.028237e-39 -1.59536e-40
1.221653e-39 -1.073749e-39 -9.49745e-40 -4.1877e-40 2.18942e-40 -3.90619e-40 -8.73676e-40 -1.082558e-39
7.48518e-40 1.108385e-39 3.49115e-40 1.247884e-39 1.558643e-39 -2.45924e-40 -8.43017e-40 -9.54587e-40
8.13116e-40 1.027887e-39 3.11779e-40 1.48581e-40 4.95802e-40 -1.142449e-39 4.30392e-40 1.511281e-39
-2.001994e-39 -1.44371e-39 6.07344e-40 -1.348996e-39 -1.33585e-39 8.3844e-41 -1.005671e-39 2.50996e-40
-1.132773e-39 1.76301e-39 -2.91407e-40 -1.433139e-39 6.37951e-40 -1.406951e-39 3.27817e-40 1.027183e-39
4.2008e-41 -1.177908e-39 1.548435e-39 -1.078266e-39 -1.324475e-39 1.417511e-39 8.23018e-40 -5.51953e-40
-6.5783e-40 -1.859758e-39 -9.82368e-40 -1.188961e-39 3.76481e-40 -4.50674e-40 -1.071848e-39 1.160352e-39
1.421494e-39 -1.034654e-39 -1.168806e-39 4.8214e-40 -3.6728e-41 1.011e-39 1.985671e-39 -1.4334e-39
6.03587e-40 -1.389554e-39 8.38992e-40 -1.08096e-39 -4.12101e-40 1.2867e-41 -3.1982e-40 6.00105e-40
4.34302e-40 1.538296e-39 1.227072e-39 -1.892978e-39 7.6173e-41 -1.50173e-40 7.98383e-40 -7.2193e-40
8.62541e-40 1.121643e-39 6.15955e-40 -1.14626e-39 2.03924e-40 3.51732e-40 -6.71013e-40 -1.095241e-39
7.75383e-40 9.1592e-40 8.53984e-40 3.54538e-40 1.074359e-39 -2.09322e-40 -1.450211e-39 1.100094e-39
-1.286766e-39 1.770803e-39 -6.30184e-40 -6.51301e-40 -1.14567e-39 -1.244692e-39 -8.17225e-40 -1.210373e-39
3.07015e-40 -4.57325e-40 -3.64454e-40 1.194432e-39 3.33833e-40 6.97817e-40 1.012183e-39 7.23866e-40
4.13682e-40 -3.46582e-40 1.876204e-39 -1.829514e-39 1.972535e-39 3.02173e-40 -2.6475e-40 1.286057e-39
1.086711e-39 8.15372e-40 -1.804233e-39 1.0433e-40 -1.973697e-39 -1.122629e-39 -1.58031e-40 9.77109e-40
-6.78001e-40 -1.182627e-39 1.110322e-39 -1.327618e-39 3.71515e-40 -1.117275e-39 -6.01418e-40 -1.635649e-39
6.6835e-41 8.23623e-40 -9.62871e-40 1.385525e-39 -8.73624e-40 1.188859e-39 -1.8315e-40 -9.45488e-40
-1.183765e-39 -7.56792e-40 6.50958e-40 1.901243e-39 4.36273e-40 -1.504847e-39 6.18382e-40 1.864905e-39
2.02942e-40 1.09167e-39 -1.048928e-39 -9.40853e-40 6.66127e-40 9.0799e-40 4.72574e-40 -7.0282e-41
1.3974e-40 7.06596e-40 2.09089e-40 -7.01832e-40 9.34739e-40 1.04153e-39 -1.327726e-39 -7.36234e-40
-1.309e-39 1.59074e-40 -1.098583e-39 1.09987e-39 8.8013e-41 -9.95593e-40 -1.069802e-39 9.00085e-40
-4.49908e-40 -1.381476e-39 -1.412467e-39 1.30538e-40 7.71471e-40 1.99794e-40 1.27112e-39 1.006983e-39
8.07198e-40 -1.274428e-39 5.64254e-40 -9.9293e-41 -7.47786e-40 -1.303503e-39 -3.90979e-40 1.073133e-39
-1.67171e-40 -1.164752e-39 -5.36647e-40 -5.228e-41 6.331e-40 1.007574e-39 -9.83747e-40 -2.04566e-40
-1.044591e-39 -1.827674e-39 -2.41828e-40 1.814382e-39 -5.50098e-40 8.11981e-40 -2.29673e-40 -1.494433e-39
-1.774323e-39 6.54461e-40 -7.76256e-40 9.59423e-40 -7.18378e-40 4.36748e-40 9.2023e-40 -1.745377e-39
1.79056e-39 -1.402571e-39 -1.817677e-39 1.3959e-40 6.8285e-41 6.0264e-40 1.828638e-39 5.08112e-40
1.03689e-40 -9.60004e-40 -8.4675e-41 -1.035778e-39 -1.050413e-39 -7.53471e-40 1.40985e-40 -2.06484e-40
-4.89183e-40 -1.409789e-39 1.692711e-39 -7.2569e-40 -7.3292e-41 2.66266e-40 -9.16259e-40 1.07132e-39

edge_feature_mlp.0.bias f4 [64]
00000000: 8c25 6eba 2b6a 35b3 1a7e f1b9 320f 85a9
00000010: c6e3 2090 9047 ddbc 1763 7a3d 74d0 b7bb
00000020: a946 16b4 b045 d98c acd6 4598 e404 d9ac
00000030: 6804 afb9 34b7 09b9 f180 45b6 7269 529a
00000040: 7980 6ea8 e879 ec9b 79ca bebb 6879 8aaf
00000050: 1f44 7dba d25f 36bb e500 00ac 05c5 8a92
00000060: 200c 7aaf e448 1db6 72cc e4ba 6e28 fe84
00000070: 113c aba7 12a1 dfba 1757 41ba 3e3a a9b3
00000080: 7f13 669c 9d8c 95b4 f292 008a 28e1 63b5
00000090: 6fd0 dc96 9c9a 52bc 34f3 46bb 58e9 cd87
000000a0: f100 4299 8131 c4bb 1e38 e3ba 2f64 079e
000000b0: c681 67b9 e54d 78b3 10c7 4686 bc73 a9bb
000000c0: 4836 26bb dac8 a38b f3a4 d2ba 7acf 0abc
000000d0: 8317 8797 2b83 9db9 0b64 22bb 42a1 9cba
000000e0: 5b53 5bbc 2dd0 42bc c185 6cae 446e c195
000000f0: 9df5 bd94 bc69 9cb9 d8a9 1fb9 0532 cfbb
-0.00090845744 -4.2238906e-08 -0.00046061055 -5.9090225e-14 -3.1729906e-29 -0.027011663 0.061129656 -0.0056095663
-1.3995545e-07 -3.3476085e-31 -2.5570035e-24 -6.168054e-12 -0.00033381884 -0.00013133587 -2.9430341e-06 -4.351216e-23
-1.3239512e-14 -3.9121705e-22 -0.0058224765 -2.5188318e-10 -0.0009661335 -0.002782811 -1.819039e-12 -8.757593e-28
-2.2741675e-10 -2.343725e-06 -0.0017455949 -5.9752242e-36 -4.752716e-15 -0.0017061552 -0.0007375343 -7.88027e-08
-7.6125814e-22 -2.7855722e-07 -6.190613e-33 -8.4891735e-07 -3.5674457e-25 -0.012854245 -0.0030357363 -3.098212e-34
-1.0029755e-23 -0.0059873466 -0.001733545 -7.167558e-21 -0.00022078221 -5.7812844e-08 -3.738591e-35 -0.0051712673
-0.0025361944 -6.3087524e-32 -0.0016070887 -0.008472318 -8.730106e-25 -0.000300431 -0.0024778869 -0.0011949914
-0.013386573 -0.011890453 -5.3778985e-11 -7.812605e-26 -1.9181e-26 -0.00029833417 -0.00015226693 -0.0063231015

classifier.0.weight f4 [64, 192]
00000000: a81d d7bd 2545 f73d 303b 69be 3a7e eebd
00000010: b2e1 8c3d c351 1f3e 4859 18bd ea8f 38be
00000020: 08fc 623e ebce 97be 81b0 a13c 0e09 893e
00000030: 26db abbe af15 9c3c a517 25be 7dea dabd
00000040: 4aae 6f3e eb95 a53b 2847 913e fb80 1c3d
00000050: 36ec 73be 7ef5 53be d3e4 adbd bdf0 d23d
00000060: 267a 473e e3e0 853e ed2d cbbd a960 18be
00000070: b1ab 0c3d 027c 6dbe f1b0 4dbd 6785 81be
00000080: 87a4 a3bd d13e 3c3e 8bb6 493e 3d17 08be
00000090: b74e 58be 440e 29be 999c 413e 4193 74be
000000a0: 63e3 a5bb 9c67 633e 716c 62bd 8f5a bfbd
000000b0: f236 6fbe 63bf c03e 4a3e e3bd 7fb2 3d3e
000000c0: 34d0 eebd 89ea 89be b47f 413e f850 ab3c
000000d0: 01de ebbd 3961 9cbe 2db0 b63a 5b2f cfbe
000000e0: 2e38 6dbd 8fce 63be 3ae2 46be 3f07 aa3c
000000f0: 6509 e1bd cfb1 ddbe 8e54 76be b73b 47be
00000100: 2e3a d23d 50a7 33be 1987 123e f9be 493e
00000110: a34f 5cbc 4c0d fbbd fc5b a2bd 04fd c53e
00000120: f0e1 6fbe b614 9e3e 2de7 473d 48e8 abbe
00000130: 75da b23d ff91 723d 374c f33d f9d1 0e3e
00000140: 1cf9 9bbe c7b7 b33d 99b1 a2be f02b af3d
00000150: e7a3 b23e 2616 163e 93ca 803e f98f e6bc
00000160: 101b 46bd 00ef 94be 7d53 663d f43a df3d
00000170: b6b1 093c 1739 5b3e 0511 edbd e14b 863e
00000180: 5bea 453e 3ce6 88be a5db 0bbe ece2 993d
00000190: 57fb 783e 5978 0b3e 3f4e 95bd 4b3a 8b3e
000001a0: af2f 24be e977 97be a529 053e 124e c73d
000001b0: 783c 873e 08c6 3fbe a78d 363e b5de 5dbe
000001c0: e0f8 6b3e aeac b23e 3b17 70be 41df 8bbc
000001d0: c849 82bc 426d 373e 72cc d6bd 6a6e 573e
000001e0: a279 cb3d a104 a53e f646 bd3d ab65 0a3d
000001f0: 4de2 173d 1c4c 2e3e a67d fe3d 6969 ac3e
00000200: a60a 0580 5c52 0300 e0b2 a014 5d12 0100
00000210: 39cd 060c 7fc8 17bc d2a0 0a3d 7f4f a6a9
00000220: f1e8 0600 af60 0480 57a1 0200 ab77 0a80
00000230: 74e7 888c b827 0480 e203 0700 8f6c 0880
00000240: 2f8e 0700 0a2c 0400 57c1 772d 3198 0280
00000250: 80a3 0700 a4bf 0080 5042 0500 8cb6 c50e
00000260: 5252 0380 6548 0380 f157 183c a9f8 9202
00000270: cea8 0500 998c 1dbd d5d0 21bc 8c8e 0200
00000280: 549d 0180 741c 0580 2489 2586 9e59 0880
00000290: 8b3b 0680 c1a0 cc39 3e44 8aad ac10 d382
000002a0: d6d9 0280 9bdb 81ac d8a2 cfbb 1dcf 0b00
000002b0: 431c 0000 6812 74a6 8ea0 2d05 7ce9 0500
000002c0: 15a9 0200 9e0e 0380 73df c5ba ae09 a820
000002d0: d923 7d96 98e3 b7b2 af91 633c 7bc4 0180
000002e0: 048c e03b d92d 9187 981d 8f2a 0041 0300
000002f0: 8e99 0800 55fb 0580 fa44 0080 f7c2 91ad
00000300: a4c1 3d3d 3c04 39be 83e8 1dbd 987c 043c
00000310: 6346 563d fe03 483c a013 8ebc 9c71 b83e
00000320: ee48 b8bd 0cec 463e 6eaa 4b3d 1b67 a4be
00000330: 4b3a 693d f319 483d 779e 0e3e 78ea 03bc
00000340: f36e 94be 8773 073e 8fc3 53be 5431 783c
00000350: 15fa 823e fc48 fa3d af90 d03e 53f1 b4bd
00000360: 47c2 3d3d cfdd 84be d530 0abd 51f4 bc3c
00000370: d8ee f1bc 2c8d 273e b21c 2abc 8820 573e
00000380: 5a6c 073e 8a73 0dbe 37e0 1cbc 0f11 6ebb
00000390: e638 533e da7d 0abd 29bb 7dbd e776 923e
000003a0: 9b69 2abe 39ee 8dbe fafe ca3c e14d c73d
000003b0: 97a8 433e 9141 25be 0912 333e 0067 51be
000003c0: caa0 e73d 93fc 4c3e 5264 36be a0e3 a03a
000003d0: 8fea 253d 171c 443e 3dec 89bd d092 823e
000003e0: dcb2 12bb 5b26 b73e 38ff b03d 098d dbbd
000003f0: 7eff aebd 7f50 803e c007 9c3d 603f bf3e
-0.10503703 0.12073735 -0.22776484 -0.116451696 0.068789855 0.15558533 -0.03719452 -0.18023649
0.22166455 -0.29650053 0.019737484 0.2676472 -0.33565634 0.019053308 -0.16122301 -0.10689256
0.2340633 0.005053272 0.283746 0.038208943 -0.23820576 -0.20699117 -0.084909104 0.102998234
0.1948019 0.26148137 -0.09920869 -0.14880623 0.034343425 -0.23191836 -0.050217573 -0.2529709
-0.079903655 0.18383338 0.19698541 -0.13290115 -0.21123777 -0.16509348 0.18907394 -0.23884298
-0.005062507 0.22207493 -0.0552792 -0.093434446 -0.23360804 0.37646016 -0.11095865 0.18525122
-0.11660805 -0.2693675 0.18896371 0.020912632 -0.11516953 -0.30542925 0.0013938003 -0.40465817
-0.057914905 -0.22246765 -0.19422236 0.020755408 -0.1098812 -0.4329972 -0.24055693 -0.19456373
0.10265003 -0.17544293 0.14309348 0.19701757 -0.013446721 -0.122583956 -0.07927701 0.38669598
-0.23426032 0.30875176 0.04880445 -0.33575654 0.087330736 0.059221264 0.11879771 0.13947286
-0.30463493 0.08775287 -0.3177612 0.08553302 0.34890673 0.14656886 0.25154552 -0.028144823
-0.048365653 -0.29088593 0.056231964 0.10899916 0.008404186 0.21408497 -0.11575512 0.26229766
0.19327681 -0.26738155 -0.13658006 0.07513985 0.24314629 0.13620128 -0.07290315 0.27192912
-0.16033815 -0.29583672 0.13004167 0.097316876 0.26413321 -0.18727887 0.17827474 -0.21666987
0.23044157 0.3489737 -0.23446362 -0.01707423 -0.015904322 0.17912772 -0.104882136 0.21038213
0.09935309 0.32230094 0.0924205 0.033788364 0.03708105 0.17021221 0.12426309 0.33674172
-4.62997e-40 3.05051e-40 1.6226425e-26 9.8423e-41 1.0384741e-31 -0.009264111 0.033844776 -7.385671e-14
6.34577e-40 -4.02026e-40 2.41549e-40 -9.61284e-40 -2.1093419e-31 -3.8159e-40 6.44241e-40 -7.73627e-40
6.93854e-40 3.8314e-40 1.40832545e-11 -2.38267e-40 7.01501e-40 -6.8748e-41 4.82966e-40 4.8740036e-30
-3.05037e-40 -3.01477e-40 0.009298311 2.1595496e-37 5.19733e-40 -0.038464162 -0.00987645 2.34807e-40
-1.48274e-40 -4.69385e-40 -3.1133806e-35 -7.66833e-40 -5.72373e-40 0.00039029683 -1.571909e-11 -3.1013233e-37
-2.61816e-40 -3.6907816e-12 -0.006336551 1.084489e-39 1.0138e-41 -8.467945e-16 8.16391e-36 5.42936e-40
2.44326e-40 -2.8075e-40 -0.00150965 2.8466713e-19 -2.0448489e-25 -2.1407502e-08 0.013889714 -1.6232e-40
0.0068526287 -2.1844122e-34 2.5422438e-13 2.98824e-40 7.89769e-40 -5.49338e-40 -2.4744e-41 -1.6571173e-11
0.04632725 -0.18068022 -0.03855182 0.008086346 0.05231322 0.012207983 -0.017343342 0.36024177
-0.08998285 0.19425982 0.04972308 -0.32109913 0.056940358 0.048852872 0.13927637 -0.008051507
-0.28990898 0.13227664 -0.20680068 0.0151484795 0.25581422 0.12220952 0.40735385 -0.088350914
0.046327855 -0.25950477 -0.033737976 0.023065718 -0.029532835 0.16362447 -0.010382818 0.21008503
0.13224927 -0.13813606 -0.009574941 -0.0036326086 0.20627174 -0.033811428 -0.061946068 0.2860634
-0.16641848 -0.27720812 0.024779785 0.09731651 0.1910728 -0.16138293 0.17487349 -0.20449448
0.11309965 0.20018224 -0.17811707 0.0012274869 0.040506896 0.1915134 -0.06734512 0.25502634
-0.002238444 0.3577145 0.08642429 -0.1072026 -0.08544825 0.25061414 0.07618666 0.3735304

classifier.0.bias f4 [64]
00000000: 09ef 2b3f c765 d93e 5a00 b43c 5b16 7c3d
00000010: 4600 103f 6bd3 063f bd73 f03e 9b3d 473d
00000020: c1f6 223f 01b1 50bd 9deb 1dbc df5c d23d
00000030: 7292 0a3e c8c4 b13d 4d5d 323f 8282 313f
00000040: 983b 4f3f d10b 203f 85a3 d73d 1489 353d
00000050: 606b e43e 9bea 4c3f 4063 3f3f 25e9 b73e
00000060: 1073 be3c 7ff1 cd3e e637 043f 3df2 043f
00000070: b514 153f 8c70 ff3e 2194 1a3f ba7f 4a3e
00000080: 2ea3 68bd 36f8 493f 884a ea3e b1cc 063f
00000090: 3238 d23e 6a6f d93e c238 f1bd 27ec 9e3e
000000a0: a4a9 d33e a2e7 75bd 975d 80bd 8631 373f
000000b0: 56f3 143f 421a e1bd 7ddf 5abd 188f 1d3f
000000c0: 79f4 3a3f 09b3 983e 5fac a53e 9a9e d63e
000000d0: c259 123f 4f9b f43e 5405 4e3e b5b5 29be
000000e0: b4bf c13e 20eb f93e b43b 263e b85f 1bbe
000000f0: 9e53 89be 15a5 67bd 18f6 34a6 9137 d93e
0.67161614 0.42460462 0.021972824 0.061544757 0.5625042 0.5266635 0.469633 0.048642736
0.63657767 -0.050950054 -0.009638694 0.1027162 0.13532427 0.08680111 0.69673616 0.69339764
0.8095031 0.6251803 0.10529236 0.04432018 0.4461317 0.8004548 0.7476082 0.35920063
0.023248225 0.4022331 0.51647794 0.51932126 0.5823472 0.49890554 0.60382277 0.19775286
-0.056796245 0.78894365 0.45759988 0.52656084 0.410585 0.42467815 -0.11778404 0.31039545
0.41340363 -0.060035355 -0.06267851 0.7155994 0.581838 -0.109913364 -0.05343579 0.6154647
0.73029286 0.29824093 0.3235807 0.41917878 0.5716821 0.4777474 0.2011922 -0.16573222
0.3784157 0.488122 0.16233712 -0.15173233 -0.26821607 -0.05655392 -6.2783564e-16 0.42425206

classifier.3.weight f4 [1, 64]
00000000: 31ee 4bbd 28e6 fd3c 21d4 1ebb 499b fe3d
00000010: 2da0 6cbd 74f0 6dbd 0a94 e43c ce5a 51be
00000020: a5f6 a0bd c8df afbe 1427 fdbb 4fd7 f8bd
00000030: 33aa 913d 4a17 6d3d eb88 25bd 9dd0 2dbd
00000040: c19a 81bd 707f 88bd 20f4 8a3d fc7a b43d
00000050: 5257 6e3d 23b4 47bd ec47 1cbd 6caf b6bd
00000060: b479 aa3d e221 29bd 189a 123d 8ab4 103d
00000070: beee 98bd b23c d93c 32f9 a3bd 4075 e23c
00000080: 723b 9f3d a014 6cbd 4ced 0c3d 2014 4bbd
00000090: 4855 783d 76c3 e43c 8a5f 023e 5cd0 1d3d
000000a0: f465 393d 6a5e 9d3d 0a82 f23d 99d4 92bd
000000b0: 09d0 7abd 4aa0 293e 0d22 9fbc 6e86 84bd
000000c0: 6400 91bd 6be0 81bd 5b7f 6dbd 6479 01be
000000d0: b4cf 073d fb36 003d 4820 1abe 49f5 cfbe
000000e0: 2ed0 eb3c 254b d33c a88c 2b3d 56ec 97be
000000f0: 860c fdbe 4510 bf3d 746f 4735 7508 243d
-0.049787704 0.030993536 -0.0024235325 0.12431962 -0.057769943 -0.058090642 0.027902622 -0.20444795
-0.07859544 -0.3435042 -0.0077256057 -0.12150442 0.07112541 0.05788354 -0.04041378 -0.042435277
-0.06328345 -0.06664932 0.067848444 0.0881252 0.058188744 -0.048755776 -0.038154528 -0.08920178
0.08323994 -0.04129208 0.035791487 0.035328425 -0.074674115 0.0265182 -0.080065146 0.0276438
0.0777501 -0.057636857 0.03440599 -0.04957974 0.060628206 0.027925234 0.12731758 0.038528785
0.045263246 0.07684024 0.11841209 -0.07169456 -0.061233554 0.16565052 -0.019425416 -0.06470953
-0.07080153 -0.063416325 -0.057982784 -0.12643963 0.033157066 0.031302433 -0.15051377 -0.40616825
0.028785791 0.025792668 0.041882187 -0.29672498 -0.49423617 0.09329275 7.429546e-07 0.040047128
