results/full_model/best_gcn_model.pth (torch, 303851 bytes, 13 tensors)

node_embedding.weight f4 [64, 770]
00000000: 0eeb cbbe 9d2a 39bd f81b 333e b22d 0a3d
00000010: 7b05 15bd 694b 44be e971 3e3d 4286 693e
00000020: 4c9a 563e 66a0 08bd 51c0 2d3e 4c1f 28bd
00000030: 73f8 27bd f0de 22bd 0708 ba3d e90d 08bd
00000040: 2e73 eb3d 1f5e 3bbe c397 7cba 41c1 a23c
00000050: 33d7 b33c 2f96 de3d 058a 03bb e9d2 a8bd
00000060: db3e 8ebe 9915 873e a8fa ac3d f08e 18be
00000070: 183c 2b3e 3efd 653e d6b6 733e d2ec 6b3e
00000080: 08bf 393c 0210 aabe 9b58 523d b063 faba
00000090: 9be9 c1be 6d7d c5bd 096c 42be 4377 3abc
000000a0: be64 79be acf7 aa3d 1413 dbbd 4183 b83e
000000b0: a541 1c3d e8a5 25be ebaf 51be b52b 43be
000000c0: 2400 a43d 5ec8 8f3d 1f59 7d3b 3ec6 73be
000000d0: bb4b ccbd bc52 b7bd 2d6a 9f3d 0949 153e
000000e0: e9b6 583e 1d36 fcbd 198d 243e be85 e33e
000000f0: b1b6 9abc 6f77 ac3d d5e0 51bd 3f93 60be
00000100: 5cc1 fcbd 0c55 98be 3b9f 75be 2181 293d
00000110: 9486 3c3e d669 aabc 7c7b 19be 2d9c 3bbd
00000120: 1991 1b3e dbf1 443e 11bc fa3d 289f 36bd
00000130: b1b7 e8bd 43a4 f0bd 801a 33be 1f92 a63c
00000140: 1b04 eebb 4787 18bd 6383 e13d 1e37 873d
00000150: 8650 dcbd c125 9f3e 5a24 4e3e d76e 10be
00000160: 795e 453d 56ae 253c 790a 0dbe 16eb d23c
00000170: 395e 323d f795 bdbe cc2a 543d 5333 e23d
00000180: 5888 31bc d19e fabd db18 23be c828 82be
00000190: c761 0f3e 491e 6fbe 570f 11be 123a e5bc
000001a0: c84d 13be 65e6 6bbd 33e0 1f3e 7d86 acbc
000001b0: 5d21 683e 6270 8d3e 0d2f 0b3e 82fd aebd
000001c0: b1c6 153b 3aa7 373e 860f 4bbd be01 1cbd
000001d0: d0d0 72be dd8b 42be d783 83be b755 9b3e
000001e0: 29d5 8abd 209e 2fbe 6d45 513e a5b8 953e
000001f0: e6e8 613e 707e 1a3d 82a1 1bbe 3d5c 0c8f
00000200: 1177 983d 61d7 763c 1a90 bc3d 952e a5bd
00000210: 3036 733e c08d 38bd 8b59 993c eba8 4d3c
00000220: a9c8 5fbd 8602 48bd 8427 463e 7986 203e
00000230: b282 2e3e 2baf 8c3e e8be 9ebc 9868 76be
00000240: e095 a2bd ccdf 563c acad 493e 4740 163e
00000250: 5035 8fbd 3f1e 93bd e2ae 1b3e c47d 72be
00000260: f70f 77be d6fe da3d 3970 033e 575e f33d
00000270: c264 a6be 2af5 43be 3000 f0bd c155 cb3b
00000280: 635f e93e e7a4 c13c 21ab 12be e423 31be
00000290: 518d 27be 89f9 893d acd9 83be 9119 2bbe
000002a0: f25c 6bbe 49ce df3d b0b3 ee3a eff7 823e
000002b0: e81e 81bd 8256 a33c 7ef5 9b3e 3dc8 aa3d
000002c0: 1214 67be 188d 953c 79c9 8e3e b16e 79bd
000002d0: d65f 803d 744c b7bd 1a57 cbbe 25c4 2b3e
000002e0: d972 03be 83ff bcbc ca84 99bd 27f8 363e
000002f0: 25e4 803e 9e3b ee3d 09f3 563e e758 8c3e
00000300: 4814 183e e953 5b3b 85ed a43e 4133 d63e
00000310: 18c9 93bd 363b 19be 0317 0e3e 36c4 a1bc
00000320: bfe9 153e fc8c 453e 2572 6e3d fd95 5dbe
00000330: b361 1f3d 0f6a f7bb 8808 a33c 20b3 523e
00000340: 5527 103e aeeb bfbe d9b1 6cbe 8b36 083e
00000350: 60f2 a4be 2fa9 a9be f583 8b3e d5ac b03e
00000360: d82d bd3b c92b 0b3e 225c 373e 1cf0 24be
00000370: 0ffb 57be 2271 d5bd bc68 e13d 5203 550e
00000380: a21b 983e 7aa5 6d3d d3cd da3c 56c3 d9bc
00000390: f0a6 563e e4e2 953d 08cc 223d a84a 9d3e
000003a0: 89cd c93e 55e0 afbe 4451 a1bd ec79 85bd
000003b0: a41f 3ebe 2a69 27bf 3fa7 cc3d 51ef 0f3e
000003c0: d9ef 6cbe 8e20 b83d acbd 1a3e 4c29 8e3e
000003d0: 73d3 65be 1444 333e fc8c 803d f675 ea3d
000003e0: 50b4 75bc 6153 273c ff2b 16be 97ff 86bc
000003f0: 85a6 2ebe fd2e 88bd 57ef 6b3e 4ef3 ebbd
-0.3982777 -0.045206655 0.17491138 0.033734985 -0.03638218 -0.19169392 0.046495352 0.22805122
0.20957297 -0.033356093 0.16967894 -0.041045472 -0.041008424 -0.03976339 0.09083562 -0.03321639
0.11496578 -0.18297623 -0.00096356514 0.019867541 0.0219532 0.10868489 -0.002007128 -0.08243353
-0.2778233 0.26383665 0.084462464 -0.14898276 0.16722143 0.22459885 0.23800215 0.23039559
0.011337049 -0.33215338 0.051354032 -0.0019103196 -0.3787354 -0.09643064 -0.18986525 -0.011380973
-0.24354836 0.08348021 -0.10696998 0.3603764 0.03814854 -0.1617657 -0.20477264 -0.19059642
0.08007839 0.07020639 0.0038657857 -0.23806092 -0.09975382 -0.08951327 0.07783923 0.14578642
0.21163525 -0.12315009 0.1606945 0.44437975 -0.018885942 0.08421218 -0.051239807 -0.2193117
-0.12341568 -0.29752386 -0.23986523 0.041382913 0.18410712 -0.02080242 -0.14988512 -0.045803238
0.15192069 0.19232886 0.12242902 -0.044585377 -0.11363161 -0.117500804 -0.17490578 0.020333348
-0.007263673 -0.037238386 0.11011388 0.0660231 -0.10757546 0.3108349 0.20131055 -0.14104782
0.0481858 0.010112366 -0.13773526 0.025746863 0.04354689 -0.37028477 0.051798627 0.110449456
-0.01083573 -0.12237323 -0.1592745 -0.2542174 0.14002143 -0.23351397 -0.14166008 -0.027981792
-0.1438514 -0.05759277 0.15612869 -0.021060223 0.22668977 0.27624804 0.13592167 -0.085444465
0.0022854025 0.17934886 -0.04957535 -0.0380876 -0.23712468 -0.18998666 -0.25686523 0.30338833
-0.06778938 -0.17150164 0.2043664 0.29242435 0.220615 0.037718236 -0.15198329 -6.920297e-30
0.07444585 0.015065999 0.09207173 -0.080655254 0.2375114 -0.04505706 0.018719455 0.01255248
-0.054634724 -0.04883053 0.19351012 0.15676297 0.17042044 0.27477393 -0.01937814 -0.24063337
-0.07938743 0.013114881 0.19695157 0.14672957 -0.069925904 -0.07183503 0.15203431 -0.23680788
-0.24127184 0.10693137 0.12835778 0.11883228 -0.32498747 -0.19136491 -0.11718786 0.006205291
0.45580587 0.023638202 -0.14323093 -0.17298847 -0.16362502 0.06737048 -0.25752008 -0.16708972
-0.22984675 0.10928018 0.001821151 0.25579783 -0.06304723 0.019938711 0.30460733 0.08338974
-0.2256625 0.018255755 0.27888086 -0.06089658 0.06268279 -0.08950129 -0.3971489 0.16774042
-0.1283678 -0.023071056 -0.07496031 0.178681 0.2517406 0.11632465 0.20991148 0.27411577
0.14851487 0.0033466762 0.32212463 0.4183598 -0.0721609 -0.14963993 0.13875966 -0.019746881
0.14639948 0.19292063 0.058214325 -0.21639247 0.038911533 -0.007550485 0.019901529 0.20576143
0.14077504 -0.37484497 -0.23114718 0.13302056 -0.32216167 -0.3313689 0.27249113 0.3450686
0.0057732873 0.13590921 0.1790624 -0.1610722 -0.21091865 -0.10421969 0.110063046 2.6255876e-30
0.29708582 0.05801914 0.026709473 -0.026582401 0.20962119 0.073186666 0.03974536 0.3072102
0.39414623 -0.3435084 -0.07876828 -0.065173954 -0.18566757 -0.6539484 0.09992837 0.14056136
-0.2313837 0.08990584 0.15111417 0.27765882 -0.22443943 0.17506438 0.06276891 0.114482805
-0.014996603 0.01021275 -0.1466522 -0.016479297 -0.1705571 -0.06649587 0.2304052 -0.11521016

node_embedding.bias f4 [64]
00000000: 38e2 dd3e be6b c7be c99c a2be 1d7f 8d3e
00000010: 8b3b 3e3d 4a7e bcbe 67b4 cbbe c054 e1be
00000020: d145 ecbe ebaa aabe 9236 553e 5d0b 04bf
00000030: f7c9 b7be ea9f b2be 15d8 41be 838e 8cbd
00000040: f9a9 92bc 965a f6bd 4dcd c0be 3c81 86be
00000050: 2586 953e 5e60 2dbd 9996 e5bd ac19 8bbe
00000060: 3b3e cbbe 73c4 843e b9f8 b63e f503 49be
00000070: 43c1 3a3e 98ae ecbe cc9c cebe 961c b4be
00000080: 4f64 1abe 262c d3be fd83 c4be 8642 733e
00000090: 40f8 c83d c41f fabe 0e30 00bf 0e1c 77be
000000a0: e8cd 513b d92a e83e 9d79 983e b5fb afbe
000000b0: bb7b a3be cc48 d33e a42e c43e 67c0 17bf
000000c0: 1bfa aebe 82a4 03bf c51c 62be ad68 eebe
000000d0: 600b 0abf 33fe ed3e 15ff c03e 4d00 253f
000000e0: 9a31 b03e 4cdf c5be e46e b93e fa61 113f
000000f0: 1d09 173f 9518 7bbe aec0 023e 9912 b03e
0.43336654 -0.38949388 -0.31760243 0.27636042 0.046443503 -0.368151 -0.39786074 -0.44009972
-0.46147016 -0.33333525 0.20821598 -0.5157984 -0.35896274 -0.3488763 -0.18930085 -0.068631195
-0.017903315 -0.12028997 -0.37656632 -0.26270473 0.29203907 -0.04232823 -0.11210365 -0.27168024
-0.39695916 0.2593113 0.35736635 -0.19630416 0.18237786 -0.46226954 -0.40354002 -0.3517806
-0.15077327 -0.4124462 -0.3838195 0.23755845 0.09812975 -0.4885236 -0.50073326 -0.24131796
0.0032013599 0.4534519 0.29780284 -0.34371725 -0.31930336 0.41266477 0.38316834 -0.5927796
-0.3417519 -0.51422894 -0.22081287 -0.46564236 -0.53923607 0.46483 0.37694612 0.64453584
0.34412843 -0.38646924 0.36217415 0.56790125 0.5899828 -0.24521096 0.12768814 0.3438919

gcn.convs.0.bias f4 [64]
00000000: 1ab8 b5bf 6498 77bf c623 793e efec 8ebf
00000010: 17f0 71bf 9fe5 dbbc 1ce6 9ebf 4312 73bf
00000020: 1413 0e3e f76c 643e e56c 87bf 2691 89bf
00000030: bf0c 0d3e 9fa4 99bf 669e 9dbf 66ab a8bf
00000040: 9fe0 3abf d083 74bf 1195 7fbf c48d 87bf
00000050: f08d 5abf 8584 9abf 6365 2cbc 2eb4 683d
00000060: b09c 74bf 0cfd 90bf 82bd 98bf 517a 78bf
00000070: 664f 99bf 0ce2 a5bf 98e8 a0bf c081 8abf
00000080: 4a37 9ebf 06d6 7b3d d0e1 89bf 3884 86bf
00000090: f782 82bf 0dad 92bf cf0d ab3d d950 65bf
000000a0: 430e a5bf 6255 f23d 200b 8cbf 39fe 9cbf
000000b0: 9eee 1a3d 07e5 263e 3810 89bf 57ce 98bf
000000c0: 0ea0 9a3d 59fa 9dbf 0fac a4bf cef3 91bf
000000d0: 73b3 6cbf 6bb6 88bf 457e 88bf ba5b 92bf
000000e0: f6e4 8dbf d90c 78bf 0874 3e3e 9dd6 33bf
000000f0: 470e 64bf 63b3 39bf f229 9fbf e612 8fbf
-1.4196808 -0.96716905 0.24330053 -1.1166056 -0.94506973 -0.02684289 -1.2413974 -0.9494974
0.13874465 0.22307192 -1.0580107 -1.0747421 0.13774393 -1.2003363 -1.2313964 -1.3177307
-0.72998995 -0.9551363 -0.9983683 -1.0590138 -0.8537283 -1.2071692 -0.010522219 0.056812458
-0.95551586 -1.1327224 -1.1932833 -0.9706164 -1.1977355 -1.2959609 -1.2570982 -1.0820847
-1.2360623 0.061483406 -1.0772038 -1.05091 -1.0196217 -1.1459061 0.08352243 -0.8957649
-1.2894977 0.11832692 -1.0940895 -1.2265083 0.03782522 0.16298304 -1.0708075 -1.193797
0.07550059 -1.2342025 -1.2865008 -1.1402528 -0.9246132 -1.068067 -1.0663534 -1.1434243
-1.1085498 -0.96894604 0.1859895 -0.7024935 -0.89084285 -0.7253935 -1.2434676 -1.1177642

gcn.convs.0.lin.weight f4 [64, 64]
00000000: 8004 34be 6011 8dbc 5e3f c73d 53dd e63d
00000010: 8273 493e 01aa f53d 78c9 8b3e 6429 99bd
00000020: c9e9 553e 229b 3ebd e90e 313e 1db0 dbbd
00000030: 77d5 b93d f366 823d 0211 0ebc 24c2 1b3e
00000040: c095 00be c809 93be bb76 d13d af00 89be
00000050: 28a7 10be 8cfb 5ebe 8d85 83bc 8bee 1bbd
00000060: 8040 5c3e 933d 9b3d 5fb1 c7bd ad6e c0bd
00000070: f358 cc3d accd 773d c5d7 22be fb1c 6dbe
00000080: b09d 99bc 314d 3bbe b964 cf3e e7dc 953e
00000090: 4257 583c 468e 183d 4b2f f73c 8f30 e93d
000000a0: 8ddb 5c3e b447 68be a0c4 d7be 3a95 47be
000000b0: 8b3a 093e 150e 03be 20ea d13c 486a e03c
000000c0: dce5 0ebe 0b43 a3be e242 92bd 3dff 25bc
000000d0: 28c0 093e a364 25bd d94b 86be bcbb 0fbe
000000e0: 44df 8abd bcd9 853d 352b 24bd 16ee 88be
000000f0: fb86 e5be d2c8 123e 29c9 8ebe 51b4 903d
00000100: 3821 06bd 6bed 5f3d 0586 5b3c 919b e8bc
00000110: 8907 da3d 6fde 88be 8cd5 3d3e 94a6 913d
00000120: 6fd1 82be af3d 9b3e 3e2b bcbc 5b23 47be
00000130: 330f 33be c694 9bbc 75cf a4bd d756 b8bd
00000140: 8d7f 133e 3095 b9bd 254a 94bd a959 f73d
00000150: 45d5 083e aef7 a03e 7e77 a93d 69fb 7c3e
00000160: b3d2 85bc ad1f f7bc 4966 433d 6c11 cbbd
00000170: 2de1 1ebe ede0 1b3e f4f1 0ebf 06df 5d3e
00000180: 3b0d cbbd 1ee4 3e3e fe70 703d 5637 81bd
00000190: f001 193e 9437 4a3e 80ff 2a3e ec89 36bd
000001a0: 89c1 033e 4440 98be f017 9cbc e0a8 14be
000001b0: 302f 553e 6c80 0f3e 6f17 2bbd b8d0 be3e
000001c0: 8721 6f3e b492 b23d 52d2 13be 067f b3bc
000001d0: f387 3c3e 5d82 8e3c 40e8 38be ea30 383d
000001e0: 5bbc bfbc fc84 643e df56 913d 8ae8 4ebe
000001f0: 8a03 403c dc93 27bc 127e 963c 0846 ebbd
00000200: 2d96 223e f798 b23d 8fb9 1abd bedb 083e
00000210: 1013 f03d da77 40bd f989 28bd 1411 c238
00000220: 4ace a1bd 7baa e53c a1e7 b63d 01c5 513d
00000230: 168d 02be 8440 85bd 9db5 0e3e 6865 2cbd
00000240: 25ca 083d 87c1 00bc 92bd 6fbc ed42 343e
00000250: 5fe6 823c 48f2 973d 3ecd 27be b27d 9e3c
00000260: 2f11 a13c 7330 4b3e 294f 0c3e e517 913c
00000270: 5f9f 293e bf3b 1bbd 8412 05be c5e6 80bd
00000280: 9366 ab3c 18ad a4bd d9c3 71bd 1672 17be
00000290: 0b69 3abe d1ab 763c eb40 fdbd f0f7 043e
000002a0: 9d96 273e 1c96 48be 22ad cc3c 80bd 94bd
000002b0: d9a7 d43b 7956 163d 36e9 a1bd 67c4 c9bc
000002c0: d094 e8bd e084 46bd acff 1fbe 7075 8cbe
000002d0: ffd4 e63d 5b8a ecbb e0db 1b3e 2e83 ba3d
000002e0: 66b4 0abe 4e5b 443c c9c4 babc 7e9c a0ba
000002f0: 3f1f 61bd e46c ffbc 6b93 97bd fa78 6abd
00000300: cf54 903e 83db 7d3d 1181 193d 81b7 f03d
00000310: 8f14 5cbe da69 313e df23 15be 4400 483e
00000320: c9bb 48be 4d1c 7d3d 46a3 66bd 2641 5c3e
00000330: 9f99 25be 3cd1 0abe 5a63 bfbc 65d1 1d3e
00000340: 35d8 8bbe 1c02 833e 799e 06be 917b 893e
00000350: 7712 acbe 7dff 1abc dec7 053d eb19 d3bd
00000360: c9a9 b93e 176a c3bc 59e7 36bc a9fa 9ebd
00000370: 9b88 ce3b fd6f 1d3e e01c 223e 71e1 00bb
00000380: 3b49 2d3d bcc7 e0bd 4e41 a63e 0bbf 8b3e
00000390: b286 36bd b445 933e c194 a63e f557 ae3d
000003a0: d053 913e 96bb 6fbe 91af 4f3d 0355 ae3d
000003b0: 8363 133e abe0 103d e18b 85be 8685 d0bd
000003c0: a03b a9be fbc2 bbbe b52f d83d a679 af3e
000003d0: 9a4c 6b3c 3de3 093c 3b1a f3be 02cf ed3d
000003e0: e97b f5bd 1d3d ad3d d8d3 273b 0842 dd3d
000003f0: 0cbb adbe 7160 38be ab51 6b3e 322c 203d
-0.17579842 -0.0172202 0.09728883 0.11272683 0.19672969 0.11995316 0.27302146 -0.07478598
0.20889963 -0.046534665 0.17290844 -0.1072695 0.09073918 0.06367292 -0.008671047 0.15210778
-0.12557125 -0.287184 0.10227724 -0.26758334 -0.14126265 -0.21775645 -0.016054893 -0.03806929
0.2150898 0.07580104 -0.09750628 -0.0939611 0.09977903 0.06049888 -0.15902622 -0.23155586
-0.01875195 -0.18291165 0.40506533 0.29270098 0.013204398 0.037245058 0.030173918 0.11386215
0.21568127 -0.22683603 -0.421422 -0.19490519 0.13401239 -0.1279834 0.025624335 0.027394429
-0.13954872 -0.31887087 -0.07141663 -0.010131654 0.13452208 -0.040379178 -0.26229742 -0.14036459
-0.06780866 0.0653567 -0.040080268 -0.26744145 -0.44829544 0.1433442 -0.27887848 0.070656426
-0.032746524 0.05466978 0.013398652 -0.028394492 0.106459685 -0.26732203 0.18538493 0.071118504
-0.2555041 0.30320498 -0.022969838 -0.19447081 -0.17486267 -0.01899184 -0.08047382 -0.090009384
0.14404126 -0.090616584 -0.072407044 0.12077648 0.13362606 0.31438965 0.082747445 0.2470528
-0.01633582 -0.030166471 0.04770497 -0.09915432 -0.15515585 0.15222521 -0.5583794 0.21667108
-0.09914633 0.18641707 0.058701508 -0.063093826 0.14942145 0.19747764 0.16699028 -0.044565126
0.12866797 -0.2973653 -0.019054383 -0.14517546 0.20818782 0.14013833 -0.041770395 0.37268615
0.23352633 0.08719388 -0.144357 -0.021911155 0.18411236 0.017396146 -0.18057346 0.044968523
-0.023405245 0.22316355 0.070966475 -0.20205894 0.011719594 -0.0102281235 0.018370662 -0.11487967
0.158776 0.08720582 -0.03777462 0.13365075 0.11722386 -0.0469893 -0.041147206 9.253822e-05
-0.07900675 0.028035393 0.089308985 0.05121327 -0.12749133 -0.06506446 0.13936467 -0.042088896
0.033395905 -0.0078586405 -0.014632599 0.17603655 0.01597899 0.07419258 -0.16386887 0.019347046
0.019661514 0.198427 0.13702072 0.01771159 0.16564701 -0.037898775 -0.12995344 -0.06294016
0.020922935 -0.080408275 -0.059024666 -0.14789614 -0.18204133 0.015055613 -0.12365898 0.12985206
0.16366048 -0.19588512 0.0249849 -0.07262707 0.0064897356 0.03670356 -0.079058096 -0.024629785
-0.11356509 -0.048466563 -0.15624875 -0.27433348 0.112710945 -0.0072186417 0.15220594 0.09107052
-0.13545379 0.011984659 -0.022798913 -0.001225367 -0.05496144 -0.031179853 -0.074011646 -0.05724428
0.28189704 0.06197692 0.037476603 0.117537506 -0.21492217 0.17325535 -0.14564465 0.19531351
-0.19602884 0.061794568 -0.056308053 0.21509227 -0.16171883 -0.13556379 -0.023362804 0.15411909
-0.2731339 0.25587547 -0.1314639 0.26852086 -0.33607838 -0.009460327 0.03266131 -0.10307678
0.36262348 -0.023854299 -0.011163556 -0.077626534 0.0063029057 0.15374751 0.15831327 -0.0019665624
0.042306166 -0.10975596 0.324717 0.27294192 -0.04456205 0.28764117 0.32535365 0.0851287
0.28384256 -0.23411402 0.050704543 0.085123084 0.1439343 0.03537051 -0.26083282 -0.101817176
-0.33053303 -0.36672196 0.105559744 0.34272498 0.014361525 0.008415994 -0.4748095 0.11611749
-0.119865246 0.08458922 0.0025608446 0.1080361 -0.33931768 -0.1800554 0.22980373 0.039104648

gcn.convs.1.bias f4 [64]
00000000: 75ac be3e 7f5c 0f3f 9e9e 36bf fe93 233f
00000010: 983a 91be dadd 3dbf 2e48 023f 262e 24bf
00000020: eb63 953e cda2 32bf d22a 623e 8a93 203f
00000030: fdd6 3ebf 43d9 76bf bf75 d53e e546 283f
00000040: 96da 283f 8746 a3bf 4a29 96bf b1b6 033f
00000050: 88d4 38bf 6ae2 a8bf 2350 d63e 3adb 81bf
00000060: 4355 99bf 6bbb 14bf 7122 16bf e1c9 23bf
00000070: bff0 afbf 8da9 98bf 2a70 5dbf 024f 85bf
00000080: 7804 63bf f55a 9cbf 02a5 6cbf 9f35 7d3e
00000090: 760a 2ebf 4bbf 56bf fc36 65bf 49e7 8abf
000000a0: 18b4 8cbf 65e0 e43e 3c7d 0fbf 061d 52bf
000000b0: a872 70bf 9aef 193f 434b 5dbf 3b13 b13e
000000c0: 9697 9dbf 083e 983e c699 1fbf ac71 74bf
000000d0: a760 a6bf 9e32 ec3e 814b 1d3f 4d2e a93e
000000e0: 455e 22bf 754d 6cbf fd87 1a3f 9d68 c83e
000000f0: 7fcb f83e 3eab 063f e93d 753e d562 90be
0.3724095 0.5600051 -0.7133578 0.63897693 -0.28365016 -0.74166644 0.5089139 -0.64132917
0.29177794 -0.69779664 0.22086647 0.62725127 -0.74546796 -0.96425265 0.41691396 0.65733176
0.65958536 -1.2755898 -1.173135 0.5145064 -0.72199297 -1.3194096 0.41858014 -1.0145028
-1.1979145 -0.5809848 -0.58646303 -0.6397992 -1.3745345 -1.1926743 -0.86499274 -1.0414736
-0.88678694 -1.2215258 -0.9243928 0.24727486 -0.6798471 -0.8388564 -0.89537024 -1.0851833
-1.099246 0.4470245 -0.5605047 -0.82075536 -0.9392495 0.6013123 -0.86442965 0.34584984
-1.2311885 0.29734826 -0.62344015 -0.9548595 -1.2998246 0.46132368 0.61443335 0.33043137
-0.63425094 -0.9230569 0.6036375 0.39142314 0.48592755 0.52605045 0.23949398 -0.28200403

gcn.convs.1.lin.weight f4 [64, 64]
00000000: 8390 c6bd c4f5 6fbe 573f 1e3c a472 9abe
00000010: bc56 9abe 4334 933d 5609 b9be 73de 47be
00000020: c73f 703d 0a41 b13b 4f44 91be 0a1a a1be
00000030: e5c5 89bc 98da 3abe c076 c3be a185 53be
00000040: 6819 11bf 8faa bebe 8b3d 0bbf 60f3 a3be
00000050: ff0a b5be e6b0 c7be 6db3 a9bc c5eb 6b3d
00000060: 2c04 cfbe 5dc0 ccbe 029f 0fbe 30f7 adbe
00000070: 3e42 e1be ea36 d1be c0e6 ecbe df33 88be
00000080: 2bbb dfbe 3e92 983d 5acb b7be 4999 30be
00000090: 2cfd cebe c3e2 93be 6806 153d 3a5b 99be
000000a0: 2ea1 85be 6f16 77bc bdbf 8cbe 539f c0be
000000b0: fed8 4ebc 443d c33c 67ad f0be b69b 87bd
000000c0: 7706 743d 8408 a4be 8fac 06bd 92de c2be
000000d0: 97a4 67be 88e0 aabe 22d6 8ebe e595 91be
000000e0: e958 d4be 87a8 a4be e439 853d 721b 45be
000000f0: 7359 d8be 2718 bbbe 1148 63be a841 babe
00000100: 9e06 06bf 0449 c5be 523c 833c 5db7 89be
00000110: 09c0 58be d2ef d73c f593 9dbe 640e cfbe
00000120: b379 24bb 8f90 75bd 7e33 c3be f6e8 c7be
00000130: 341b cebd 11f8 9cbe d18a bcbe dd53 dbbe
00000140: 869d 19be 6974 aabe d939 93be b516 47be
00000150: 3e32 b7bd 6ee9 b0be b0cf f13d 6967 633d
00000160: 95b8 ccbe 4a5d a1be cf5e 89be 37e9 32be
00000170: a5aa e2be a005 d3be 54af a5be a5c7 98be
00000180: e853 99be 06af 77bc 404f 95be e82e 8dbe
00000190: ff28 3ebe 9697 98be 4727 533d f82b bdbe
000001a0: a165 c6be eaec 1d3d b3a4 89be 4a1b 3fbe
000001b0: 237a 92bc 3957 b53c 9533 d0be af54 99be
000001c0: 6445 4e3d dfb7 babe f826 9cbe 3826 98be
000001d0: 9dc0 77be 635a 2cbe 1cb8 23be 92a0 93be
000001e0: 3cb3 8fbe bc0a 9fbe 2876 6b3d 339a a8be
000001f0: 379f 0ebe 6ecd 6abe 2689 8fbe a0c3 81be
00000200: 1150 d93e c573 883e 4342 cebb 56ed 5f3e
00000210: a37f 363e b80a 90bd 38f2 ae3e 0c4b 3d3e
00000220: 62b3 b7bd 3451 10bc 8e99 603e 6e30 5e3e
00000230: aafd 793c 8022 0d3e 9709 ec3e 7b26 d23e
00000240: 2302 623e ea41 953e 1554 453e 34ff 403e
00000250: 23aa d53d b630 ab3e bd0e 07be 35e5 01be
00000260: 3951 4a3e 1ebe b53e e6ff 363e 02ff 823e
00000270: 8dc0 003e 894b 8f3e a8a9 cf3e 4d03 df3d
00000280: 78ff 183e 1cde a8bd b83f 513e aa10 543e
00000290: 6348 713e 85c5 943e 4fd4 70bd 8d4a 733e
000002a0: 0567 f43e 0fbd 71bd f616 7f3e 4119 ae3e
000002b0: d74d a73d 64c6 f5bc 63cc 773e bcb3 873e
000002c0: b622 10be 3610 dc3e 1f7c 473e eb5b 4e3e
000002d0: 1f82 6a3e 1335 5b3e 06b1 5e3e 6242 c63e
000002e0: 6ff9 6f3e a31b ba3e 648a 9cbd fe75 f23d
000002f0: 4834 853e 637a 6b3e 245e 983e eca9 903e
00000300: 684e f1be bee4 5bbe 1692 bdbc 1068 afbe
00000310: a4e1 2cbe 1b30 463d 55fd 73be cdd2 3abe
00000320: 3ae7 b53d 4f22 d23c 2152 e9be 2437 9fbe
00000330: e5e0 e1bc e84a 98be 1bda 97be 841f 8cbe
00000340: d9cb 36be ffad 6bbe a626 12be fafa 3ebe
00000350: dbdb 8dbe 3d69 4dbe dc9c 8d3d fabc 06bd
00000360: dad8 c2bd dc3e 29be ab19 d8be d5cc 0dbe
00000370: 63ad b7be 0f36 c6be 697c 3dbe 599a 7cbe
00000380: 6275 32be 57f8 1f3d dc37 c7bd da03 80be
00000390: 711f 5ebe 6e95 ccbe b92a 08bc c1c6 96be
000003a0: 5d73 c0be 4947 583d 288c 93be 5ed9 91be
000003b0: eb76 7e3d 5cd0 60bd 8e2e e2be 4b31 88be
000003c0: 556c 003d 6316 c5be 6753 bbbe 9333 9ebe
000003d0: c212 3fbe 1900 a1be 47ef 29be 6c20 a1be
000003e0: 6d71 4abe 97d2 91be 95d8 783d 927c 4ebe
000003f0: 4098 5dbe 9e43 7bbe a31c 91be 997b 48be
-0.09695532 -0.23433596 0.009658656 -0.3016559 -0.30144298 0.071877025 -0.36139935 -0.19518451
0.058654573 0.0054093646 -0.28372428 -0.3146518 -0.016817996 -0.1824745 -0.38176537 -0.20656444
-0.5667939 -0.372395 -0.5439078 -0.32021618 -0.35359952 -0.3900215 -0.02071544 0.057597894
-0.4043287 -0.39990512 -0.140255 -0.33977652 -0.4399585 -0.4086221 -0.46269798 -0.26602075
-0.43697485 0.074497685 -0.35897332 -0.17245974 -0.4042753 -0.28883943 0.036383063 -0.29952413
-0.26099533 -0.015081032 -0.27490035 -0.37621555 -0.012624977 0.023832925 -0.47007295 -0.066214964
0.059576478 -0.32037747 -0.03287941 -0.38060433 -0.2262138 -0.3337443 -0.27897745 -0.28434673
-0.41474083 -0.32159826 0.065051824 -0.19248751 -0.42255744 -0.36541864 -0.2219546 -0.36378217
-0.5235385 -0.3853227 0.016019974 -0.26897708 -0.21167006 0.026359472 -0.30776945 -0.40440667
-0.0025096952 -0.059952315 -0.38125223 -0.39044923 -0.10063782 -0.3065801 -0.3682466 -0.4283742
-0.15001497 -0.3329194 -0.28755072 -0.19442256 -0.0894513 -0.34553093 0.11807191 0.05551854
-0.39984575 -0.31516486 -0.26830146 -0.17471777 -0.44270816 -0.4121523 -0.32360327 -0.29839817
-0.29946828 -0.015117412 -0.29162025 -0.2757485 -0.18570326 -0.2980315 0.05155113 -0.36947608
-0.38749412 0.038556017 -0.26883468 -0.18662754 -0.017880505 0.022136318 -0.40664354 -0.2994742
0.050359145 -0.36468408 -0.3049848 -0.2971666 -0.2419457 -0.16831355 -0.15988201 -0.28833443
-0.28066432 -0.31062877 0.05748573 -0.32930145 -0.13927923 -0.22929928 -0.28034323 -0.25344563
0.42443898 0.26650825 -0.00629452 0.2186788 0.17822127 -0.070332944 0.34169173 0.1848566
-0.089697614 -0.008808423 0.21933576 0.21698162 0.015258232 0.13782692 0.46101066 0.41044983
0.22071128 0.2915185 0.19270356 0.18847352 0.10432842 0.334356 -0.13189216 -0.12685092
0.19757546 0.3549661 0.17871055 0.2558518 0.12573452 0.27987316 0.40559125 0.108893014
0.14941204 -0.08245489 0.20434463 0.20709482 0.2356277 0.29056945 -0.058796223 0.23758908
0.47734848 -0.05901819 0.24911103 0.34003642 0.08169144 -0.030001827 0.24199061 0.26504314
-0.14075741 0.42981118 0.19480942 0.20152251 0.229012 0.21406965 0.21747217 0.3872252
0.23434995 0.3634921 -0.076435834 0.118389115 0.2601645 0.22995906 0.29759324 0.2825464
-0.47130132 -0.21473977 -0.023140948 -0.3425908 -0.1688295 0.04838572 -0.23827107 -0.18244477
0.088819936 0.025651125 -0.45570472 -0.31096756 -0.027573058 -0.2974465 -0.2965859 -0.27367795
-0.17851199 -0.23015593 -0.14272556 -0.18650427 -0.277068 -0.20059676 0.06914684 -0.032895066
-0.095140174 -0.16527885 -0.42207083 -0.13847668 -0.3587447 -0.38713118 -0.1850449 -0.24668254
-0.1742759 0.039055195 -0.09727451 -0.25002939 -0.21691681 -0.39957756 -0.008310967 -0.29448512
-0.37588015 0.052802358 -0.28817868 -0.2848615 0.062125128 -0.054886207 -0.44176143 -0.26600108
0.031353313 -0.38493642 -0.36587068 -0.30898723 -0.186595 -0.31445387 -0.16595183 -0.31470048
-0.19769831 -0.2848098 0.060753424 -0.20164707 -0.2164011 -0.24537513 -0.2834216 -0.19578399

gcn.convs.2.bias f4 [64]
00000000: 7330 2f3e d224 d53b cb8e 8cbc b9b3 adbc
00000010: 3cd0 203d cfaa 283c 2e0a deba 0d96 a7bd
00000020: 708f f83c 5b8e 3bbd 5e79 c9bb 5810 253d
00000030: fd65 303d 94ee d0bb e684 db3b 6b76 c63c
00000040: 4b76 c13d 028b 823d c9b3 8dbd ff31 01bd
00000050: 8400 933e 471c 0bbd e419 88bb a798 00be
00000060: 1468 d23a ef9f 2f3c af9b 8c3d 584a 093d
00000070: 9c66 3ebd 782a 29bd 384f 033d 4452 c93e
00000080: 6ec0 57bd 1344 863c f342 5cbd d0bc 063d
00000090: 987e 34bd 106c b23c f96a 773c f44d ae3d
000000a0: 3b5d 0f3e 97c2 8e3c 3089 00bd 2d0a 223e
000000b0: e653 19bd 3ae5 87bd d12d af3e f410 92bb
000000c0: aa45 56b9 fca7 a2bd 891e 41bc d68f 873c
000000d0: 34e3 b9bc 7e77 0cbc 44e6 26bc 3199 a93d
000000e0: 45e9 6dbd d02b 4fbd c445 e0bc b629 e73e
000000f0: a2c4 573d d9c1 253e acd8 3f3d 9d4d 5cbe
0.17108326 0.0065046335 -0.017157933 -0.021203863 0.039261088 0.01029463 -0.001694029 -0.08182917
0.030341834 -0.045790058 -0.0061485013 0.04029879 0.043066014 -0.006376097 0.0066991923 0.024226388
0.09446391 0.0637417 -0.06919057 -0.03154182 0.2871133 -0.033962514 -0.004153477 -0.12558232
0.0016052746 0.0107192835 0.06865632 0.033518165 -0.046484575 -0.041300267 0.03205797 0.39320576
-0.05267375 0.016389882 -0.053774785 0.03289491 -0.04406604 0.021780044 0.015101188 0.08510962
0.14000408 0.017426772 -0.031380832 0.15824194 -0.037433527 -0.06635518 0.34214643 -0.0044575874
-0.00020434582 -0.07942197 -0.011787065 0.016548079 -0.022691347 -0.008573411 -0.010186736 0.08281172
-0.05808379 -0.050578892 -0.027377017 0.4514901 0.052677758 0.16187228 0.046837494 -0.21513982

gcn.convs.2.lin.weight f4 [64, 64]
00000000: 07c5 a63e 0aff c13e bff5 bdbd 7f19 ad3e
00000010: cae2 7d3c f040 1dbe f2a0 813e 8a15 3ebe
00000020: 9e6d 933e e42b 03be 1dae 923e bc18 cf3e
00000030: 020a f4bd 97d4 4fbe e514 c43e 445f 933e
00000040: 394d a43e 7a35 d8be 3048 14be 8375 fa3e
00000050: 2c33 36be 09af d3be 180f f33e 51f3 7fbd
00000060: d2cf 9bbe 0992 13be b95c debd 5801 26be
00000070: 1e38 efbe 796b a9be 200a 8dbe 545c 87be
00000080: 71b7 0cbe 6dd3 14bf 113c 3dbe ec23 d23d
00000090: 8207 0bbd 3bbc 0cbe 3b29 a4bd f34c 0dbf
000000a0: 8c4a 2cbf 9f0b 3f3e 8257 033b 8dfd 18be
000000b0: 81d3 c7be 2de5 b43e b857 07bf c290 cf3e
000000c0: cc0d fdbe b1cf be3e 4f2c 1ebe 7838 c43c
000000d0: fc09 55bf e357 c63e 315d 943e ddb8 8d3e
000000e0: acda 25bd e97a e7bd df0d e33e 0239 6c3e
000000f0: ea67 973e e155 cd3e 1ca1 8a3e 30a4 c1bc
00000100: 246a efbd f3b1 913b bea8 203d 624f a8bd
00000110: b87d 2abd ba41 bc3c 23b0 403d db96 b1bd
00000120: 5c21 eebd 53d5 abbd ecaf c4bc f05a 123e
00000130: d37c bc3d dce7 0e3e 4524 dabc 9069 cabb
00000140: a0de 143d f2c3 e03d d913 a83d 937c 70bd
00000150: 3c23 1d3c 38f9 cb3a 5e22 87bd 2212 173e
00000160: e065 883d cc96 36bd ff94 d4bc 58ae 58bd
00000170: d29f 033e f0ee 063e dbf1 85bd 8e2c 273d
00000180: d844 7fbc f414 093d 5905 05bd 8c54 a63c
00000190: 06d6 58bc d4bb 2e3d 8883 b13c 123f b53d
000001a0: 4043 e4bc e09e 143d 4413 93bd fd02 a7bd
000001b0: 5e1f a3bd 3d43 76bc ea8f 043c 5751 6dbd
000001c0: 2a74 423d 0329 c03c d10d acbd 531d b1bd
000001d0: 6b2b 53bb 84c8 b53d f273 d5bc b69b bfbc
000001e0: 66fd c8bd 0ecc 653d 801e 253d 4b01 7b3d
000001f0: 858b f33d bb79 d6bb 7a44 69be eca6 a33d
00000200: a7c4 f13d 53fe fabc ef80 5fbc f610 97bc
00000210: 83e0 13be a7c1 803d 2c2f 8ebc 6a08 10bd
00000220: bf49 7b3e 08ba fa3d c7d9 663e 3bac ec3d
00000230: 26e5 8fbd ca6c 82bc 3d6c 1c3e 8416 993d
00000240: 5d87 d33d 40eb 01be 7584 7cbd 07ee 6f3d
00000250: fb9e 613c 7da3 fdbd 1d2e 3a3d 262c 6e3d
00000260: 1ccd 9cbd 5d68 d3bd acb6 d93d 7ed4 cfbd
00000270: f66c dfbd 6bd0 4f3d 2a5a 8abc 7b68 88be
00000280: 5c84 1dbe 81f5 4fbe 5c22 d63d 8bdd 483e
00000290: c3e5 0e3d 4e3c 263d c928 69bd 2458 91be
000002a0: 3859 85be f3ee babd 36ba 443d 34ec 9abd
000002b0: e9db 32be 9b36 12be 4a9d 93be 2e2e 2b3e
000002c0: 36be d2bd 51b4 7e3e 0221 6cbd cbda 293d
000002d0: a653 9abe 0d0f 353e 0893 c03b c56a 1b3e
000002e0: 789f fdbc e545 c5bd 8eca 103d 0767 443e
000002f0: a790 3a3e fae0 bc3d c1f0 b63e 1079 4ebe
00000300: bba9 3c3e 451a 8ebd 304c 713d 2d63 0abd
00000310: 7013 c53d d90a b23d ebb6 9e3d 1483 adbc
00000320: b1dd 5d3e 43b2 803d d585 763e 9a04 8cba
00000330: 82f9 033e cff0 93bd ddb7 bb3d f83c f6bd
00000340: dbb5 0b3d d9ce 98bd a7fa 15bd b414 dcbb
00000350: 03e3 cebd 0ed6 e1bd 498c 02bd 82ad 583d
00000360: 2249 debd a66c a7bd 2a8d 7dbd f0c3 853c
00000370: b603 1fbe 2740 00be c72f 7dbd 840e 16be
00000380: 2b47 aabd 1a1b 8cbd 9f2f 5d3d 4d09 6f3e
00000390: d227 6f3d 66a2 f8bc e0af 023e e892 01be
000003a0: d256 10bd dd04 313c e655 62bb ab6e 2cbe
000003b0: ccfd 80bd fe84 54bd 748f 913d f281 733e
000003c0: 585d 53bd 0a54 263e 7c18 533d 2a54 a83d
000003d0: d04e e7bd fcdb 4ebd 3739 e9bd ac3e 6d3e
000003e0: 6901 833d 035b f8bd 99a9 e73b 7a9a f73c
000003f0: a5c4 62bd 7dc2 fdbd 4475 c13e 4ecb 853d
0.32572195 0.37889892 -0.09275388 0.33808514 0.015495965 -0.15356803 0.25318104 -0.18562904
0.2879457 -0.12809712 0.28648463 0.40448558 -0.11915971 -0.2029594 0.3829719 0.2878362
0.32090166 -0.422283 -0.14480662 0.4891778 -0.17792958 -0.4134448 0.47472453 -0.062487904
-0.30431992 -0.14411177 -0.10857529 -0.1621145 -0.46722502 -0.33089808 -0.27546787 -0.26437628
-0.13741852 -0.5813511 -0.18479945 0.10260758 -0.033942707 -0.13743679 -0.080156766 -0.5519554
-0.6730125 0.18656777 0.0020041172 -0.14940472 -0.39028552 0.35331097 -0.52868223 0.4054013
-0.4942459 0.3726783 -0.1544659 0.023952708 -0.8321836 0.38738927 0.2897735 0.27680102
-0.040491745 -0.1130274 0.4434652 0.23068622 0.29571468 0.40104583 0.27076042 -0.023637861
-0.116901666 0.004446262 0.039223425 -0.08218266 -0.0416238 0.02298056 0.047042977 -0.086713515
-0.116274565 -0.08390298 -0.024009667 0.14292502 0.09203496 0.13955635 -0.026628623 -0.006177135
0.036345124 0.109748736 0.08206911 -0.058712553 0.00959092 0.0015561944 -0.06598352 0.14753011
0.06660056 -0.044577405 -0.025949953 -0.052900642 0.12853935 0.13177085 -0.06540271 0.040813975
-0.0155803785 0.033467248 -0.032475803 0.020303987 -0.013234621 0.042659596 0.021669164 0.0884992
-0.027864099 0.036284328 -0.07181409 -0.08154867 -0.07964967 -0.015030679 0.008090952 -0.0579389
0.047474064 0.023457056 -0.08401073 -0.08648171 -0.0032221924 0.08876136 -0.026056264 -0.023389678
-0.09813957 0.056102805 0.04031229 0.06128053 0.118918456 -0.006545273 -0.22780028 0.07990822
0.118050866 -0.03063885 -0.01364158 -0.018440705 -0.14441113 0.06286936 -0.017356478 -0.035164274
0.2453985 0.12242514 0.22544013 0.11556288 -0.070261285 -0.015921015 0.15275665 0.07474998
0.10328553 -0.12687397 -0.06164976 0.05857661 0.013770814 -0.123846985 0.045454133 0.058147572
-0.07656309 -0.1032264 0.10630545 -0.101479515 -0.109094545 0.050735872 -0.016888697 -0.26642212
-0.15382522 -0.20308496 0.10455772 0.19615762 0.034887087 0.040584855 -0.05692366 -0.28387558
-0.2604463 -0.09127607 0.048029147 -0.075645834 -0.17466702 -0.14278643 -0.2883094 0.16716835
-0.10290186 0.24873473 -0.057648666 0.041468423 -0.30141944 0.17681523 0.0058769025 0.15177448
-0.03095983 -0.09632472 0.03534942 0.19179927 0.18219243 0.092225984 0.35730556 -0.20163369
0.18424122 -0.06938604 0.05891055 -0.033785988 0.09622848 0.08693475 0.077497326 -0.021180667
0.216666 0.06284001 0.2407449 -0.0010682524 0.12888148 -0.07223665 0.091659285 -0.120233476
0.034108978 -0.07461328 -0.036615994 -0.006716335 -0.10101893 -0.11027156 -0.031872068 0.052899845
-0.10853793 -0.0817502 -0.061902203 0.016328782 -0.1552876 -0.12524472 -0.061813142 -0.14653975
-0.083143555 -0.06841107 0.054000493 0.23343392 0.058387585 -0.030350875 0.12762403 -0.12653697
-0.03523905 0.010804382 -0.0034536063 -0.16839091 -0.06298408 -0.051884644 0.0710744 0.23780039
-0.05160269 0.16242996 0.051537022 0.08219178 -0.11294329 -0.050502762 -0.11387866 0.23168439
0.06396753 -0.12126734 0.007069778 0.030225027 -0.055363316 -0.12390611 0.3778478 0.06532918

edge_feature_mlp.0.weight f4 [64, 5]
00000000: 3247 0680 ae3f 0b00 033b 0d00 f7f7 0d00
00000010: 25b6 0000 d7c0 0d80 d2f1 0580 4cfd 0b00
00000020: 340b 0480 8873 0280 9855 0e80 f606 0400
00000030: ad49 0600 58ac 0f00 26ee 0c80 39d7 0780
00000040: 3940 0a00 6d89 0280 fff7 0700 5c8f 0480
00000050: 8e66 0e80 a368 0d80 3476 0680 fba1 0280
00000060: f028 0a80 e6a9 0180 affb 0c80 0825 0080
00000070: 83ea 0580 49d5 0b80 fd2d 0980 c057 0780
00000080: dd74 0980 2b1e 0780 c363 0d80 cf59 0f00
00000090: d88d 0e00 6f63 0980 42ca 0a00 1682 1300
000000a0: 7f8a 0680 ba90 0680 d92b 0a80 d4f4 0080
000000b0: 2ed0 0080 27df 0f80 e7d8 0480 330d 0e80
000000c0: ea65 0100 4e25 1000 ad08 0900 9e55 0a00
000000d0: 99ff 0900 6296 0180 0e37 0d80 3e8e 0300
000000e0: 8646 0d80 47fb 1580 f83b 1280 5c4d 1400
000000f0: 5944 0580 d2b3 0100 fde8 0500 e117 0000
00000100: c329 0780 20d8 0e00 0f9d 0700 a977 0b00
00000110: 66af 0c80 4ce8 0480 c00f 0200 57ca 1500
00000120: 9490 1080 12a3 0380 e8e1 1580 835a 0b00
00000130: 3e55 0d00 9ec6 0580 fe5c 0600 1ce0 0180
00000140: 4eba 0f00 c3f9 0580 dbcd 1080 b9a4 0c00
00000150: 1b4c 0c00 7edf 0d00 47a3 0c80 0740 0a80
00000160: 68e2 0d00 fb4a 0f80 d434 0400 1a75 0b80
00000170: f78f 0e00 3f5e 0f80 51a4 0500 0e73 0a00
00000180: aa71 0c00 6f29 0900 c8dc 0f00 8e53 0380
00000190: 0be2 0380 64f4 0c80 fd00 0b00 cadb 0400
000001a0: 8cc3 0380 7606 0d00 f102 0980 0f04 0d00
000001b0: 208b 0200 2103 1080 47fe 0000 03c1 0180
000001c0: 3bdb 0480 d9c2 0c80 7204 1080 9017 0780
000001d0: 696c 0980 f265 0480 e94e 0300 4706 0480
000001e0: f5f8 0a00 0ace 0b00 7312 0a80 09ba 0080
000001f0: 57ca 0c00 bb7e 0100 f249 0780 d8e1 0700
00000200: 2d81 0400 bf02 0d00 089d 0b80 b1de 1080
00000210: 6038 0600 76eb 0a00 84fc 0880 c1f3 0a00
00000220: 0fc8 0800 ede0 0800 a830 0000 d422 0100
00000230: 1d56 0c80 af11 0380 87b8 0180 8896 0700
00000240: 3e6f 0a80 efb8 0380 e03e 1500 9c67 0b80
00000250: 3ebd 0c80 5e9e 0400 c2ce 1580 da48 1100
00000260: ef75 0e00 edf7 0800 8874 0f00 a85a 0100
00000270: 0f76 0680 d2d6 0380 2cba 0f80 dd03 0800
00000280: 05e5 0300 a13d 0880 e538 0b80 a471 0500
00000290: b908 0c80 39a8 0f00 140d 0a80 7978 0000
000002a0: b835 0200 fe27 1480 9cbd 0080 c910 0800
000002b0: 9c0e 0b80 656c 0880 88a3 0b80 ebc3 0080
000002c0: 5643 0f80 cc9d 0a80 c574 0b80 14ab 0a00
000002d0: 349b 0680 1d4a 0800 f795 1100 5204 0880
000002e0: ea87 0200 0f77 0f00 79d2 0400 e3ce 0480
000002f0: 48c6 0c80 cfbc 0480 7415 0200 d2bf 0600
00000300: 5734 0100 a2e5 0a00 a239 0680 6386 0700
00000310: 8c66 0800 ee9b 0e80 82f1 0280 ef55 0300
00000320: 64d7 0b00 56d3 0a80 77be 1080 d6a6 0c00
00000330: c631 0b80 0376 0080 a469 0d80 6b19 0580
00000340: dff6 0e00 c50c 0100 341a 1580 dc67 1480
00000350: ad6a 0b80 75eb 0700 3799 0700 6181 0b00
00000360: a552 0880 5024 0c00 3e43 0a80 82b4 1000
00000370: ede5 1000 2719 1180 fca7 0b80 c1aa 0900
00000380: 0984 0000 5f20 0700 2381 0b80 6556 0680
00000390: 8cd2 0780 6607 0c80 baea 0300 f916 1000
000003a0: 1a72 1000 2c8a 0180 b2bd 1080 c143 0f80
000003b0: c617 1380 16a5 0580 40dc 1000 7740 0b80
000003c0: 959a 0c80 463a 0000 aaa7 0e80 143a 0880
000003d0: 00cf 0380 9f41 0b80 a244 0f00 4889 0e00
000003e0: a553 0580 2b32 0680 0982 0780 eee6 0780
000003f0: ef87 0e80 fe0d 0c00 78f6 0f00 b960 1480
-5.76553e-40 1.033034e-39 1.215031e-39 1.282814e-39 6.5341e-41 -1.26304e-39 -5.45926e-40 1.101056e-39
-3.71361e-40 -2.25116e-40 -1.316402e-39 3.69839e-40 5.77443e-40 1.439358e-39 -1.187458e-39 -7.20056e-40
9.41394e-40 -2.3297e-40 7.31813e-40 -4.1877e-40 -1.322487e-39 -1.231398e-39 -5.93416e-40 -2.41779e-40
-9.3304e-40 -1.52784e-40 -1.192313e-39 -1.3284e-41 -5.43304e-40 -1.086703e-39 -8.43017e-40 -6.74327e-40
-8.68442e-40 -6.53671e-40 -1.229649e-39 1.40975e-39 1.336581e-39 -8.6219e-40 9.90911e-40 1.79154e-39
-6.00696e-40 -6.02931e-40 -9.34085e-40 -8.7828e-41 -7.4681e-41 -1.457584e-39 -4.45152e-40 -1.290432e-39
1.28395e-40 1.48275e-39 8.29632e-40 9.49069e-40 9.1821e-40 -1.45783e-40 -1.213611e-39 3.26533e-40
-1.21916e-39 -2.018687e-39 -1.674552e-39 1.864461e-39 -4.83696e-40 1.56343e-40 5.42758e-40 8.566e-42
-6.5783e-40 1.363228e-39 6.9919e-40 1.053116e-39 -1.164947e-39 -4.50674e-40 1.89321e-40 2.001131e-39
-1.521233e-39 -3.34005e-40 -2.009585e-39 1.04266e-39 1.22444e-39 -5.30428e-40 5.84372e-40 -1.72231e-40
1.444366e-39 -5.48775e-40 -1.543215e-39 1.161117e-39 1.129327e-39 1.274035e-39 -1.160599e-39 -9.41324e-40
1.275081e-39 -1.40443e-39 3.86293e-40 -1.052199e-39 1.337342e-39 -1.411342e-39 5.18123e-40 9.59629e-40
1.142801e-39 8.41383e-40 1.456734e-39 -3.0548e-40 -3.56595e-40 -1.189697e-39 1.010545e-39 4.46187e-40
-3.45655e-40 1.196179e-39 -8.27575e-40 1.195317e-39 2.3358e-40 -1.47049e-39 9.1218e-41 -1.61075e-40
-4.45987e-40 -1.171924e-39 -1.470963e-39 -6.51301e-40 -8.6541e-40 -4.03913e-40 3.03814e-40 -3.69594e-40
1.007664e-39 1.084103e-39 -9.24973e-40 -6.6737e-41 1.174612e-39 1.37298e-40 -6.69375e-40 7.23866e-40
4.13682e-40 1.194847e-39 -1.066523e-39 -1.549255e-39 5.71237e-40 1.002822e-39 -8.2527e-40 1.005797e-39
8.06451e-40 8.15372e-40 1.7455e-41 1.0433e-40 -1.132918e-39 -2.8185e-40 -1.58031e-40 6.96849e-40
-9.58261e-40 -3.41848e-40 1.951101e-39 -1.047358e-39 -1.169913e-39 4.24153e-40 -2.002716e-39 1.587338e-39
1.328004e-39 8.23623e-40 1.419336e-39 1.24357e-40 -5.93364e-40 -3.5257e-40 -1.444318e-39 7.3607e-40
3.57663e-40 -7.56792e-40 -1.0306e-39 4.99944e-40 -1.105155e-39 1.43788e-39 -9.23047e-40 4.3217e-41
2.02942e-40 -1.851056e-39 -6.8019e-41 7.40705e-40 -1.015431e-39 -7.73569e-40 -1.068854e-39 -7.0282e-41
-1.401688e-39 -9.74962e-40 -1.05208e-39 9.79726e-40 -6.0669e-40 7.61271e-40 1.615e-39 -7.36234e-40
2.32428e-40 1.420243e-39 4.42845e-40 -4.41559e-40 -1.173156e-39 -4.35074e-40 1.91367e-40 6.19825e-40
1.10611e-40 1.000732e-39 -5.71688e-40 6.91057e-40 7.71471e-40 -1.341634e-39 -2.70308e-40 3.06334e-40
1.087458e-39 -9.94168e-40 -1.537694e-39 1.161875e-39 -1.028046e-39 -4.2335e-41 -1.231758e-39 -4.68296e-40
1.374258e-39 9.6416e-41 -1.937945e-39 -1.873968e-39 -1.048459e-39 7.27315e-40 6.97812e-40 1.056603e-39
-7.64331e-40 1.115052e-39 -9.42477e-40 1.534122e-39 1.55185e-39 -1.570226e-39 -1.070452e-39 8.87774e-40
4.7365e-41 6.54461e-40 -1.056516e-39 -5.82005e-40 -7.18378e-40 -1.10468e-39 3.5971e-40 1.477609e-39
1.5103e-39 -1.41402e-40 -1.537418e-39 -1.401838e-39 -1.753403e-39 -5.18399e-40 1.548379e-39 -1.033316e-39
-1.15748e-39 2.0905e-41 -1.345843e-39 -7.55518e-40 -3.49764e-40 -1.033731e-39 1.402153e-39 1.334944e-39
-4.89183e-40 -5.6901e-40 -6.89496e-40 -7.2569e-40 -1.334461e-39 1.107045e-39 1.465949e-39 -1.871407e-39

edge_feature_mlp.0.bias f4 [64]
00000000: f796 aabb 0d0d ae92 950a eb82 ebf5 34bb
00000010: 284d 0ebb d486 81bb 45a0 c5bb 96c4 b6ad
00000020: 84a9 68b6 e9e7 c280 97cf 36aa 61c6 2cbc
00000030: a6fc 5d8d 355b a8bb 54a4 84bb a2fe 1caa
00000040: e9d6 6eac 4b7f 1cb2 bb59 e9a8 6c4c 623d
00000050: ed48 bfa1 5350 f9af 1f36 cfbb 35e5 0abd
00000060: 2a59 e4b3 d5c9 9990 6d04 999a a010 29bb
00000070: 5b0c 6ebb 8350 69bb 0c3d c7b3 47c3 dfaf
00000080: 7bec a6a9 e941 40b9 0226 843d cb9a a3b5
00000090: 2d88 2abc c1ac 5894 e42c c5a8 e212 37bb
000000a0: c0ad 0cbd 0d20 1fb8 c55d e6bb 6549 06a2
000000b0: c7d0 7bba ce6b 8ab9 0247 7789 218e 09bc
000000c0: 3528 79bc 5dc7 61b8 809a ebba b0a8 28bc
000000d0: 7092 6eb4 a64e 5fbc 7ca2 ffba 425e d7ba
000000e0: 8de2 69bc 5192 debc 942c a2ae bf4d 45bb
000000f0: 684a 08b4 33ff 5ebb c5d2 ba95 cb67 4cbb
-0.0052059847 -1.0984161e-27 -3.453622e-37 -0.00276124 -0.002171347 -0.0039528403 -0.0060310685 -2.0778306e-11
-3.4669365e-06 -1.789928e-38 -1.623687e-13 -0.010545344 -6.8404997e-31 -0.005137826 -0.0040479098 -1.3943927e-13
-3.3941133e-12 -9.109338e-09 -2.5907111e-14 0.055248663 -1.2961967e-18 -4.534991e-10 -0.0063235904 -0.033909995
-1.0633296e-07 -6.065883e-29 -6.328647e-23 -0.0025797263 -0.0036323282 -0.0035600967 -9.277764e-08 -4.0702217e-10
-7.412904e-14 -0.000183351 0.06452562 -1.2189497e-06 -0.010408443 -1.0939283e-26 -2.1890862e-14 -0.002793484
-0.03434539 -3.7938404e-05 -0.007030221 -1.8199241e-18 -0.00096060004 -0.00026401732 -2.9764931e-33 -0.008395703
-0.01520734 -5.3829852e-05 -0.0017975122 -0.0102941245 -2.2218751e-07 -0.013629591 -0.001950338 -0.0016431289
-0.014275205 -0.027169378 -7.374826e-11 -0.0030106155 -1.2693056e-07 -0.0034026622 -7.545734e-26 -0.0031189795

classifier.0.weight f4 [64, 192]
00000000: fbda ad3e 45e9 39bb fb82 4e3e b940 35bc
00000010: 6b41 6abe e0b0 213e 5157 64bd 2963 103e
00000020: 54e1 f13d 0c97 c4bd 62f0 b53d 0480 31be
00000030: b190 5fbb e8eb 753e f6f9 eebd 35ca d1bd
00000040: 90eb 74be a617 d1bc 9ad7 6ebe 9cb5 6d3d
00000050: baf1 83bb 5421 353e d3ee 543e 99d6 a8be
00000060: 8694 923c 5aa1 41be 2908 063e 71d8 7f3e
00000070: af6f 563e bb35 dabd 6654 ef3c f269 1c3e
00000080: 0067 263e b0fb 193e f1b1 813d 4390 76bc
00000090: 9336 173e c912 72be 56d6 f83d 1018 9c3e
000000a0: e3b9 8abe 6d37 95be 02fb 983e 1f18 7abe
000000b0: 6c4b 27bc 07ed 68bd 00e1 843d 5104 0b3d
000000c0: d70d 15bd 0d50 503e fdf5 5ebe 48ea 4ebd
000000d0: e52e b8bc bc0d 003e 6508 a1be cfff 3b3e
000000e0: 75d2 ab3d 30af 363e 12e3 223d 5c28 3c3d
000000f0: 9812 083e 7bae 1e3e d7e8 403d 83fd f7bd
00000100: 3487 56be 19b6 27be cf7a 77bd 02d5 a23d
00000110: 31a7 dc3d cf06 0fbe dca1 27be 7a72 04bd
00000120: 21dd 4fbe 93dd 6abd 2764 7dbd 260a b23d
00000130: 6f7d 863d 966a acbd 209c cd3d f737 113e
00000140: 3995 873e fa7e 2f3d 28f4 473e a071 b8bd
00000150: 1817 c73e d6d7 2bbe d860 eebd 2706 3f3e
00000160: 71e8 5bbe 6f98 0d3e eefa 56bd 7340 3cbe
00000170: 154e bebd 38b0 6c3d 5aa6 9d3d cc25 443e
00000180: 762a 0dbb 71c8 c8bd 444d c2bd e6a5 cf3d
00000190: 9ad6 f0bd 4edd 433e 14eb 86bd 8b71 7abe
000001a0: 42c9 823e bb9f fb3d 81d0 82be 5acd 923e
000001b0: b776 e6bc d2d0 483e c41b cf3e d3dc 5dbd
000001c0: 778d 673d 785a 3ebe df73 8a3e bbb1 ddbb
000001d0: fd8a cfbd f08b a9bd e8e1 593e 4a1d 4ebe
000001e0: 0bfe 89bd bcb7 7fbe 0933 febd d58b d33e
000001f0: 442f 25be d559 7dbe e004 02be c72e 47be
00000200: 4ae5 4f3d d01d 0780 0295 f382 1555 0ebc
00000210: 8841 aab9 8830 c334 b6cd 033d 6d93 8309
00000220: 8f48 0a00 34fd 0c80 ddf7 0600 31be bb18
00000230: 17cf b78a 941d dd94 399c ae26 0d7e 0000
00000240: 08e1 0700 8658 0300 2b5e 0500 602b 8a3d
00000250: 201b 0c80 d6b4 0080 2428 83ba 9bb7 a5bc
00000260: e872 0400 9cf3 3390 e418 b89a 17cd 4431
00000270: 77b3 b61a 8af9 0180 6adf 0200 5fe8 0200
00000280: 016a 09ab 4249 0380 c9db 0f3e f25c 0780
00000290: 701e 8928 d1cf ef92 3f01 0880 32fc 03b3
000002a0: afa3 e6b9 7b0e 0600 ad4b 7b30 2633 ce1e
000002b0: 01eb 612b 9e00 0000 0922 0200 2db2 47b9
000002c0: 16b5 0a39 2b3d 0300 367c 0700 c7ed e43c
000002d0: 766f 0200 fedf 6637 494b 243d dc26 c93c
000002e0: 0313 6ca0 3cc1 d53a 42d7 0600 6468 fbba
000002f0: a030 0f00 821e 0380 f7c5 0100 76b0 2ba4
00000300: ff7a b43e 38e1 0bbd 371d 5c3e 497e 513e
00000310: 53ec 85be 79b5 dcbc 1409 fd3c 9876 8c3e
00000320: 98e5 32be 8c6c 653e bef0 eabd 371b 88be
00000330: 551e 3d3d 2648 593e a8f7 87bd 2403 c93d
00000340: 4d2a 86be c10f e93c 3ffa 7dbe 0c50 58be
00000350: 229b db3d a6e0 893e 3653 523e 805b b2be
00000360: 88ba 9cbd b3e0 83be 3628 68be 8e7c 943e
00000370: da76 843e 1058 fb3d e0f5 35be 743a 8d3e
00000380: 3c91 693e 8ca0 e6bd 2ca1 d83c 602e d0bd
00000390: ed5f 743e ff22 b2be b2b5 1f3e 6794 9a3e
000003a0: fc4d 47be 5b04 73be 1f67 913e 7402 54be
000003b0: 3422 433e 52cb 033e d031 543e 17a8 3fbe
000003c0: 60e3 213d 181d 5a3e 8e12 66be b565 9ebc
000003d0: 357c 1d3e cca8 2a3e 25b1 a0be 939e 3c3e
000003e0: 70d6 003e 236f 773e 839d 373e 39b7 743e
000003f0: 7f2e 5dbc 065d 863e 4796 6dbe 1fcf 44be
0.3395613 -0.00283678 0.20167153 -0.011062794 -0.22876517 0.15790129 -0.055747334 0.14100327
0.11810556 -0.095991224 0.0888374 -0.1733399 -0.0034113342 0.24015772 -0.1166877 -0.10243646
-0.23917985 -0.025523972 -0.23324433 0.058034524 -0.004026619 0.17688495 0.20794229 -0.32976225
0.017893087 -0.18909207 0.1308905 0.2498491 0.20941041 -0.106547795 0.029215049 0.1527479
0.16250229 0.15037417 0.06332768 -0.015049043 0.14766912 -0.23639978 0.12150256 0.30487108
-0.27094945 -0.2914385 0.29879004 -0.24423264 -0.010210853 -0.056866672 0.06488228 0.033939663
-0.03639015 0.20343037 -0.21773525 -0.050516397 -0.022483299 0.12505239 -0.31451717 0.18359302
0.08389751 0.17840266 0.039767332 0.045936927 0.13288343 0.15496247 0.047097053 -0.121089004
-0.20950013 -0.16378058 -0.060419854 0.07950784 0.10774077 -0.13967441 -0.16370338 -0.032335736
-0.20299198 -0.057340216 -0.06186309 0.08693342 0.06566893 -0.08418767 0.10039544 0.14181505
0.26481035 0.042845704 0.19526732 -0.09006047 0.38884807 -0.16781554 -0.11639565 0.1865469
-0.21475388 0.1382768 -0.0524854 -0.1838396 -0.09292237 0.057785243 0.07697745 0.19155043
-0.0021540201 -0.09803856 -0.094873935 0.101390645 -0.11759682 0.1912739 -0.06587806 -0.24457376
0.25544173 0.122863255 -0.255497 0.28672296 -0.02813278 0.19610909 0.4045087 -0.054165673
0.056531396 -0.18589199 0.27041528 -0.006765572 -0.10133932 -0.08278644 0.21277583 -0.2012836
-0.06737908 -0.24972433 -0.12412078 0.4131762 -0.16131312 -0.247413 -0.12697172 -0.19451438
0.050755776 -6.53543e-40 -3.5791167e-37 -0.008687277 -0.0003247375 3.6356892e-07 0.032178603 3.167574e-33
9.44384e-40 -1.192858e-39 6.3993e-40 4.853041e-24 -1.7700158e-32 -2.2326964e-26 1.211602e-15 4.5219e-41
7.23574e-40 3.07263e-40 4.92959e-40 0.067465544 -1.111757e-39 -6.4872e-41 -0.001000647 -0.020229151
4.08563e-40 -3.5489195e-29 -7.614083e-23 2.8638334e-09 7.5563377e-23 -1.81353e-40 2.63817e-40 2.6703e-40
-4.881929e-13 -3.01786e-40 0.14048685 -6.76191e-40 1.5223256e-14 -1.5134251e-27 -7.35131e-40 -3.0730185e-08
-0.00043990972 5.56208e-40 9.142081e-10 2.1832253e-20 8.026219e-13 2.21e-43 1.9588e-40 -0.00019044495
0.00013228165 2.9745e-40 6.87407e-40 0.027945412 2.23656e-40 1.37612205e-05 0.04011086 0.024554662
-1.9996268e-19 0.0016308199 6.28233e-40 -0.0019180891 1.394976e-39 -2.8645e-40 1.62852e-40 -3.7229183e-17
0.3525009 -0.034150332 0.2149552 0.2045833 -0.26156864 -0.026942002 0.030888118 0.2743423
-0.17470396 0.22404689 -0.11471699 -0.26583263 0.046171505 0.21218929 -0.066390336 0.09815052
-0.26204148 0.028449895 -0.24802493 -0.21124285 0.107229486 0.26929206 0.20539555 -0.34835434
-0.076527655 -0.2575737 -0.2267159 0.29001278 0.25871927 0.12272656 -0.17769575 0.2758366
0.22809309 -0.11261091 0.02644404 -0.10165095 0.23864718 -0.34792325 0.15596655 0.30191347
-0.19463342 -0.2373213 0.28398988 -0.20704061 0.19056016 0.1287053 0.20722127 -0.18716465
0.039523482 0.21300161 -0.22468016 -0.019335607 0.15379412 0.16665953 -0.3138515 0.18419866
0.12581801 0.24163489 0.1793118 0.23898019 -0.013499855 0.26242846 -0.23201858 -0.19219635

classifier.0.bias f4 [64]
00000000: aff5 b43c b40c f83e 9687 523c bee4 033f
00000010: 3972 61bd 19cc d0bd efe1 473e 0d8e 823e
00000020: 1b98 343f 6b95 1a3f 3685 0a3f 8a42 0d3f
00000030: da17 0b3f 3e4b 203f 253b 93a6 55bd 203f
00000040: 2034 753e ce52 0b3f 21fa 023f da45 1e3f
00000050: e84c 1a3f 714e c9bd 751b 173f b0e8 f33d
00000060: eec6 0e3b c8fe 8d3e e96e c43e 5d9e dc3e
00000070: c869 373e 4588 f53d ac28 143f 8367 a33c
00000080: 8623 7d3d 0b61 f83e a817 683c c3cd 263f
00000090: 2ae9 263f b6f9 6ebe 5931 133f 6375 a83e
000000a0: 4408 e83c 1f72 083f 13c9 babc 0dd0 1d3f
000000b0: 9387 f73e 1aa6 afbd a806 99bc 752d 003f
000000c0: f625 70bd 42f9 afbc d55f 883e 5869 98be
000000d0: 92a7 36be c410 1b3f 08f5 43ae 05b2 1d3f
000000e0: e951 a03e 1ea6 223f 3efa 133f 2009 623e
000000f0: 507b 0b3f 7629 1bbd d5fd 85bd 70da 203f
0.022089807 0.48447192 0.012849709 0.5152091 -0.05504057 -0.101951785 0.1951978 0.25499
0.70544595 0.60384244 0.54109514 0.55179656 0.5433327 0.6261481 -1.0216205e-15 0.627889
0.23945665 0.54423225 0.51162916 0.61825335 0.602736 -0.09829415 0.5902627 0.11909616
0.0021786052 0.27733445 0.38365868 0.43089572 0.17911446 0.11988882 0.5787456 0.01994682
0.061801456 0.48511538 0.014165796 0.6515772 0.6519953 -0.23337445 0.57497174 0.3290206
0.028324254 0.53299135 -0.022800958 0.61645585 0.48345622 -0.08576603 -0.018679932 0.5006936
-0.058629952 -0.02148116 0.26635614 -0.2976787 -0.1783736 0.6057246 -4.4555498e-11 0.6159976
0.31312492 0.63534725 0.57803714 0.22073793 0.54485035 -0.037881337 -0.06542555 0.6283331

classifier.3.weight f4 [1, 64]
00000000: f50f a13d d4c7 023d 2dd6 043e ef10 153d
00000010: 85bd 2a3e 7b8e 9dbe a22c b13d 5002 80bd
00000020: 85f6 8ebd e7d6 08bd ab24 4e3d b7d7 40bd
00000030: dcd3 4ebd 7a6e 2dbd 1689 59b8 c1c8 22bd
00000040: e488 1ebe 2480 1dbd 9725 693d 68e6 d83c
00000050: 3db8 0b3d 73e9 b1be 25a4 7ebd b9ff 763d
00000060: c28b c53d 04a9 b4bd 69ad ec3c dfab 55bd
00000070: a557 24be b7e4 7a3d 1aad a3bd 50ac fa3d
00000080: c208 0fbe d134 41bd 1d59 0fbe 73f2 afbd
00000090: a307 58bd 653d 383e 10bc f83c e763 c53c
000000a0: a5ca 2dbe f307 70bd d03f b5bc f704 81bd
000000b0: eb86 3abd 49b8 3f3e 66c7 ffbc e844 1dbd
000000c0: b993 78be 925c 3f3a a1ff 8d3d 8e0a e8be
000000d0: de3f 523e 2f0e 233d c4bd d9ba ecc1 07bd
000000e0: a4f2 cb3d 19d9 093d ed5a 1a3d d90a d2bd
000000f0: a788 acbd 73ef 66ba 7380 8e3b 5cad 3a3d
0.07864372 0.031928852 0.12972327 0.036393102 0.16673858 -0.30772766 0.08651091 -0.06250441
-0.069806136 -0.03340807 0.050327938 -0.04708072 -0.050495014 -0.042341687 -5.1864503e-05 -0.039742235
-0.15481907 -0.038452283 0.056920614 0.026477054 0.03411125 -0.3474842 -0.06216826 0.06030247
0.09645797 -0.088213 0.028891282 -0.052165862 -0.16049059 0.061253276 -0.07992001 0.12239897
-0.13968185 -0.04716951 -0.13998838 -0.085911654 -0.052741658 0.1799217 0.030363113 0.024095489
-0.16971834 -0.05860133 -0.022125155 -0.06299775 -0.045538824 0.18722643 -0.03122301 -0.038395792
-0.24275102 0.0007299866 0.06933523 -0.45320553 0.20532176 0.03980845 -0.0016612341 -0.033143923
0.099583894 0.033654306 0.03768437 -0.10255975 -0.08424502 -0.00088094844 0.0043488084 0.045575485
