results/dropped_pagerank/best_gcn_model.pth (torch, 303851 bytes, 13 tensors)

node_embedding.weight f4 [64, 770]
-0.21118787 0.1407542 0.18721499 0.3023716 0.08148414 0.23325454 0.016272165 -0.11891038
-0.016485417 -0.059795525 0.25313064 -0.095208816 -0.21680272 0.022087675 -0.19389151 0.06157447
-0.0009840768 -0.14564613 0.085126504 -0.09682653 -0.031165924 0.081061415 0.16860166 0.078986965
0.18193427 -0.11412723 -0.092779644 0.0023465743 0.2600158 0.06611694 -0.02905673 0.022082053
0.5278415 -0.2022008 -0.07127467 0.10734464 -0.10226652 0.098195516 -0.012425764 0.015484542
-0.18436399 0.03935978 0.26550186 0.043064613 -0.29160392 0.16584691 -0.27209476 -0.11308989
-0.078934014 0.19588175 0.058979012 0.13752536 -0.044212297 0.30397424 0.23100603 0.13802159
0.13432081 0.15782842 0.029638102 0.05450386 -0.37566748 -0.032662496 -0.18945935 -0.02897603
-0.15503609 -0.08803093 -0.18251473 -0.107285045 -0.009045583 0.13958248 -0.24099839 0.12657572
-0.25885862 -0.20736454 0.0009982338 -0.03960155 -0.31924614 -0.0013029567 -0.14967741 0.37470314
0.13364033 -0.05260445 0.27994022 0.24953501 -0.2158349 0.013404279 -0.2932364 0.06488656
0.088107996 -0.26891086 -0.07095612 -0.008545627 0.22833855 0.069109514 0.067780316 -0.13309488
-0.035901718 0.13903053 -0.1446294 -0.21225348 0.14407894 0.14416392 -0.15450054 0.1681095
0.096489064 -0.014581976 0.25088012 0.12874798 -0.05763393 0.07412607 0.014767901 0.13429911
-0.10211267 0.25411043 -0.063655384 0.0848518 -0.46456942 -0.111914136 -0.18215096 -0.073532395
-0.037029702 0.028739614 0.15738189 -0.13302155 -0.27773052 0.0009867116 0.073932655 -3.9007612e-30
0.20824707 0.07490393 -0.025709275 -0.44079384 0.16095734 0.18349354 -0.17018574 -0.04098275
-0.16414405 0.0044279583 -0.006867298 0.23843777 0.09163019 0.05869861 -0.20093872 -0.04880247
0.1558878 0.2280138 0.0950802 -0.18659306 -0.047862306 -0.08508393 0.26833507 -0.13288745
0.028459325 0.24827197 0.2333882 0.17017296 -0.09517203 -0.19851725 0.105623506 -0.2596936
0.1917217 0.096344315 -0.14352018 -0.042236056 -0.21092291 -0.011875732 0.018903153 0.018092278
0.054450173 -0.2537432 -0.32583266 0.4033641 -0.17810698 -0.16508299 -0.15888092 -0.19828859
0.09511923 0.17712411 -0.23163164 0.39595518 0.16782914 0.11589161 0.04836099 0.009180638
-0.2722468 0.067083426 0.0009807245 0.34677926 0.22596776 -0.054935317 0.3399744 0.09592239
-0.023882717 -0.119990595 -0.04939637 0.16426638 -0.28030664 -0.05451636 0.08750819 0.020142071
0.3533962 0.28784794 0.050788525 -0.039133754 0.023329878 -0.03630263 0.047297217 -0.11866816
0.044875477 -0.0431821 -0.16177219 -0.0069750124 -0.23828287 -0.357361 -0.005566539 0.19500504
0.3839046 0.09676164 -0.10257803 -0.26005948 -0.33641648 0.20416142 0.15446642 -9.206813e-31
-0.0847634 0.028101932 0.20988405 0.14365685 0.1970102 0.13870522 -0.10308147 0.07228555
0.2878963 0.1313179 -0.05925011 -0.0034423633 0.121747956 -0.29008058 0.19862829 -0.021495739
-0.025708262 -0.040144164 0.1028619 -0.08901932 0.19348632 0.065965205 0.084561594 -0.23866966
0.19784987 -0.19949797 -0.0730024 -0.16649392 -0.12218256 -0.021586591 0.006701434 -0.29689217
00000000: a241 58be de21 103e 49b5 3f3e 73d0 9a3e
00000010: 28e1 a63d 47da 6e3e 344d 853c 4987 f3bd
00000020: 6d0c 87bc 27ec 74bd 579a 813e d7fc c2bd
00000030: 8801 5ebe 36f1 b43c 7f8b 46be 8335 7c3d
00000040: 23fc 80ba 4224 15be ce56 ae3d fd4c c6bd
00000050: ae4f ffbc 8703 a63d eaa5 2c3e ebc3 a13d
00000060: fa4c 3a3e 8abb e9bd 4103 bebd fcc8 193b
00000070: ca20 853e 5168 873d 6108 eebc 6ce5 b43c
00000080: 9f20 073f ba0d 4fbe 74f8 91bd 82d7 db3d
00000090: 1c71 d1bd bb1a c93d 6f95 4bbc e0b2 7d3c
000000a0: eac9 3cbe b837 213d dcef 873e 8564 303d
000000b0: 1c4d 95be c6d3 293e 0150 8bbe ac9b e7bd
000000c0: 28a8 a1bd 3a95 483e fa93 713d 73d3 0c3e
000000d0: f417 35bd 83a2 9b3e d88c 6c3e 8855 0d3e
000000e0: 658b 093e c69d 213e 9bcb f23c 713f 5f3d
000000f0: 7d57 c0be 1cc9 05bd a201 42be 245f edbc
00000100: c8c1 1ebe 8f49 b4bd 24e5 3abe 43b8 dbbd
00000110: ed33 14bc b6ee 0e3e 48c8 76be 119d 013e
00000120: 1e89 84be 5f57 54be 2bd7 823a 3c35 22bd
00000130: 3b74 a3be f9c7 aaba 0945 19be 17d9 bf3e
00000140: 03d9 083e c477 57bd 5354 8f3e 1b86 7f3e
00000150: d303 5dbe 9f9d 5b3c 1523 96be 3fe3 843d
00000160: f771 b43d afae 89be 7151 91bd f502 0cbc
00000170: 95d1 693e 4a89 8d3d 68d0 8a3d 064a 08be
00000180: ae0d 13bd 055e 0e3e bb19 14be fa58 59be
00000190: 6e89 133e b59f 133e 6435 1ebe e624 2c3e
000001a0: 0f9c c53d 3ee9 6ebc 5c73 803e 83d6 033e
000001b0: 8e11 6cbd 69cf 973d 11f5 713c b585 093e
000001c0: 7320 d1bd c31a 823e c15d 82bd c8c6 ad3d
000001d0: 0bdc edbe 3d33 e5bd c885 3abe 2798 96bd
000001e0: 75ac 17bd 576f eb3c b828 213e cd36 08be
000001f0: b232 8ebe 8c54 813a 016a 973d d23b 9e8e
00000200: b83e 553e 3b67 993d 429c d2bc bbaf e1be
00000210: 00d2 243e bbe5 3b3e 2c45 2ebe 87dd 27bd
00000220: 6115 28be 6818 913b 1207 e1bb 0829 743e
00000230: 9ca8 bb3d f46d 703d e1c2 4dbe 19e5 47bd
00000240: 0da1 1f3e 737c 693e 68b9 c23d 4012 3fbe
00000250: 440b 44bd 7c40 aebd 3763 893e a613 08be
00000260: 8823 e93c 023b 7e3e 51fd 6e3e d241 2e3e
00000270: 8ee9 c2bd 1b48 4bbe 2351 d83d 8ff6 84be
00000280: b152 443e 2b50 c53d f4f6 12be b7ff 2cbd
00000290: 2dfc 57be 6e92 42bc c9da 9a3c 4236 943c
000002a0: 2507 5f3d a1ea 81be 8ad3 a6be bd85 ce3e
000002b0: ad61 36be 840b 29be aeb1 22be 2a0c 4bbe
000002c0: dfcd c23d 0660 353e d830 6dbe a3ba ca3e
000002d0: 67db 2b3e 9558 ed3d 2c16 463d 636a 163c
000002e0: ef63 8bbe 0963 893d a78b 803a 0d8d b13e
000002f0: 1864 673e db03 61bd 2011 ae3e f572 c43d
00000300: b0a5 c3bc a1bd f5bd d953 4abd 7235 283e
00000310: 5a84 8fbe 8c4c 5fbd 7e37 b33d fc00 a53c
00000320: 59f0 b43e ce60 933e a107 503d b74a 20bd
00000330: 4d1e bf3c 11b2 14bd baba 413d 4b08 f3bd
00000340: 59cf 373d b7df 30bd 9ca7 25be a58e e4bb
00000350: 6d00 74be 05f8 b6be 8367 b6bb 67af 473e
00000360: 258f c43e f72a c63d 6e14 d2bd 8426 85be
00000370: c83e acbe b10f 513e 722c 1e3e 9b63 958d
00000380: 6f98 adbd 0636 e63c d8eb 563e c81a 133e
00000390: 0bbd 493e be08 0e3e 611c d3bd 720a 943d
000003a0: 2567 933e 3378 063e 3eb0 72bd 4699 61bb
000003b0: fe56 f93d 7185 94be 3765 4b3e d517 b0bc
000003c0: 229a d2bc 356e 24bd 43a9 d23d c34f b6bd
000003d0: 4721 463e c418 873d a12e ad3d d265 74be
000003e0: 2899 4a3e 3249 4cbe 4882 95bd 627d 2abe
000003f0: da3a fabd 5dd6 b0bc b497 db3b 4002 98be

node_embedding.bias f4 [64]
0.22617152 -0.22830592 -0.47103658 0.15706462 0.043835983 -0.11460942 -0.09388397 -0.22655247
0.10887337 -0.250593 0.13368075 -0.25770742 -0.23456243 0.38227034 -0.3052105 -0.2235651
-0.44062227 -0.18070567 -0.25613886 -0.15431733 0.0257211 -0.08451701 0.16649926 -0.12556063
-0.28295323 0.18671183 0.3712998 -0.04605993 0.025301367 -0.3079345 -0.36417913 -0.12592658
-0.2176427 -0.27117023 0.100521 -0.07140455 0.044761464 -0.46766216 -0.417378 -0.12944834
-0.106673196 -0.115577586 0.31099582 -0.40615055 -0.086479396 0.118448235 0.3398352 -0.21174426
-0.21901666 -0.22810534 -0.07726205 -0.1643963 -0.40319422 0.19652714 0.28192076 0.44378135
0.2514259 -0.26274106 0.22058612 0.3401672 0.38225305 -0.050815403 0.24454726 0.23422997
00000000: 8299 673e 07c9 69be b52b f1be 8cd5 203e
00000010: 5c8d 333d 58b8 eabd 3d46 c0bd 5ffd 67be
00000020: 00f9 de3d ba4d 80be 9be3 083e 3af2 83be
00000030: 2231 70be f0b8 c33e 8d44 9cbe 40ee 64be
00000040: 3e99 e1be e80a 39be a224 83be 5d05 1ebe
00000050: 0eb5 d23c 4117 adbd c87e 2a3e f792 00be
00000060: 3fdf 90be 6331 3f3e 021b be3e 56a9 3cbd
00000070: d044 cf3c 97a9 9dbe b075 babe e6f2 00be
00000080: badd 5ebe d3d6 8abe f4dd cd3d 8c3c 92bd
00000090: cc57 373d 6a71 efbe 92b2 d5be 1b8e 04be
000000a0: 7a77 dabd f1b3 ecbd d83a 9f3e f7f2 cfbe
000000b0: 1c1c b1bd fd94 f23d e1fe ad3e 7dd3 58be
000000c0: e745 60be 7294 69be 913b 9ebd 8157 28be
000000d0: 796f cebe 693e 493e eb57 903e 4f37 e33e
000000e0: e5ba 803e ff85 86be 54e1 613e 652a ae3e
000000f0: acb6 c33e d023 50bd 996a 7a3e fbd9 6f3e

gcn.convs.0.bias f4 [64]
-1.213779 -1.0205146 -0.025183408 -0.7564032 -1.2054837 -0.13476859 -1.2314725 -1.1658427
-1.073737 -0.039692596 -1.021897 -1.1648352 -1.0851406 -0.84687155 -1.2807064 -1.0362713
-1.0973492 -1.1082983 -1.1335673 -0.79281044 -1.1143851 -1.4040008 -0.23825663 -1.3154172
-1.1854535 -0.25975093 -1.1832347 -1.1542808 -1.0784944 -1.0149506 -1.2218832 -1.1824452
-1.2749932 -0.1621766 -1.1730808 -1.1319437 -1.0880128 -1.2681899 -1.111651 -0.62089795
-1.1731756 -0.022075424 -0.46392378 -1.0352061 -0.5843706 -1.0485487 -1.131378 -1.2495873
-0.6711756 -0.9694493 -1.1355864 -1.0518967 -1.2301253 -1.3137602 -1.0427833 -1.0607702
-0.7076917 -1.0711428 0.009215233 -1.2954994 -1.1962197 -1.1466141 -0.9594657 -0.23861401
00000000: 1c5d 9bbf 39a0 82bf 6f4d cebc a4a3 41bf
00000010: 4a4d 9abf c700 0abe e4a0 9dbf 553a 95bf
00000020: 3770 89bf b494 22bd 85cd 82bf 5219 95bf
00000030: e3e5 8abf 93cc 58bf 30ee a3bf 8aa4 84bf
00000040: f075 8cbf b8dc 8dbf bc18 91bf a0f5 4abf
00000050: 2ca4 8ebf 4cb6 b3bf 8cf9 73be 975f a8bf
00000060: f1bc 97bf 13fe 84be 3c74 97bf 79bf 93bf
00000070: 1b0c 8abf e7e9 81bf ab66 9cbf 5d5a 97bf
00000080: fa32 a3bf 9f11 26be 8327 96bf 88e3 90bf
00000090: 0144 8bbf 0c54 a2bf 944a 8ebf 2bf3 1ebf
000000a0: 9e2a 96bf 85d7 b4bc 6b87 edbe a281 84bf
000000b0: 5099 15bf d836 86bf ffd0 90bf 7af2 9fbf
000000c0: 2ad2 2bbf d42d 78bf e55a 91bf 8da4 86bf
000000d0: bf74 9dbf 4b29 a8bf ec79 85bf 51c7 87bf
000000e0: 492b 35bf 351b 89bf 7dfb 163c edd2 a5bf
000000f0: ba1d 99bf 40c4 92bf 8b9f 75bf 3b57 74be

gcn.convs.0.lin.weight f4 [64, 64]
-0.03940001 0.20074491 0.36198026 0.24352126 0.10049088 0.34956676 0.14914723 -0.21364442
0.16397473 -0.037717357 0.19357684 -0.23403755 0.22230202 0.12581886 0.092543945 0.04838673
-0.1317741 0.1092844 0.417407 -0.12287645 -0.00063736056 -0.3160527 -0.064786926 -0.097999014
0.1747671 -0.10054209 -0.32710877 -0.101282105 0.21145299 0.31379282 -0.07457564 -0.008859609
0.24999724 -0.07326275 0.18496579 0.15010343 0.13048005 0.10992284 0.42285016 0.20138173
0.30060327 -0.18819551 -0.4165478 -0.06463915 -0.20403938 -0.15425296 -0.3540171 -0.35766765
0.10241041 -0.14078462 0.037666313 -0.45045543 0.08169786 -0.2640275 -0.07415703 0.07635385
0.03808155 -0.034788292 -0.17041722 0.010490555 -0.40371346 -0.16832955 -0.15126984 -0.07848944
0.23059626 -0.02882679 0.09445522 -0.040083267 0.16486473 0.05777618 0.088549204 -0.032298684
-0.26052412 -0.06632405 -0.07967198 -0.086798064 0.039270338 0.06115937 -0.29366237 -0.11944934
-0.06346823 -0.40420276 -0.15849209 -0.13722496 -0.09564082 0.32804683 -0.103778966 0.11627599
0.18056083 0.18999337 0.043126844 0.17068988 0.30472127 0.18370104 -0.2864063 -0.2044113
-0.3022951 0.34097177 0.048923295 0.26702663 0.04242794 0.48621184 0.09133706 -0.20576802
0.211312 -0.2592382 0.007978045 0.24298885 0.4151262 0.042585216 -0.26599887 0.31111854
0.1459366 -0.25618505 0.402 0.10268001 -0.002019375 -0.03909157 -0.19393672 0.0061570727
-0.23999022 0.1495529 -0.029360125 -0.07843972 -0.18097594 0.025141537 0.3807219 -0.16500126
0.18133773 0.030469174 -0.015889639 0.30030802 -0.022620693 0.01961212 -0.15927666 -0.032201838
0.2764888 -0.2546373 0.12218188 -0.020474456 -0.078418195 0.1015278 -0.1863866 -0.1263324
-0.17016 0.038941562 -0.02078502 0.0069009354 -0.14185561 0.026178485 0.15750143 -0.07256722
0.0057165357 0.014347621 0.123913266 0.06892557 0.063209526 0.09419873 -0.099780805 0.024605038
-0.0076910313 -0.09754513 0.036536876 -0.08573931 -0.064638086 -0.23015034 -0.027257252 0.0019727927
-0.096951656 -0.01588035 0.09292527 -0.22025116 0.05188398 -0.052546248 -0.15407352 -0.074303836
-0.035951167 -0.01528384 0.09400906 -0.20188305 -0.17308293 -0.050775364 -0.039754275 0.070665434
-0.1735012 0.09646106 -0.35088736 0.03582708 0.1968963 0.1017765 0.12592524 0.15471858
0.07932175 0.23398496 -0.01997432 -0.05738441 -0.16456386 0.2570383 -0.11922773 -0.01380849
-0.056952916 -0.19205011 -0.023809591 0.37716174 0.05495543 -0.00024574483 -0.005116034 0.29299703
-0.34955242 0.09963194 0.108205535 -0.06497865 -0.354347 0.3393535 0.15895982 -0.06411272
0.15546042 -0.07696524 -0.045363564 0.040887732 -0.36695242 0.3283674 -0.08265683 -0.13852856
-0.012418566 -0.008626822 0.18552166 0.051551823 0.015935222 0.12969588 -0.07198632 0.15990207
0.063608214 -0.046934683 0.012131953 0.16094275 0.30797336 0.056697734 -0.1217819 -0.0543809
0.039249822 -0.23730133 0.26386085 0.15185219 0.056643825 -0.023609942 -0.09150684 -0.06678932
-0.03564745 -0.07878616 -0.06473037 -0.14025907 -0.72145844 0.021233693 0.1471099 -0.06425744
00000000: e861 21bd 1390 4d3e 7a55 b93e a35d 793e
00000010: 2ace cd3d 6afa b23e 0dba 183e 9ac5 5abe
00000020: fee8 273e 847d 1abd 0239 463e 8aa7 6fbe
00000030: 24a3 633e a9d6 003e ae87 bd3d 2a31 463d
00000040: caef 06be 80d0 df3d 5fb6 d53e a6a6 fbbd
00000050: 8b14 27ba a9d1 a1be 02af 84bd b5b3 c8bd
00000060: 26f6 323e 03e9 cdbd cd7a a7be fe6c cfbd
00000070: 2287 583e 74a9 a03e 1dbb 98bd e527 11bc
00000080: 47ff 7f3e c80a 96bd ac67 3d3e b7b4 193e
00000090: 909c 053e 3a1f e13d d17f d83e 0337 4e3e
000000a0: ace8 993e 53b6 40be c145 d5be 8861 84bd
000000b0: b3ef 50be 7df4 1dbe bb41 b5be 3720 b7be
000000c0: 8dbc d13d d829 10be fe47 1a3d 18a2 e6be
000000d0: 3551 a73d 9d2e 87be a4df 97bd 685f 9c3d
000000e0: 66fb 1b3d 2b7e 0ebd da81 2ebe 94e0 2b3c
000000f0: 88b3 cebe 955e 2cbe 7be6 1abe 12bf a0bd
00000100: 6d21 6c3e 2926 ecbc bd71 c13d 5a2e 24bd
00000110: 4dd2 283e b7a6 6c3d 4959 b53d a04b 04bd
00000120: 6b63 85be e7d4 87bd 102b a3bd 2fc3 b1bd
00000130: efd9 203d 3f82 7a3d ea5a 96be dba1 f4bd
00000140: a2fb 81bd aaf3 cebe c04b 22be b384 0cbe
00000150: 56df c3bd c1f5 a73e 118a d4bd 1b22 ee3d
00000160: f0e4 383e 9f8d 423e c6a5 303d 54c9 2e3e
00000170: 6d04 9c3e 201c 3c3e d9a3 92be 3251 51be
00000180: 6cc6 9abe da93 ae3e cb63 483d b7b7 883e
00000190: ebc8 2d3d c2f0 f83e ed0e bb3d dab4 52be
000001a0: 2c62 583e dfba 84be 59b6 023c 12d2 783e
000001b0: 6c8b d43e d66d 2e3d 0131 88be ee4a 9f3e
000001c0: 6770 153e b02a 83be f2d2 cd3e e649 d23d
000001d0: 7e57 04bb 7b1e 20bd 5997 46be 45c1 c93b
000001e0: ffbf 75be 6524 193e a584 f0bc 01a5 a0bd
000001f0: c251 39be a0f5 cd3c fbed c23e 17f6 28be
00000200: 99b0 393e 7d9a f93c fd2a 82bc f9c1 993e
00000210: 084f b9bc 99a9 a03c 6c19 23be 13e6 03bd
00000220: f18f 8d3e d25f 82be 7e3a fa3d 0cba a7bc
00000230: b899 a0bd cfed cf3d 21dc 3ebe 485d 01be
00000240: 6c3e 2ebe 3081 1f3d 5945 aabc 3e21 e23b
00000250: 9942 11be 4374 d63c 0e48 213e 1f9e 94bd
00000260: c751 bb3b 4912 6b3c 3dc6 fd3d d928 8d3d
00000270: ff73 813d 44eb c03d e159 ccbd 8190 c93c
00000280: 0c05 fcbb bec5 c7bd b1a7 153d 1798 afbd
00000290: f960 84bd 88ac 6bbe 9a4a dfbc f849 013b
000002a0: 978e c6bd 8217 82bc 9b4f be3d 8589 61be
000002b0: 4c84 543d bc3a 57bd 73c5 1dbe 9c2c 98bd
000002c0: 8841 13bd 1269 7abc d287 c03d 6eba 4ebe
000002d0: a73c 31be d4f9 4fbd 61d5 22bd 0ab9 903d
000002e0: 4caa 31be 608d c53d 82a7 b3be 6bbf 123d
000002f0: 2f9f 493e 3370 d03d 8cf2 003e 8c6e 1e3e
00000300: 7173 a23d c199 6f3e 2fa1 a3bc ea0b 6bbd
00000310: 6e83 28be 869a 833e ab2d f4bd 013d 62bc
00000320: 7647 69bd c9a8 44be 550c c3bc 581b c13e
00000330: f218 613d 50d7 80b9 67a4 a7bb b503 963e
00000340: 89f8 b2be d50b cc3d dd9a dd3d 8713 85bd
00000350: f86c b5be bebf ad3e 5dc6 223e 884d 83bd
00000360: 0431 1f3e f49f 9dbd 25cf 39bd e579 273d
00000370: 30e1 bbbe c61f a83e fc47 a9bd 6eda 0dbe
00000380: 3e77 4bbc 8457 0dbc 64f9 3d3e 0128 533d
00000390: 958a 823c ffce 043e 906d 93bd 5ebd 233e
000003a0: 0645 823d 953e 40bd 19c5 463c 2dce 243e
000003b0: afae 9d3e e23b 683d ca68 f9bd 82be 5ebd
000003c0: 6cc4 203d 1fff 72be c518 873e 247f 1b3e
000003d0: 5b03 683d a369 c1bc f067 bbbd d7c8 88bd
000003e0: 0f03 12bd a35a a1bd 5b91 84bd 13a0 0fbe
000003f0: 80b1 38bf 48f2 ad3c faa3 163e 6899 83bd

gcn.convs.1.bias f4 [64]
0.52981585 0.14779691 -0.93785214 0.5918677 -0.4276197 -1.1070455 -1.3167962 -0.5811133
0.57339895 -0.90086365 0.1464687 0.25765333 -0.5474326 -0.9280648 0.58422774 0.5386285
0.5572471 -0.6900631 -1.3911967 0.53026056 -0.85145783 -0.8536552 0.5914394 -0.6475366
0.5102944 -1.2055694 -0.798138 -1.0695893 -1.3657799 -1.0927647 -0.83936965 -0.834693
-1.5455266 -0.59846735 0.3023781 0.13216116 -0.7034919 -0.93696636 -0.4163259 -1.1850932
-0.6737915 0.41752505 -0.29321384 -0.79761696 -1.5097163 0.52286685 0.42868686 0.55055624
-1.3153096 0.6013876 -1.2797914 -0.6030333 0.4597349 -1.2441165 0.10769951 -0.53685206
-0.47036034 -0.89808387 -1.021697 0.4316434 0.3032231 0.1221294 0.43996128 0.26555604
00000000: 03a2 073f 1358 173e 1417 70bf a484 173f
00000010: f8f0 dabe abb3 8dbf c78c a8bf d7c3 14bf
00000020: 46ca 123f 009f 66bf e4fb 153e 23eb 833e
00000030: 8b24 0cbf a895 6dbf f38f 153f 8fe3 093f
00000040: bfa7 0e3f faa7 30bf bc12 b2bf 28bf 073f
00000050: 24f9 59bf 2689 5abf 9368 173f f5c4 25bf
00000060: a7a2 023f 1950 9abf c652 4cbf 4de8 88bf
00000070: e0d1 aebf b7df 8bbf eee0 56bf 71ae 55bf
00000080: d1d3 c5bf 2835 19bf 4dd1 9a3e 4155 073e
00000090: 0c18 34bf 07dd 6fbf ab28 d5be 22b1 97bf
000000a0: 9a7d 2cbf d8c5 d53e 2020 96be a030 4cbf
000000b0: 623e c1bf 9ada 053f d87c db3e 41f1 0c3f
000000c0: 115c a8bf 8af4 193f 34d0 a3bf 6460 1abf
000000d0: 5f62 eb3e 363f 9fbf 9091 dc3d 236f 09bf
000000e0: 12d3 f0be d3e8 65bf f8c6 82bf 5d00 dd3e
000000f0: 0f40 9b3e fb1e fa3d 9b42 e13e f6f6 873e

gcn.convs.1.lin.weight f4 [64, 64]
-0.30577296 -0.1819878 -0.034013346 -0.12379297 -0.24291651 0.05022239 -0.37647772 -0.31268424
-0.2500579 0.011617173 -0.24994317 -0.313607 -0.20090342 -0.33075237 -0.19295728 -0.34854442
-0.36971003 -0.23409523 -0.42376235 -0.19811048 -0.28309858 -0.32177657 0.15690847 -0.32699406
-0.2766764 -0.042495716 -0.16034327 -0.26357988 -0.23690288 -0.28003073 -0.35472104 -0.25301975
-0.503169 0.031362694 -0.2181694 -0.42184904 -0.17756619 -0.29079977 -0.44931048 -0.29727527
-0.33305523 0.13415879 -0.17459236 -0.31378052 -0.08718479 -0.29400954 -0.32445008 -0.2659245
-0.17831862 -0.25052893 -0.18258563 -0.22603299 -0.35924965 -0.2770147 -0.27355766 -0.3513406
-0.15984382 -0.22682334 0.014970068 -0.34416986 -0.22592804 -0.24567358 -0.28729492 0.048251316
-0.461889 -0.63502985 0.07752681 -0.65007526 -0.48626328 0.05122374 -0.60156256 -0.38504735
-0.36370152 0.07011427 -0.37738517 -0.20250994 -0.5417036 -0.6655787 -0.2652522 -0.3410769
-0.12285482 -0.32690212 -0.36074817 -0.757183 -0.29388076 -0.47915015 0.14491981 -0.25832978
-0.5648364 0.10495548 -0.47898373 -0.32514834 -0.37056762 -0.32382768 -0.15994519 -0.22703503
-0.3144251 0.059697762 -0.22284262 -0.3529733 -0.27130562 -0.4780933 -0.37499774 -0.2789628
-0.5648229 0.12058836 -0.22362421 -0.55530393 -0.100149445 -0.50152135 -0.3339253 -0.26121643
-0.27624112 -0.4417093 -0.44381368 -0.3656119 -0.52916324 -0.5572607 -0.3143243 -0.4496198
-0.44765297 -0.28972203 -0.0101558855 -0.486477 -0.3767448 -0.38711172 -0.336597 0.07808278
0.31190053 0.26079747 0.007843985 0.15687753 0.33558547 0.06935402 0.08185151 0.25386718
0.12447371 -0.0786675 0.24587049 0.16479217 0.2918702 0.0977925 0.08222787 0.25367787
0.29730037 0.12756802 0.18851785 0.14635953 0.3844382 0.2174533 0.039302014 0.3499172
0.27862284 0.16355899 0.2520382 0.31673044 0.32317305 0.30511054 0.24415918 0.35311598
0.3876029 -0.027314328 0.3284665 0.19069915 0.11313868 0.38787955 0.21184207 0.052140143
0.21253316 -0.02094772 0.16555114 0.09915916 0.3437209 0.30098134 0.31925753 0.33292112
0.027912611 0.10152961 0.21791741 0.28313956 0.4077748 0.24096629 0.18750542 0.16028729
0.07224793 0.17100078 0.058823172 0.16845821 0.25568902 0.25499034 0.20486474 0.117642865
-0.03640773 -0.03582522 0.045576394 -0.11958566 -0.18255548 0.010851836 -0.18604742 -0.21794991
-0.22646984 0.051924866 -0.23045339 -0.23929755 -0.19680454 -0.15392822 -0.18472295 -0.32596844
-0.13023496 -0.066900335 -0.2191553 -0.07173175 -0.5204167 -0.16100796 -0.009410855 -0.057142276
-0.1419589 -0.23010732 -0.1459363 -0.2903247 -0.40999848 -0.06606363 -0.35505548 -0.041363593
-0.30628604 0.026574442 -0.066463634 -0.21519807 -0.15524162 -0.23009501 -0.096991986 0.004448991
-0.21197927 0.03614064 -0.25800443 -0.16234666 -0.5721784 -0.08833684 -0.08228888 -0.17394727
-0.1598865 -0.16888008 -0.12548143 -0.31338292 -0.028350037 -0.17389807 -0.1715467 -0.117389865
-0.32552558 -0.22983208 0.02053772 -0.27814 -0.23784822 -0.052219238 -0.3132731 -0.06981928
00000000: 468e 9cbe 035b 3abe 9451 0bbd 2b87 fdbd
00000010: 1bbf 78be feb5 4d3d b0c1 c0be 2618 a0be
00000020: 9707 80be f555 3e3c 1af1 7fbe 1991 a0be
00000030: a0b9 4dbe 6058 a9be 9896 45be 6a74 b2be
00000040: a24a bdbe a9b6 6fbe 61f7 d8be 79dd 4abe
00000050: 4cf2 90be e6bf a4be 9dac 203e c46b a7be
00000060: 87a8 8dbe fd0f 2ebd 0731 24be f1f3 86be
00000070: ab96 72be 3060 8fbe ff9d b5be ce8b 81be
00000080: afcf 00bf 2b76 003d cd67 5fbe 99fc d7be
00000090: e9d3 35be b5e3 94be 060c e6be 7734 98be
000000a0: 3786 aabe ec60 093e 57c8 32be d7a7 a0be
000000b0: f08d b2bd 6b88 96be 521e a6be 4227 88be
000000c0: 2899 36be 5445 80be baf7 3abe 3175 67be
000000d0: 92ef b7be dfd4 8dbe c00f 8cbe eae2 b3be
000000e0: 19ae 23be 6144 68be 0445 753c 0837 b0be
000000f0: ae59 67be db91 7bbe 5218 93be 2ca3 453d
00000100: b77c ecbe 5191 22bf 60c6 9e3d 556b 26bf
00000110: 80f7 f8be fccf 513d 0100 1abf ed24 c5be
00000120: 1637 babe 1298 8f3d a138 c1be c45e 4fbe
00000130: 16ad 0abf 5e63 2abf 23cf 87be a2a1 aebe
00000140: 4f9b fbbd b75f a7be fcb3 b8be bfd6 41bf
00000150: 8a77 96be 2b53 f5be dc65 143e cd43 84be
00000160: 1e99 10bf e6f2 d63d 5b3d f5be d879 a6be
00000170: 0abb bdbe becc a5be acc8 23be df7b 68be
00000180: 54fc a0be a485 743d db30 64be ebb8 b4be
00000190: 92e8 8abe a5c8 f4be b4ff bfbe 36d4 8ebe
000001a0: 3c98 10bf 08f7 f63d bffd 64be 6628 0ebf
000001b0: 271b cdbd b463 00bf 42f8 aabe 29be 85be
000001c0: 7a6f 8dbe b927 e2be 8c3b e3be 7c31 bbbe
000001d0: 3e77 07bf a3a8 0ebf 1def a0be 9134 e6be
000001e0: c532 e5be 7256 94be df64 26bc 8313 f9be
000001f0: b2e4 c0be 8233 c6be 7156 acbe dde9 9f3d
00000200: 6db1 9f3e 3f87 853e 0f84 003c 81a4 203e
00000210: dcd1 ab3e 7b09 8e3d c4a1 a73d e1fa 813e
00000220: 13ec fe3d 6d1c a1bd 79c5 7b3e 47bf 283e
00000230: 0370 953e 6f47 c83d 1667 a83d 11e2 813e
00000240: c137 983e 31a1 023e d30a 413e 46df 153e
00000250: 15d5 c43e 14ac 5e3e 26fb 203d 5928 b33e
00000260: a7a7 8e3e 027c 273e 270b 813e 7e2a a23e
00000270: f076 a53e 7337 9c3e dd04 7a3e 9ecb b43e
00000280: e373 c63e 4cc2 dfbc c32c a83e a346 433e
00000290: 41b5 e73d 2698 c63e 21ed 583e e790 553d
000002a0: 4ba2 593e 8e9a abbc 3d86 293e f513 cb3d
000002b0: 30fc af3e 3a1a 9a3e b975 a33e a374 aa3e
000002c0: fda8 e43c c2ee cf3d be25 5f3e abf7 903e
000002d0: dcc7 d03e debf 763e 6c01 403e 5a22 243e
000002e0: b9f6 933d d41a 2f3e 91f0 703d 4f80 2c3e
000002f0: ace9 823e 188e 823e 10c8 513e beee f03d
00000300: 4620 15bd 77bd 12bd 50ae 3a3d 54e9 f4bd
00000310: d3ef 3abe e6cb 313c 3783 3ebe 432e 5fbe
00000320: b6e7 67be 2baf 543d f9fb 6bbe 6b0a 75be
00000330: 2187 49be 5c9f 1dbe 0328 3dbe 56e5 a6be
00000340: 505c 05be 0b03 89bd 3f6a 60be 19e8 92bd
00000350: 073a 05bf 45df 24be fd2f 1abc 050e 6abd
00000360: ad5d 11be 41a1 6bbe 5370 15be 70a5 94be
00000370: 52eb d1be 5e4c 87bd d5c9 b5be df6c 29bd
00000380: 86d1 9cbe a5b2 d93c 161e 88bd e25c 5cbe
00000390: a9f7 1ebe 079e 6bbe bca3 c6bd d7c8 913b
000003a0: 1811 59be 3508 143d 2819 84be 343e 26be
000003b0: 497a 12bf f2e9 b4bd 1387 a8bd 3c1f 32be
000003c0: 49b9 23be e6ee 2cbe 347e 00be ba73 a0be
000003d0: 563e e8bc 5612 32be f0a9 2fbe 196a f0bd
000003e0: 4aab a6be 1a59 6bbe b83e a83c 5e68 8ebe
000003f0: 7c8e 73be d7e3 55bd 5565 a0be 69fd 8ebd

gcn.convs.2.bias f4 [64]
0.181728 -0.015100122 -0.0035093827 -0.026462281 -0.020662462 0.029861655 -0.015984565 -0.12554134
0.103442065 -0.10331328 0.0150820445 0.08422663 0.015254509 -0.06336998 -0.10895182 -0.005297476
0.03222262 -0.056758262 0.2052534 -0.010836602 0.113958366 -0.06643401 -0.0117411595 0.07960526
0.023658596 -0.04295229 -0.004284061 -0.034102954 -0.26259243 -0.046549268 0.041322604 0.22742489
-0.042837765 0.011730354 0.057798304 0.39459252 -0.026401123 -0.024911646 -0.042681146 -0.019722156
-0.22640088 -0.18076149 -0.010294167 0.0014674624 -0.04473673 -0.015725492 0.33292216 -0.0019854936
-0.044253852 -0.0034801536 0.057913426 0.011007051 0.04434481 -0.004609377 0.031656414 0.21757445
-0.11531299 -0.025061078 -0.02053998 0.29554304 -0.0023003996 -0.021903139 -0.016921466 0.008728947
00000000: e816 3a3e 8166 77bc acfd 65bb 6dc7 d8bc
00000010: 5344 a9bc 6ea0 f43c 10f2 82bc e98d 00be
00000020: 6fd9 d33d ea95 d3bd ae1a 773c 037f ac3d
00000030: 0cee 793c 1fc8 81bd 2222 dfbd 7396 adbb
00000040: defb 033d 5a7b 68bd f32d 523e 018c 31bc
00000050: 0163 e93d 8e0e 88bd fe5d 40bc 1508 a33d
00000060: accf c13c beee 2fbd 4f61 8cbb 8aaf 0bbd
00000070: 8472 86be 72aa 3ebd e441 293d 12e2 683e
00000080: a776 2fbd ac30 403c eabd 6c3d 0808 ca3e
00000090: 2b47 d8bc 8213 ccbc 6dd2 2ebd 5c90 a1bc
000000a0: a2d5 67be 8a19 39be dea8 28bc de57 c03a
000000b0: dd3d 37bd bfd2 80bc c674 aa3e 0e1f 02bb
000000c0: 8743 35bd 4a13 64bb a136 6d3d eb56 343c
000000d0: e7a2 353d 420a 97bb 28aa 013d d6cb 5e3e
000000e0: 3829 ecbd e44c cdbc 7643 a8bc 6b51 973e
000000f0: 4dc2 16bb 366e b3bc e39e 8abc db03 0f3c

gcn.convs.2.lin.weight f4 [64, 64]
0.4074889 0.20151216 -0.16694105 0.28193265 -0.072604544 -0.35614395 -0.57193255 -0.16346057
0.2897102 -0.25313562 0.18670484 0.24223062 -0.08018176 -0.26086754 0.24945934 0.27931002
0.29176548 -0.032930065 -0.52481097 0.24737865 -0.30972034 -0.088071026 0.32611048 -0.09211988
0.15666077 -0.42680088 -0.16978897 -0.46441504 -0.2632862 -0.35258764 -0.25103563 -0.058872394
-0.6406663 -0.17244309 0.13876517 0.13553964 -0.06936664 -0.13185102 -0.023193898 -0.44457775
-0.21239135 0.07801228 0.10012763 -0.19593425 -0.6893991 0.35707572 0.22281864 0.22151938
-0.2824751 0.24274588 -0.45059532 0.013787548 0.28450888 -0.49063453 0.14315355 -0.12244026
-0.0365088 -0.04737048 -0.19945222 0.13989685 0.086544275 0.18141921 0.33942586 0.3197831
-0.03830227 0.10715998 -0.020308973 -0.16554987 -0.15948948 0.09446208 0.084777676 0.019258868
-0.0064528263 0.06481634 -0.09791558 -0.02111084 0.07743275 0.028997885 -0.08200284 0.044301286
0.048956696 0.027692407 0.08992691 0.026661448 0.018621776 -0.09732617 -0.076026574 -0.0025568227
-0.016797254 0.060320213 -0.12142749 -0.16546407 0.052670397 0.11439791 -0.015923409 0.009750934
0.0050814906 0.019531338 -0.1064476 0.028795663 -0.10746281 0.077140614 -0.021642309 0.020608097
-0.039478034 -0.0074197273 -0.1257863 0.10050765 -0.080192566 0.17135808 0.060760964 0.07684177
0.10725255 -0.027648753 0.00533119 0.032659113 0.09700656 0.08228886 -0.034027133 0.009376545
0.10331668 -0.09172727 -0.076179944 -0.03653299 -0.024633437 -0.058742978 0.04238529 -0.11229729
-0.11681785 0.19732992 -0.08607429 0.04146306 0.042284362 -0.14877033 -0.10573838 -0.025864208
-0.027133727 0.050278902 0.41268674 0.20282936 0.07020456 -0.027537085 -0.11941549 -0.0021316633
0.0020933594 0.013448309 -0.02642164 -0.12439038 -0.027245084 0.022530595 -0.08561258 0.057696313
-0.07009351 -0.19182771 -0.061001662 0.01803588 -0.023275457 0.079381675 -0.027927652 0.025216892
-0.13861215 0.013988053 0.1311452 0.36113465 -0.026657695 -0.05785083 0.12260263 -0.1004686
-0.07433746 0.047653753 0.030273931 0.12731236 -0.11478148 0.019998651 -0.01659573 -0.07514204
-0.0780556 -0.04693687 -0.06879579 0.044698313 0.024333948 0.026041372 0.33798155 0.03643742
0.015638778 0.07436845 -0.07940728 -0.015961783 0.0955033 0.31602085 0.03296395 0.29696432
0.041098725 0.068789504 -0.041318838 0.05097767 0.0004382981 -0.050212547 -0.032632034 -0.063058764
-0.047852036 0.06095915 0.25601217 0.060989365 0.12243725 -0.10337745 -0.047978155 0.011535787
0.10254758 0.09737246 -0.08450653 -0.043191392 -0.09030325 0.011149896 0.04231034 -0.026850315
0.010375307 -0.11177069 -0.11718824 -0.100433365 -0.059686698 0.08592089 -0.06686687 -0.004925033
-0.121352226 0.028775122 -0.0015450154 0.2137811 0.056016106 0.033136055 0.045410838 0.033878185
-0.037878614 0.123698846 0.062293727 0.07527308 -0.07375529 0.03713786 0.037381362 0.0076667303
0.03345858 -0.062314562 -0.05024663 0.083516166 -0.040697884 -0.068631165 0.15047589 0.00076318387
-0.057521943 0.11313957 -0.069656044 -0.08527646 0.029280625 0.17220843 -0.020684756 0.120984934
00000000: 63a2 d03e 3459 4e3e 98f2 2abe 7a59 903e
00000010: b1b1 94bd 8058 b6be 2c6a 12bf 3562 27be
00000020: e554 943e fe9a 81be 8e2f 3f3e 4e0b 783e
00000030: 5636 a4bd 6e90 85be 4572 7f3e b901 8f3e
00000040: 4962 953e ade1 06bd 035a 06bf d450 7d3e
00000050: aa93 9ebe 955e b4bd f4f7 a63e 59a9 bcbd
00000060: ae6b 203e a585 dabe 29dd 2dbe cfc7 edbe
00000070: 73cd 86be 5e86 b4be be87 80be 2e24 71bd
00000080: b502 24bf ec94 30be 7518 0e3e e7ca 0a3e
00000090: 1910 8ebd f403 07be 2101 bebc b29f e3be
000000a0: 1e7d 59be e7c4 9f3d b70f cd3d fda2 48be
000000b0: 767c 30bf a1d2 b63e 922a 643e fad5 623e
000000c0: 94a0 90be 6092 783e 6eb4 e6be 2be5 613c
000000d0: 26ab 913e 7334 fbbe d896 123e f6c1 fabd
000000e0: 408a 15bd 8c07 42bd 343d 4cbe 1f41 0f3e
000000f0: 203e b13d f5c5 393e 3ac9 ad3e 9cba a33e
00000100: d7e2 1cbd b176 db3d 015f a6bc e885 29be
00000110: 3651 23be 5675 c13d eb9f ad3d c6c4 9d3c
00000120: 3b72 d3bb 6ebe 843d f787 c8bd a4f0 acbc
00000130: 1095 9e3d f98c ed3c 1bf1 a7bd 4475 353d
00000140: d186 483d 30db e23c 9a2b b83d 1c69 da3c
00000150: b28c 983c f152 c7bd d2b3 9bbd 5e90 27bb
00000160: 659a 89bc 5412 773d faae f8bd 6a6f 29be
00000170: eabc 573d 7449 ea3d cf71 82bc 62c2 1f3c
00000180: a282 a63b 2f00 a03c 3301 dabd e2e4 eb3c
00000190: 7615 dcbd e6fb 9d3d 364b b1bc 50d2 a83c
000001a0: b8b3 21bd 2f21 f3bb 20ce 00be f4d6 cd3d
000001b0: 003c a4bd 7e78 2f3e 7de0 783d 385f 9d3d
000001c0: 3aa7 db3d a37f e2bc 43b1 ae3b 90c5 053d
000001d0: 60ab c63d 1087 a83d 0960 0bbd 15a0 193c
000001e0: b297 d33d 82db bbbd 3b04 9cbd 9ea3 15bd
000001f0: 10cc c9bc 7a9c 70bd 339c 2d3d 1ffc e5bd
00000200: 323e efbd db10 4a3e b847 b0bd 2bd5 293d
00000210: 5e32 2d3d 4057 18be 5d8d d8bd 2de1 d3bc
00000220: 8d47 debc 40f1 4d3d ad4b d33e 80b2 4f3e
00000230: 69c7 8f3d 7495 e1bc 1c90 f4bd 60b3 0bbb
00000240: be30 093b 4c56 5c3c 3272 d8bc 62c0 febd
00000250: 1531 dfbc 1592 b83c a655 afbd f852 6c3d
00000260: 308d 8fbd 7c6e 44be e1dc 79bd fbbf 933c
00000270: 2cac bebc dc92 a23d 88c8 e4bc a893 ce3c
00000280: 58f0 0dbe 262e 653c ed4a 063e a4e6 b83e
00000290: 3d61 dabc fef4 6cbd 1617 fb3d 7bc2 cdbd
000002a0: 3d3e 98bd 9530 433d 0901 f83c 2c5e 023e
000002b0: 8d12 ebbd 36d4 a33c c5f3 87bc 12e4 99bd
000002c0: 9ddb 9fbd e040 40bd cfe4 8cbd 9415 373d
000002d0: fd57 c73c b754 d53c eb0b ad3e 673f 153d
000002e0: e51c 803c 7c4e 983d 49a0 a2bd 49c2 82bc
000002f0: 3c97 c33d 7ccd a13e 3505 073d b50b 983e
00000300: 2357 283d 83e1 8c3d f13d 29bd f6cd 503d
00000310: 60cb e539 acab 4dbd 2ba9 05bd f424 81bd
00000320: 7f00 44bd 4db0 793d 0714 833e fccf 793d
00000330: 62c0 fa3d 8eb7 d3bd be84 44bd 9900 3d3c
00000340: 7704 d23d 366b c73d c211 adbd 75e9 30bd
00000350: e9f0 b8bd 0eae 363c 9b4d 2d3d 31f5 dbbc
00000360: 31fd 293c 08e8 e4bd 6300 f0bd 02b0 cdbd
00000370: 0a7a 74bd 4bf7 af3d 7ff1 88bd 2c62 a1bb
00000380: 8487 f8bd ceb9 eb3c 1d82 caba 6fe9 5a3e
00000390: 2571 653d acb9 073d b700 3a3d dac3 0a3d
000003a0: 9b26 1bbd d255 fd3d b527 7f3d c628 9a3d
000003b0: 030d 97bd de1d 183d 331d 193d 3239 fb3b
000003c0: dd0b 093d 8e3d 7fbd 69cf 4dbd 860a ab3d
000003d0: d3b2 26bd 7f8e 8cbd 5a16 1a3e 6710 483a
000003e0: 219c 6bbd b8b5 e73d d4a7 8ebd 6da5 aebd
000003f0: ecdd ef3c 6857 303e 1473 a9bc f3c6 f73d

edge_feature_mlp.0.weight f4 [64, 5]
-1.417332e-39 3.32385e-40 -4.6138e-41 2.1646e-41 1.32651e-39 1.679687e-39 9.95502e-40 -1.60112e-40
-3.71361e-40 1.316313e-39 -4.75623e-40 -1.171589e-39 -9.63985e-40 -1.503369e-39 -2.028237e-39 -1.59536e-40
1.221653e-39 -1.073749e-39 -9.49745e-40 -4.1877e-40 2.18942e-40 -3.90619e-40 -8.73676e-40 -1.082558e-39
7.48518e-40 1.108385e-39 3.49115e-40 1.247884e-39 1.558643e-39 -2.45924e-40 -8.43017e-40 -9.54587e-40
8.13116e-40 1.027887e-39 3.11779e-40 1.48581e-40 4.95802e-40 -1.142449e-39 4.30392e-40 1.511281e-39
-2.001994e-39 -1.44371e-39 6.07344e-40 -1.348996e-39 -1.33585e-39 8.3844e-41 -1.005671e-39 2.50996e-40
-1.132773e-39 1.76301e-39 -2.91407e-40 -1.433139e-39 6.37951e-40 -1.406951e-39 3.27817e-40 1.027183e-39
4.2008e-41 -1.177908e-39 1.548435e-39 -1.078266e-39 -1.324475e-39 1.417511e-39 8.23018e-40 -5.51953e-40
-6.5783e-40 -1.859758e-39 -9.82368e-40 -1.188961e-39 3.76481e-40 -4.50674e-40 -1.071848e-39 1.160352e-39
1.421494e-39 -1.034654e-39 -1.168806e-39 4.8214e-40 -3.6728e-41 1.011e-39 1.985671e-39 -1.4334e-39
6.03587e-40 -1.389554e-39 8.38992e-40 -1.08096e-39 -4.12101e-40 1.2867e-41 -3.1982e-40 6.00105e-40
4.34302e-40 1.538296e-39 1.227072e-39 -1.892978e-39 7.6173e-41 -1.50173e-40 7.98383e-40 -7.2193e-40
8.62541e-40 1.121643e-39 6.15955e-40 -1.14626e-39 2.03924e-40 3.51732e-40 -6.71013e-40 -1.095241e-39
7.75383e-40 9.1592e-40 8.53984e-40 3.54538e-40 1.074359e-39 -2.09322e-40 -1.450211e-39 1.100094e-39
-1.286766e-39 1.770803e-39 -6.30184e-40 -6.51301e-40 -1.14567e-39 -1.244692e-39 -8.17225e-40 -1.210373e-39
3.07015e-40 -4.57325e-40 -3.64454e-40 1.194432e-39 3.33833e-40 6.97817e-40 1.012183e-39 7.23866e-40
4.13682e-40 -3.46582e-40 1.876204e-39 -1.829514e-39 1.972535e-39 3.02173e-40 -2.6475e-40 1.286057e-39
1.086711e-39 8.15372e-40 -1.804233e-39 1.0433e-40 -1.973697e-39 -1.122629e-39 -1.58031e-40 9.77109e-40
-6.78001e-40 -1.182627e-39 1.110322e-39 -1.327618e-39 3.71515e-40 -1.117275e-39 -6.01418e-40 -1.635649e-39
6.6835e-41 8.23623e-40 -9.62871e-40 1.385525e-39 -8.73624e-40 1.188859e-39 -1.8315e-40 -9.45488e-40
-1.183765e-39 -7.56792e-40 6.50958e-40 1.901243e-39 4.36273e-40 -1.504847e-39 6.18382e-40 1.864905e-39
2.02942e-40 1.09167e-39 -1.048928e-39 -9.40853e-40 6.66127e-40 9.0799e-40 4.72574e-40 -7.0282e-41
1.3974e-40 7.06596e-40 2.09089e-40 -7.01832e-40 9.34739e-40 1.04153e-39 -1.327726e-39 -7.36234e-40
-1.309e-39 1.59074e-40 -1.098583e-39 1.09987e-39 8.8013e-41 -9.95593e-40 -1.069802e-39 9.00085e-40
-4.49908e-40 -1.381476e-39 -1.412467e-39 1.30538e-40 7.71471e-40 1.99794e-40 1.27112e-39 1.006983e-39
8.07198e-40 -1.274428e-39 5.64254e-40 -9.9293e-41 -7.47786e-40 -1.303503e-39 -3.90979e-40 1.073133e-39
-1.67171e-40 -1.164752e-39 -5.36647e-40 -5.228e-41 6.331e-40 1.007574e-39 -9.83747e-40 -2.04566e-40
-1.044591e-39 -1.827674e-39 -2.41828e-40 1.814382e-39 -5.50098e-40 8.11981e-40 -2.29673e-40 -1.494433e-39
-1.774323e-39 6.54461e-40 -7.76256e-40 9.59423e-40 -7.18378e-40 4.36748e-40 9.2023e-40 -1.745377e-39
1.79056e-39 -1.402571e-39 -1.817677e-39 1.3959e-40 6.8285e-41 6.0264e-40 1.828638e-39 5.08112e-40
1.03689e-40 -9.60004e-40 -8.4675e-41 -1.035778e-39 -1.050413e-39 -7.53471e-40 1.40985e-40 -2.06484e-40
-4.89183e-40 -1.409789e-39 1.692711e-39 -7.2569e-40 -7.3292e-41 2.66266e-40 -9.16259e-40 1.07132e-39
00000000: f26e 0f80 8e9e 0300 9d80 0080 573c 0000
00000010: c571 0e00 494a 1200 0ed7 0a00 54be 0180
00000020: 340b 0480 5855 0e00 d82d 0580 eac1 0c80
00000030: 337f 0a80 c85e 1080 e615 1680 b9bc 0180
00000040: 794d 0d00 2db1 0b80 8157 0a80 5c8f 0480
00000050: 5262 0200 e340 0480 7483 0980 bbc9 0b80
00000060: 9026 0800 ba11 0c00 31cd 0300 9896 0d00
00000070: ddf8 1000 89ad 0280 fd2d 0980 0065 0a80
00000080: a3da 0800 5531 0b00 1d65 0300 2f9e 0100
00000090: 1866 0500 af70 0c80 c2af 0400 d674 1000
000000a0: bfcc 1580 7ab8 0f80 079d 0600 74b0 0e80
000000b0: ce8b 0e80 b9e9 0000 67f3 0a80 adbb 0200
000000c0: b655 0c80 8e32 1300 532c 0380 029b 0f80
000000d0: 59f2 0600 0252 0f80 d291 0300 5e2f 0b00
000000e0: 1a75 0000 87d3 0c80 68dc 1000 c4bd 0b80
000000f0: 196c 0e80 726f 0f00 3df6 0800 9f02 0680
00000100: c329 0780 4040 1480 71b2 0a80 57f2 0c80
00000110: 7a19 0400 4ce8 0480 e0ab 0b80 97a2 0c00
00000120: 8c7a 0f00 3244 0b80 28ba 0c80 0340 0500
00000130: 6266 0080 4202 0b00 3e9f 1500 bc9b 0f80
00000140: 8e92 0600 8321 0f80 c522 0900 47c5 0b80
00000150: c57c 0480 de23 0000 877b 0380 d988 0600
00000160: a8ba 0400 25c0 1000 945c 0d00 da9c 1480
00000170: 57d4 0000 9fa2 0180 91b1 0800 72dc 0780
00000180: 6a64 0900 af36 0c00 08b5 0600 4e7b 0c80
00000190: 7538 0200 7cd4 0300 834e 0780 16ed 0b80
000001a0: 7471 0800 36f9 0900 8f4c 0900 4fdc 0300
000001b0: e0b2 0b00 8147 0280 99ca 0f80 9dfa 0b00
000001c0: fb02 0e80 4748 1300 b2dc 0680 9017 0780
000001d0: a979 0c80 b28d 0d80 17e6 0880 072e 0d80
000001e0: d557 0300 d6fa 0480 f3f7 0380 9701 0d00
000001f0: 97a2 0300 3b99 0700 8e05 0b00 d8e1 0700
00000200: 2d81 0400 21c6 0380 186e 1400 f1eb 1380
00000210: a07a 1500 564a 0300 04e2 0280 0101 0e00
00000220: 4fd5 0b00 ede0 0800 78a5 1380 d422 0100
00000230: dd7d 1580 6f39 0c80 87b8 0180 c8a3 0a00
00000240: fe61 0780 afe0 0c80 2017 0c00 dc74 0e80
00000250: a20b 0400 822a 0c80 828c 0680 86cf 1180
00000260: 4fba 0000 edf7 0800 187c 0a80 4816 0f00
00000270: 4f83 0980 0ef2 0c00 8cfe 0180 a34b 0a80
00000280: dbe3 0c80 a13d 0880 9b16 0700 e4b3 1400
00000290: 27c0 0400 e762 1080 ccbb 0600 994e 1400
000002a0: b835 0200 22e3 0b00 fc6b 0b80 b73e 0a80
000002b0: e440 0700 1be3 0900 5825 0500 ebc3 0080
000002c0: 8a85 0100 b4b1 0700 db46 0200 6ca4 0780
000002d0: ac2d 0a00 5d57 0b00 2975 0e80 5204 0880
000002e0: f640 0e80 6fbb 0100 67f6 0b80 fdf9 0b00
000002f0: 58f5 0000 4fd7 0a80 2ca6 0b80 12cd 0900
00000300: 29e6 0480 fe0a 0f80 6261 0f80 e36b 0100
00000310: 8c66 0800 f22c 0200 5ed7 0d00 0ff7 0a00
00000320: 24ca 0800 96e0 0d80 e924 0600 ca14 0180
00000330: 8624 0880 a331 0e80 e441 0480 75af 0b00
00000340: 01d2 0180 dbae 0c80 f4d7 0580 bc91 0080
00000350: d3e4 0600 b5f8 0a00 49b6 0a80 3f3a 0280
00000360: e55f 0b80 d0e6 1380 1ea2 0280 c2c1 1300
00000370: 73fd 0580 79d7 0800 3c80 0280 df45 1080
00000380: 1752 1380 5f20 0700 e373 0880 7b72 0a00
00000390: 8cd2 0780 7ac1 0400 3a05 0a00 6701 1380
000003a0: 5a7f 1300 cc45 0f80 f2ca 1380 1f85 0100
000003b0: 5abe 0000 ea8f 0600 80e9 1300 6988 0500
000003c0: 0b21 0100 1a74 0a80 0aec 0080 5447 0b80
000003d0: 2070 0b80 5f34 0880 0289 0100 983f 0280
000003e0: a553 0580 eb59 0f80 976e 1200 eee6 0780
000003f0: 4fcc 0080 3ee6 0200 28fa 0980 67aa 0b00

edge_feature_mlp.0.bias f4 [64]
-0.019703694 -0.0052749226 -0.00012872675 -0.017272322 -1.6295209e-21 -7.15709e-11 -0.0019649668 -0.0061170757
-1.5647662e-18 -0.00013905227 -0.0039749485 -1.2211804e-13 -2.1050171e-05 -3.7495536e-09 -0.0022562856 -0.016770668
-0.00017220387 -8.3124257e-13 -1.5599486e-31 -0.007699298 -1.0998896e-17 -8.075319e-34 -5.579028e-09 -6.776859e-05
-0.0010514148 -1.3279218e-06 -2.1309959e-06 -5.573674e-07 -0.00019380068 -0.00027609107 -0.0033734848 -0.009304207
-6.8827393e-07 -2.923062e-16 -0.009735538 -0.019869242 -2.9576172e-23 -1.06724965e-05 -7.064797e-08 -0.001539791
-0.002596086 -1.8489477e-22 -0.009382231 -8.330646e-11 -2.3466585e-16 -0.020360107 -7.219267e-29 -1.2966512e-07
-0.023156432 -0.007928093 -2.1928783e-11 -3.610659e-12 -2.4520294e-05 -4.1566054e-06 -0.0043734824 -1.0873656e-30
-0.0076793907 -4.8827398e-23 -1.2573033e-30 -0.005653674 -2.6170176e-07 -8.3601147e-35 -5.019013e-13 -0.00023233613
00000000: a469 a1bc 42d9 acbb d3fa 06b9 af7e 8dbc
00000010: 093f f69c d662 9dae acc6 00bb c071 c8bb
00000020: 32eb e6a1 8fce 11b9 4940 82bb 217e 09aa
00000030: e694 b0b7 6cd5 80b1 31de 13bb a462 89bc
00000040: a091 34b9 57f9 69ab 2f7e 4a8c 654a fcbb
00000050: d1e4 4aa3 9c2c 8688 a6b1 bfb1 fc1e 8eb8
00000060: a0cf 89ba 0c3b b2b5 3b02 0fb6 ff9d 15b5
00000070: f936 4bb9 51c0 90b9 af15 5dbb ac70 18bc
00000080: d3c1 38b5 c880 a8a5 ce81 1fbc d2c4 a2bc
00000090: 8705 0f9a 060e 33b7 22b7 97b3 d0d2 c9ba
000000a0: 1823 2abb 2986 5f9b eeb7 19bc 5e31 b7ae
000000b0: 9146 87a5 3dca a6bc b907 b790 143a 0bb4
000000c0: 8fb2 bdbc d5e4 01bc 3be3 c0ad da13 7eac
000000d0: eeb0 cdb7 f878 8bb6 6e4f 8fbb 666f b08d
000000e0: 66a3 fbbb 641d 6c9a 5602 cc8d 7442 b9bb
000000f0: 0480 8cb4 fe3f de86 cd45 0dab 419f 73b9

classifier.0.weight f4 [64, 192]
-0.23389359 0.075725615 -0.14710076 -0.13046987 0.07943873 0.17290674 -0.21689248 -0.3273753
0.35592282 -0.31515664 0.11338512 0.2344394 -0.16593163 -0.27435768 -0.20218357 -0.12228969
0.3255613 -0.14064325 0.36899474 0.058222584 -0.20109256 -0.2794079 -0.30057985 0.2270211
0.18976423 0.3115462 -0.06266101 -0.2085499 -0.034719933 -0.08527581 0.19337642 -0.18572785
-0.18467537 0.17888924 0.06624022 0.020385025 -0.15331718 -0.1875496 -0.22391334 -0.18303818
0.17931873 0.2746739 -0.20122692 0.24704649 -0.15978515 -0.047807027 -0.008019132 0.1591482
-0.2360904 -0.14212625 0.29084662 -0.009750602 0.045094967 -0.103396036 0.08954208 -0.33713415
0.044357475 -0.21243837 -0.13295907 0.036154967 -0.06037979 -0.39523885 0.07290165 -0.17839018
0.3040761 0.0512694 0.1549754 0.21446401 -0.00019753768 -0.16071166 0.10002856 0.3060253
-0.27686808 0.24930604 -0.09084234 -0.22916734 -0.0068359734 0.17775735 0.16915636 0.048542283
-0.25959903 0.19027013 -0.21471488 0.03196349 0.28492305 0.3104039 0.25234434 -0.272046
-0.13247246 -0.28431594 0.061685786 0.31084353 0.017774584 0.1610782 -0.12691619 0.20938402
-0.038239215 -0.16726533 -0.0023976886 0.23312604 0.122763954 0.11093718 0.13096756 0.13197118
-0.20120943 -0.38038024 0.11819471 -0.2124953 0.11298891 -0.04228038 0.22002995 -0.095567465
0.25876197 0.052464258 -0.21112528 0.041209158 -0.1025314 0.0037635562 -0.099983074 0.23920819
-0.031706832 0.3362094 0.11224329 -0.009322783 0.06990395 0.20173049 -0.025223546 0.28845474
8.481467e-14 9.2130487e-10 8.05081e-40 0.00028104128 -8.92703e-40 -4.8414148e-11 -0.04911918 -0.00039745047
2.9008504e-20 -3.14694e-40 0.00058102095 -1.20287e-40 -5.27641e-40 7.51166e-40 1.175532e-13 -0.00087542285
3.445083e-24 8.70149e-40 -4.5081247e-31 0.015839566 -8.6362e-40 -1.6729471e-35 -6.62712e-40 -5.63002e-40
-1.6613218e-05 -3.07735e-40 4.2294e-41 -6.67981e-40 1.8648553e-21 4.2559564e-15 -6.2592866e-21 -1.5488482e-07
-5.75753e-26 1.176235e-39 -8.698249e-12 3.9918246e-09 -2.21978e-40 2.064e-42 6.5052397e-10 -7.818605e-12
-0.027118439 3.7783814e-24 8.473676e-09 -4.12462e-40 4.00324e-40 0.00041686755 5.96482e-40 2.26327e-40
-0.0028329194 5.2044005e-11 5.29268e-40 5.619e-40 4.5900602e-08 5.19076e-40 0.020433024 -4.451775e-33
-3.160437e-20 7.294949e-26 -4.47933e-40 2.3982786e-11 -6.35412e-40 4.750417e-35 -1.48362e-40 5.52619e-40
0.34475753 -0.043315884 -0.161245 -0.025790129 0.038320176 0.26136622 -0.02895976 0.044161916
0.03642474 -0.1770163 0.04190338 -0.12119934 0.0730754 0.11869936 -0.01305129 -0.041572224
-0.30199176 0.23675087 -0.23624589 -0.071636505 -0.03166451 0.23508859 0.19220127 -0.2537401
0.12764935 -0.36055633 -0.1418231 0.20843 0.20056833 -0.026951376 0.018223923 0.113226056
0.120080605 0.040534843 -0.11436455 0.07107755 0.013208244 -0.17316157 0.06926433 0.16112967
-0.17494766 -0.22301917 -0.20795849 -0.24287875 -0.08666579 -0.015578621 0.08196281 -0.092889935
-0.19939634 -0.03300529 -0.15223233 -0.06961569 0.061792824 -0.004192853 0.052205708 0.23943964
-0.419638 0.17638198 -0.08502408 -0.14322408 -0.046012335 0.28450528 0.040104862 0.30671608
00000000: cd81 6fbe 0816 9b3d 95a1 16be e599 05be
00000010: c6b0 a23d 770e 313e 1019 5ebe bc9d a7be
00000020: 843b b63e 365c a1be 7536 e83d e210 703e
00000030: fbe9 29be 9c78 8cbe 3609 4fbe 0473 fabd
00000040: f9af a63e c904 10be e1ec bc3e ce7a 6e3d
00000050: 35eb 4dbe 8d0e 8fbe 9ae5 99be 3878 683e
00000060: 8e51 423e fc82 9f3e 6a54 80bd 1b8e 55be
00000070: 7d36 0ebd 15a5 aebd 7804 463e 712f 3ebe
00000080: 8a1b 3dbe be2e 373e f4a8 873d 7ffe a63c
00000090: 2eff 1cbe 010d 40be 8a49 65be 5c6e 3bbe
000000a0: 549f 373e 0fa2 8c3e 6e0e 4ebe c1f9 7c3e
000000b0: b89e 23be 4dd1 43bd ad62 03bc bff7 223e
000000c0: afc1 71be 8b89 11be d9e9 943e fdc0 1fbc
000000d0: 80b5 383d 4dc1 d3bd d761 b73d d99c acbe
000000e0: 2fb0 353d 7289 59be 6c26 08be 3b17 143d
000000f0: cc50 77bd bf5c cabe 764d 953d eaab 36be
00000100: ddaf 9b3e ddff 513d dfb1 1e3e 749c 5b3e
00000110: 1e22 4fb9 9991 24be c6db cc3d 59af 9c3e
00000120: a7c1 8dbe 154a 7f3e 8c0b babd d8aa 6abe
00000130: 4d00 e0bb 0606 363e 5337 2d3e 46d4 463d
00000140: 2aea 84be 2cd6 423e 38de 5bbe 26ec 023d
00000150: 6fe1 913e 43ed 9e3e 4733 813e 9d49 8bbe
00000160: dca6 07be dc91 91be 3caa 7c3d e226 9f3e
00000170: 019c 913c aff1 243e 51f6 01be c468 563e
00000180: b9a0 1cbd 9a47 2bbe 8a22 1dbb 98b8 6e3e
00000190: ab6b fb3d 0833 e33d 5c1c 063e 7423 073e
000001a0: d809 4ebe 33c1 c2be 1110 f23d 5e98 59be
000001b0: bb66 e73d 312e 2dbd 884f 613e e0b8 c3bd
000001c0: 737c 843e c3e4 563d 3a31 58be efca 283d
000001d0: fcfb d1bd ffa5 763b edc3 ccbd fef2 743e
000001e0: 06df 01bd a323 ac3e cfdf e53d 96be 18bc
000001f0: cd29 8f3d 7092 4e3e 9ca1 cebc 57b0 933e
00000200: 54fc be29 113f 7d30 3dc4 0800 b958 9339
00000210: 7eb8 0980 7ced 54ae 3131 49bd e660 d0b9
00000220: 21fd 081f 3d6d 0380 a84f 183a 504f 0180
00000230: d9be 0580 f22d 0800 675a 042a a27c 65ba
00000240: 7346 8518 9f79 0900 094c 128d fac1 813c
00000250: 6c67 0980 f4e5 b185 5f37 0780 6c21 0680
00000260: 9d5c 8bb7 d759 0380 e675 0000 0f46 0780
00000270: 8ce7 0c1d 4556 9927 1b78 ec9d 6a4e 26b4
00000280: af8c 8e95 ddce 0c00 6e05 19ad 7628 8931
00000290: c96a 0280 c105 0000 8ed0 3230 de8b 09ad
000002a0: 7d27 debc 472b 9218 9f93 1132 c77d 0480
000002b0: f15b 0400 048f da39 c07e 0600 e876 0200
000002c0: 80a8 39bb 57e4 642e 62c3 0500 591e 0600
000002d0: 3f24 4533 f9a6 0500 2863 a73c 64eb b889
000002e0: 573f 159f 3b9d b415 a8e0 0480 6ff4 d22d
000002f0: 45eb 0680 5393 7c06 939d 0180 7a04 0600
00000300: 0f84 b03e ff6b 31bd 691d 25be d245 d3bc
00000310: 9ef5 1c3d cbd1 853e 053d edbc 20e3 343d
00000320: 1c32 153d c343 35be e1a2 2b3d 5c37 f8bd
00000330: 8ea8 953d a618 f33d 14d5 55bc a347 2abd
00000340: aa9e 9abe d26e 723e 71ea 71be 29b6 92bd
00000350: a5b2 01bd 10bb 703e 69d0 443e 39ea 81be
00000360: 83b6 023e d79a b8be 133a 11be ad6e 553e
00000370: c961 4d3e 22c9 dcbc 564a 953c 10e3 e73d
00000380: d2ec f53d dd07 263d f637 eabd 1b91 913d
00000390: 6467 583c 4451 31be 75da 8d3d 2dff 243e
000003a0: 7b25 33be 235f 64be 12f3 54be 35b5 78be
000003b0: d57d b1bd 793d 7fbc 1edc a73d 143d bebd
000003c0: 8e2e 4cbe 8e30 07bd cbe2 1bbe ac92 8ebd
000003d0: 791a 7d3d 3364 89bb a7d5 553d aa2f 753e
000003e0: cbda d6be 7a9d 343e 1b21 aebd 55a9 12be
000003f0: 6e77 3cbd adaa 913e ff44 243d e409 9d3e

classifier.0.bias f4 [64]
0.84991866 0.070055686 -0.031431645 0.36387488 0.18161784 -0.07435172 0.4736341 -0.10360221
0.7917685 0.8231071 0.180247 -0.074740805 0.77846026 0.7691706 0.7758791 0.15786564
0.79382837 0.8442379 0.61667764 -0.07115111 0.440744 0.6608245 0.7062727 0.045432746
0.6097773 -0.021287045 0.018130446 -0.06583537 0.7783535 0.37716395 0.7914155 -0.1856675
-0.13780054 0.8769397 -0.11554784 0.72308975 0.61052424 0.44794112 0.055611655 0.6044234
0.48081672 0.6462069 -0.04228275 0.724832 -0.23362444 0.49258977 0.5491894 0.50524354
0.84161747 -0.028132934 0.1881956 0.52122444 0.5035526 0.14282274 -0.041075528 0.6669111
0.5109767 0.6053837 0.3036487 0.17621893 -0.15359013 -0.054543838 -0.020113125 0.34461215
00000000: 4594 593f 5b79 8f3d 78be 00bd cf4d ba3e
00000010: 07fa 393e b745 98bd 2b80 f23e 652d d4bd
00000020: 57b1 4a3f 26b7 523f ab92 383e b511 99bd
00000030: 2c49 473f 5de8 443f 03a0 463f 88a7 213e
00000040: 5638 4b3f fa1f 583f 96de 1d3f acb7 91bd
00000050: 33a9 e13e cb2b 293f 4ace 343f b017 3a3d
00000060: 5d1a 1c3f 2b62 aebc 4d86 943c b2d4 86bd
00000070: 2d42 473f a21b c13e 359a 4a3f 9f1f 3ebe
00000080: 961b 0dbe 1f7f 603f 59a4 ecbd 691c 393f
00000090: 514b 1c3f 8a58 e53e 0cc9 633d 7ebb 1a3f
000000a0: 9c2d f63e d16d 253f ad30 2dbd 978e 393f
000000b0: 3f3b 6fbe ba34 fc3e ad97 0c3f a457 013f
000000c0: 3e74 573f 0a77 e6bc 59b6 403e f76e 053f
000000d0: d3e8 003f 2040 123e d03e 28bd b0ba 2a3f
000000e0: 5ecf 023f 6dfa 1a3f d877 9b3e bc72 343e
000000f0: bb46 1dbe 5c69 5fbd 48c4 a4bc 0171 b03e

classifier.3.weight f4 [1, 64]
-0.04846109 0.050396815 0.085839026 0.065570265 -0.16211738 -0.32293078 0.06015251 -0.3173623
-0.043807976 -0.06282572 0.056711707 0.0069020465 -0.048965044 -0.033614807 -0.04927045 -0.14667135
-0.054689348 -0.053698875 0.029441452 0.11923564 0.03749161 -0.081788376 -0.07021944 -0.024430051
0.030952433 -0.1036827 0.104464 0.084605806 -0.06171655 -0.06179266 -0.036012683 0.17796715
0.015607499 -0.02662601 -0.030715676 -0.042520244 0.04491581 0.033258107 0.09510549 0.029311482
0.045580924 -0.092356 0.053315736 -0.06811669 -0.5559878 0.034470063 0.018700354 -0.081931025
-0.044485882 -0.0023169357 -0.090238936 -0.1043609 0.069831535 0.04373811 0.080382414 -0.037416235
0.030482458 0.01904474 0.037336145 -0.08131464 -0.4160428 0.0026983821 0.063453816 0.050065875
00000000: 237f 46bd e46c 4e3d 5fcc af3d b449 863d
00000010: 1902 26be 2f57 a5be 7a62 763d 507d a2be
00000020: fe6f 33bd c5aa 80bd 894a 683d 902a e23b
00000030: 928f 48bd aeaf 09bd d0cf 49bd 0431 16be
00000040: f001 60bd 5af3 5bbd 332f f13c d131 f43d
00000050: cd90 193d aa80 a7bd 36cf 8fbd 8821 c8bc
00000060: f58f fd3c 9857 d4bd 39f1 d53d cf45 ad3d
00000070: 7eca 7cbd 4d1a 7dbd 0982 13bd 053d 363e
00000080: 98b6 7f3c ca1e dabc 719f fbbc b529 2ebd
00000090: a4f9 373d a739 083d abc6 c23d a21e f03c
000000a0: 10b3 3a3d 2425 bdbd 9a61 5a3d c380 8bbd
000000b0: 3755 0ebf 7b30 0d3d 7c31 993c 74cb a7bd
000000c0: d436 36bd bbd7 17bb 31cf b8bd 2bbb d5bd
000000d0: d603 8f3d bc26 333d 899f a43d c441 19bd
000000e0: 59b6 f93c b703 9c3c c9ed 183d 4a88 a6bd
000000f0: 9003 d5be 57d7 303b 13f4 813d e011 4d3d
