results/dropped_eigenvector_centrality/best_gcn_model.pth (torch, 303851 bytes, 13 tensors)

node_embedding.weight f4 [64, 770]
00000000: 9748 893d dc86 cdbd 8910 cb3d 1906 d03e
00000010: 88f6 f9bc 6b3c 753d a9f1 7e3d e005 7dbd
00000020: 3366 2e3d cbba 59be 9ae4 423c 807c 7fbd
00000030: 6754 f6bd a7da 993e 4598 7fbb d86f cfbc
00000040: a6c6 5b3d d1a1 ccbd 82bb 56bd c533 cfbc
00000050: 2866 3cbe ea97 75be d31a 80bd 70f5 0c3e
00000060: b897 b83d ce54 59bd 57be e13d 10cd 38be
00000070: aa87 f5bd 6e5c 873d 8131 c8bd 5400 3bbc
00000080: 33f5 b33d e7dd 14be b878 db3d d904 22be
00000090: d5fa 4cbc 1464 7c3e 7504 6e3e 7822 a9bd
000000a0: 5366 93bd 0f8d 0f3d 4881 ce3d 8cc4 163e
000000b0: d7fb 9d3c d391 6b3e 2f87 33be d77e 1c3e
000000c0: 1168 cebd 7a76 cfbd 05db 843d eeb8 913e
000000d0: ba7b f93d b6f6 6a3d 65f7 103e a830 67bd
000000e0: 639d b83e f0fa 39be 87e0 84bc cb24 b23e
000000f0: 9ba6 2dbe b02f 833e 24b9 6bbd 8cb7 e53d
00000100: 792f 19be 9731 9fbd d46d 92bd 112c cc3e
00000110: 109f bc3e 747a 43be f709 d1bc 455f d43d
00000120: 9858 003e e786 27bd 215c 8a3e 229b 67be
00000130: c203 0fbe d351 cd3d b47d 46be 0cc8 db3d
00000140: e882 d8bd 90ea 84bc 6975 1e3e 53b8 80bd
00000150: a99f ddbd 91ca a3bd 14e1 abbe 8c22 46bc
00000160: 44b6 bb3d 44f8 823d 788e 7abd e213 9f3d
00000170: e00b 333b 6ffe c83d e98a b23d 868f b23d
00000180: 5bab 7c3d debc 89bd 568e d3bd 9863 0abe
00000190: cf03 dc3d a766 ad3e 5c1e 07be b6cc 023e
000001a0: b709 753d ad80 2d3d c822 56bd 3cb0 aa3d
000001b0: 8ee1 4a3e b508 183d 255c 86bc ac5e 21bd
000001c0: 3419 e7bd b3bf 053e 216a 8e3d 1359 e83c
000001d0: 915d 79be 1700 df3d a6b1 d4bd dbb3 82bd
000001e0: 28f7 903b 235c 483e ba9b b93d 62ca 453e
000001f0: 407d 4bbd 26ea 003e 6d81 7a3d f064 828e
00000200: 03fc 4a3e 8404 c83d 0e8e a3bd 9e56 a3be
00000210: 44e5 28be 0e9c 1b3e 0196 18be c615 233d
00000220: 50b9 31be 5d43 5c3e 0017 823b f34e fd3d
00000230: 420f ab3c cf3d ce3d e52b 32be cbb0 71bc
00000240: 13e7 efbd d8da c03e 15d7 ff3d 291f 57bd
00000250: f737 853e 948a 17be 0558 af3e ca1c ecbd
00000260: f65e 41be bbd6 d13e 2842 503e f074 713e
00000270: 2024 fc3b ab96 c7bd 42ef a2be 0f2b 13be
00000280: a742 d63d d1c5 213d 41fe 983c 2262 aabd
00000290: 2474 81be c48a 3abe e2b0 a93e 878a 0a3e
000002a0: b2c0 0ebe 9de4 99be 28c8 44be 338b 803b
000002b0: 7640 243e 9882 d2bd def5 ccbd 0b9f 9ebd
000002c0: 88be 96bd bbe3 02bd a945 49bc bae1 25be
000002d0: 6223 513d aff4 53be 9d0d adbe f2f8 87be
000002e0: 6626 a73d 7efa 083d 13a9 023d ece6 42bc
000002f0: bcd1 ee3d 8564 f83b 38f7 1abe 3c53 a53e
00000300: c593 153c 10d0 96bd ec4b 93bd e27f 033f
00000310: b7a0 4cbe 536c 1c3c 498d d93d dc1b 08be
00000320: e2f0 d2bd da53 053e 520a c03e c440 68be
00000330: 73e8 b7bd 2a94 493e 055d 8e3d 95c8 703e
00000340: 5974 0d3c 5d5b 0fbe 955a 9abb 74f7 0a3d
00000350: 38ea 56be 5725 93be 9409 8c3c 41e8 1e3e
00000360: 1f2b fe3e 8a4c e13d 9f04 59b9 33a7 0a3d
00000370: 1467 6ebe a98e 333e bf34 643e 70e6 6a0e
00000380: 89a1 5f3c b37e 83bd 2e53 a23d 0775 41bd
00000390: 6fac b6bd e85b 7fbd 6090 3ebe de21 7c3e
000003a0: c2ef 913e 0cb1 153e e104 473d f993 8dbe
000003b0: 6432 0dbe 208a 8dbe 0b93 01be db51 99bd
000003c0: 3a33 443d 69af 72bd 677c 1eb9 3f57 8abc
000003d0: f1f0 bb3d 9467 1e3e aa27 673b d4c8 f2bd
000003e0: d12c 8ebd 4f69 6abe 8f24 2c3d 6ac6 a6bd
000003f0: e862 b2bc 5ae0 08be 579b 493e c0b4 34be
0.067032985 -0.10035488 0.09915263 0.40629652 -0.030513063 0.059872072 0.062242184 -0.06177318
0.042577934 -0.21262662 0.011895323 -0.06237459 -0.12027817 0.3004963 -0.0039000672 -0.025321886
0.053656243 -0.099918015 -0.052424915 -0.02529324 -0.18398345 -0.23983732 -0.06255116 0.13765502
0.09013313 -0.05305939 0.110226326 -0.18046975 -0.119887665 0.066094264 -0.09775067 -0.011413652
0.087870024 -0.14537774 0.10716385 -0.15822162 -0.012510975 0.24647552 0.23243888 -0.082585275
-0.07197251 0.035046633 0.10083252 0.14723414 0.019285126 0.23004846 -0.17532037 0.1528276
-0.10078443 -0.101300195 0.06487087 0.28461403 0.12181802 0.057364188 0.14156874 -0.056442887
0.36057577 -0.18162131 -0.016220344 0.34793696 -0.16958086 0.2562232 -0.05754961 0.112166494
-0.14959516 -0.077731304 -0.07149854 0.3987737 0.36840105 -0.19089681 -0.025517447 0.10369734
0.12533796 -0.040900137 0.27023414 -0.22617772 -0.13966277 0.10025372 -0.1938389 0.10731515
-0.105718434 -0.01622513 0.15474476 -0.06285157 -0.108214684 -0.07997621 -0.33570158 -0.012093198
0.09165624 0.06395009 -0.061171025 0.07767464 0.002732031 0.09814154 0.08717901 0.08718781
0.061686855 -0.06725477 -0.10329883 -0.13514555 0.10742914 0.3386738 -0.13195175 0.12773404
0.059823718 0.042359043 -0.052279264 0.08334395 0.19812605 0.03711768 -0.01640136 -0.039396927
-0.11284104 0.13061409 0.06953836 0.028362786 -0.24352099 0.10888689 -0.10385446 -0.06381961
0.0044239946 0.19566397 0.090629056 0.19315484 -0.049679995 0.1258932 0.061158586 -3.2144674e-30
0.19822697 0.09766486 -0.07986079 -0.3190202 -0.16493708 0.15196249 -0.14900972 0.039815687
-0.17355847 0.21510072 0.003970027 0.12368574 0.020881299 0.10070383 -0.17399557 -0.014751623
-0.11713996 0.37666965 0.124921955 -0.05251995 0.2601926 -0.14798957 0.3424684 -0.115289286
-0.18883881 0.4098414 0.20337737 0.23579764 0.007694736 -0.097455345 -0.31823164 -0.14371894
0.10461932 0.039495293 0.018675925 -0.083194986 -0.2528392 -0.18216997 0.33142763 0.13529406
-0.13940695 -0.3005723 -0.19216979 0.003922844 0.16040215 -0.10278815 -0.10007833 -0.07745179
-0.0736056 -0.031955462 -0.012284675 -0.16199389 0.051059134 -0.20698808 -0.3379945 -0.26557118
0.08161621 0.033442013 0.031899523 -0.011895876 0.116610974 0.0075803422 -0.15133369 0.32290065
0.009129469 -0.073639035 -0.07192215 0.5136701 -0.19983183 0.009547311 0.10622651 -0.13291878
-0.10299851 0.13020268 0.37507874 -0.22680956 -0.08979883 0.19685426 0.06951336 0.23514016
0.0086336965 -0.13999696 -0.0047105053 0.033927396 -0.20987785 -0.28739426 0.017094411 0.15518285
0.49642274 0.11000927 -0.00020696454 0.03385086 -0.23281509 0.1753489 0.22285746 2.8953678e-30
0.013649353 -0.0642065 0.079260215 -0.047230747 -0.08919608 -0.062343508 -0.18609762 0.24622294
0.28503233 0.1461832 0.048588637 -0.27651957 -0.13788754 -0.27644444 -0.12653749 -0.07486316
0.047900416 -0.059249315 -0.00015114398 -0.016887305 0.09176815 0.154692 0.0035271444 -0.11854711
-0.06942142 -0.22891735 0.042027052 -0.08143313 -0.021775678 -0.13366833 0.19688164 -0.17647076

node_embedding.bias f4 [64]
00000000: ea78 803e aa97 a0be bbaf 9ebe ba19 333e
00000010: 9d2b cf3d 0624 0c3d e832 0abe 1587 acbe
00000020: 45d9 21be 54e6 d7bd 64ea c93e 7b84 c0be
00000030: 7d08 9dbe 8526 fd3d eecb cabe 3cc5 95be
00000040: 7fe6 b1be a0bd 89be 7daa b1be ed9a 31bb
00000050: dd6b 7a3e 60b3 39be eea7 23be 8a76 03be
00000060: 3e94 d8be c02b b13e 499a 5b3e 13ee e7bc
00000070: f0b5 4b3e 07b7 eebe 7552 d4be 06f1 94bd
00000080: 9c3f d8be 18e2 52be 5cf8 d1bc df5d 953d
00000090: 9c0a 093e d557 adbe 5d46 16bf 0e4f c5be
000000a0: 8615 99bd e88e 19be 74e1 8b3e 092f c2be
000000b0: 331b 50be cd41 bb3d 7cc6 a63e bb3e 85be
000000c0: eaa6 d7be bf49 bdbe d6a4 87bc 3793 acbe
000000d0: ef66 cabe cbd1 cd3d 2928 893e 77b2 a43e
000000e0: 5ac3 513e baf5 a1be a09e b83e 7b14 b53e
000000f0: 373d 133f 41c7 babd 3287 103e 4669 613e
0.2509225 -0.3136571 -0.30993447 0.17490283 0.101157404 0.034214042 -0.13495982 -0.3369681
-0.15805538 -0.105419785 0.39436638 -0.37601075 -0.3067054 0.12360863 -0.3960871 -0.2925204
-0.34746167 -0.26902485 -0.34700385 -0.00271004 0.24455209 -0.18134832 -0.15982029 -0.12838188
-0.423006 0.3460369 0.21445574 -0.028311765 0.19893622 -0.46624014 -0.4146916 -0.07272534
-0.4223603 -0.2059406 -0.025631122 0.07293295 0.13382953 -0.33856073 -0.58701116 -0.38536876
-0.074748084 -0.1499592 0.27320445 -0.3792651 -0.20322876 0.0914341 0.32573307 -0.26024422
-0.42119533 -0.36970326 -0.016558092 -0.33706066 -0.39531657 0.100497805 0.26788452 0.32167408
0.20484677 -0.31632787 0.3605852 0.35367188 0.5751528 -0.09120036 0.14114073 0.22012815

gcn.convs.0.bias f4 [64]
00000000: c353 b6bf 0059 8cbf 4f48 d7be 2cf6 7cbf
00000010: c8e4 8ebf e026 f53d 51c7 8bbf 5121 90bf
00000020: eef1 68bf 7f21 773c 383e 8cbf 183e bfbf
00000030: 0f8b a4bf d617 a9bf ffdd 99bf 2da0 98bf
00000040: 02c1 87bf 600b 91bf e075 89bf 2f76 a6bf
00000050: d1ab 043e e474 9bbf 456b 82be b739 81bf
00000060: 192f 8cbf d39c f4be c8a3 97bf d5fc 94bf
00000070: 2ab6 8ebf b0c5 81bf cebf a4bf bf91 9bbf
00000080: c809 90bf dc81 b6bc 01da 82bf 49f6 7bbf
00000090: b857 77bf b1f4 b8bf 0b0c be3d ff95 73bf
000000a0: ef71 5abf d1cb 973d ee81 2bbe 7056 9bbf
000000b0: 5441 d7be df3f 9ebd ec06 5dbf 1f4e 94bf
000000c0: d8df 77bf c35a bbbf f6e1 b8bf 07cd a6bf
000000d0: b4a0 95bf c162 88be b8b7 3fbf 8d4d a3bf
000000e0: b681 a3bf d4a3 9fbf ee1e a0bf 5b95 84bf
000000f0: 4156 aabf 1c03 77bf c05b 85bf 2eb7 8bbf
-1.4244312 -1.0964661 -0.42047355 -0.9881313 -1.1163568 0.119703054 -1.0920202 -1.1260167
-0.90994155 0.01508367 -1.0956488 -1.4940825 -1.2854937 -1.3210399 -1.2020873 -1.1923882
-1.0605776 -1.1331596 -1.0739098 -1.3004817 0.12956168 -1.2145047 -0.25472465 -1.0095738
-1.0951873 -0.47775897 -1.1846857 -1.1639658 -1.1149342 -1.0138454 -1.2871034 -1.2153853
-1.1252985 -0.022278719 -1.022278 -0.98422676 -0.96618223 -1.4449674 0.09279641 -0.9515075
-0.853301 0.07411922 -0.16748783 -1.2135754 -0.4204203 -0.07727026 -0.86338687 -1.1586341
-0.96825933 -1.4637073 -1.4443958 -1.3031319 -1.1689668 -0.26637843 -0.7488971 -1.2758042
-1.277396 -1.2471871 -1.2509439 -1.035808 -1.3307573 -0.9648912 -1.0418625 -1.0915277

gcn.convs.0.lin.weight f4 [64, 64]
00000000: ce23 80bd 2b90 0cbc 85b8 cc3e f6d1 913c
00000010: 7594 69bd 8513 913d 2d6d db3d 3dfb 9ebe
00000020: ec32 22bd 6610 363e 0ee8 ddbe 1d66 083e
00000030: 7f1b 5dbd 8454 c23e 7832 7c3e 40ad aebe
00000040: 82c2 2d3c d811 6fbd b1ae a3bc 392e 25be
00000050: 2f57 4fbe d425 5dbe fd89 d03e 3488 07be
00000060: 14d6 40be f78f 073e 5b56 abbe 5794 8abe
00000070: d1b1 1ebe 6849 d33e 5b39 9ebd 8d0d 37be
00000080: 5ca9 a83e e29a 14be 907c f53e cdc6 ff3d
00000090: 7ec0 193d 0124 023e b289 ff3e c5df 143e
000000a0: 9682 f53e a4eb fb3c cb3f eebe 6f16 76be
000000b0: 8edb 973e 59c5 95be 2acf 943e a3b5 6dbd
000000c0: 773c 0d3e 95dc cbbe 7fc8 753b 371d 813e
000000d0: 81fa 193e 9452 6c3d 890e b63d 56f9 c33d
000000e0: 2e23 54bc dea6 283d 6e1d 093e 7f23 92be
000000f0: 2c74 ccbd 4cb2 0fbe 3115 8abe c51d 1b3d
00000100: b7c6 0b3e 87fb 4c3d 4160 b53d bef9 fc3d
00000110: 08c1 3a3e 49cd 72be e86d 07bd 504a f83c
00000120: c863 17be 3821 d73e 754b 333d 604a b4be
00000130: 406d a53d 4fe9 1a3d d228 2e3d 6a16 56be
00000140: 43b5 1c3d f29d 05bf 2418 29be 3f8a 563e
00000150: 8a2b 283d 0bdc c83e eadf abbb fe29 973e
00000160: 7b32 173e b384 b93d ed32 123e 976b 53be
00000170: f2f8 c53d 69da 0a3e 3b51 f8bd fac1 46be
00000180: f5a5 6fbe 19b1 ebbd 9629 d03d e035 a3be
00000190: 2a13 353d 8d0d 103e 485e 0b3e 2f2b 83be
000001a0: 69e8 35be 5753 49bd 4653 763b 273c 0b3e
000001b0: fb83 bb3e b99c a23e 26d6 403e 7d5e 103d
000001c0: 373a a33e 5c45 8bbe 5eab 5abc 7d8b 0e3e
000001d0: 5fbe b53d 7f87 85be 7498 debc bb94 1b3e
000001e0: 7727 ed3d 0dce 75bd e3e2 1f3e 3dcc d3be
000001f0: f7cf f1be 269a 673e f70d 00be 1f09 76be
00000200: 6e46 1dbe d0b7 483e 136d b1bd 0576 c93c
00000210: d6ad 6f3e ec73 7dbe be86 b33d 2be2 fe3d
00000220: 2b7a a73d 0be1 843d 5822 d03d 1829 97bd
00000230: 2a8b 59be 25fa 803e 60f6 c8bd 4419 48be
00000240: bc0f 4c3d 37de 43be 764e 92bc 3d1b f6bc
00000250: b68d 4cbe f726 403d a32b 333e fe76 82be
00000260: 8ed9 98be 7923 843d 1f86 833c 6565 1c3e
00000270: 1ff8 4a3d dc8e a03d 17e8 7fbe 7c23 69bd
00000280: 8752 003e 6f80 57be c80e 0d3e 43e7 cebc
00000290: 446a 83be 06c2 263e f56d 3ebe 8852 afbd
000002a0: 1563 ffbd c036 a1be bf83 66bd e2db 023e
000002b0: fd07 f1bd 50d3 edbc 7ada 403b 9923 55bd
000002c0: 9146 343e 9761 9a3e bdfd 9d3e f4c2 fd39
000002d0: 4cd7 58be 9b17 0c3d 0958 113e c04c 11bd
000002e0: 7087 113e 9aee 963d 03df 8bbd 9d47 833e
000002f0: 7797 96bc 5c4a 84be ad3c aebc dd55 763e
00000300: 43c4 4a3e 73b7 033e b7f1 303d 5454 7bbe
00000310: 6c6a 7ebe 5b42 67bd dfea e1be 419e 73bc
00000320: ddff aebd bab3 8f3d 54ec df3d e187 953e
00000330: c2ff c53d ea07 dcbd 4317 c2be ea39 cb3e
00000340: bde1 28be 2594 d13d a700 9abc e147 b13e
00000350: e8ce 98be 14bf 98bd 6ae0 593e 5175 0fbe
00000360: b459 903d 911c 40bd afe7 6fbe 6fa2 0e3c
00000370: d8b7 c239 89bb c33e 6205 2f3e 4844 d0bd
00000380: ee94 e0bd e37e fe3b a35f a13e 8057 c2bc
00000390: 7c23 acbd 7c77 3cbe 0409 133e cf40 96bd
000003a0: 9679 3c3d 1627 31be 0e5e c3bd 63e1 be3e
000003b0: 95fe 823e e4c5 5dbd 1ae3 89be 72c1 2cbe
000003c0: 4e75 77be 9872 213d 5b75 9e3e 62bb 773e
000003d0: 0b7b 803a 3276 453e 3f8b 45be bafc 5bbd
000003e0: 47a9 533c a635 19be 5fde 3bbe 19a8 083e
000003f0: 8c62 33be e8bb 3fbe 0a25 f5bc b4df 5cbe
-0.06256829 -0.008579294 0.39984527 0.017800312 -0.057026345 0.07083801 0.10714183 -0.31051055
-0.039599344 0.17779693 -0.43341106 0.13320203 -0.0539813 0.37955105 0.24628627 -0.34116554
0.010605456 -0.058366627 -0.01998076 -0.16130914 -0.20248102 -0.21596462 0.40730277 -0.13235551
-0.18831664 0.13238512 -0.33464321 -0.270663 -0.15497519 0.41266942 -0.077257834 -0.17876263
0.3294171 -0.14512208 0.47946596 0.1248909 0.03753709 0.12709047 0.4990974 0.14538486
0.47951192 0.03075201 -0.46533045 -0.24031995 0.29659694 -0.29252127 0.29064304 -0.05803455
0.13792597 -0.39816728 0.0037503538 0.25217602 0.15036966 0.05769594 0.08889491 0.095690414
-0.012947841 0.041174762 0.13390133 -0.28542706 -0.099830955 -0.14032859 -0.26969293 0.037870187
0.13650022 0.050044563 0.088562496 0.12352322 0.18237698 -0.23711123 -0.0330638 0.030308872
-0.14784157 0.4201753 0.043773133 -0.35212994 0.080774784 0.037820157 0.042519398 -0.20906988
0.038258802 -0.5219413 -0.16513115 0.20951174 0.041057147 0.3923038 -0.0052451985 0.29524225
0.1476535 0.090585135 0.14277239 -0.20646511 0.09666623 0.1355988 -0.121248685 -0.19409934
-0.23403151 -0.11508388 0.10164182 -0.3187704 0.04420773 0.14067669 0.13610184 -0.25618884
-0.17764439 -0.049151745 0.0037586256 0.13597165 0.3662413 0.31760195 0.18831691 0.03524636
0.31880352 -0.27201355 -0.013346521 0.13920398 0.08874201 -0.26079938 -0.027172305 0.15193455
0.11579793 -0.06001096 0.15613894 -0.4136676 -0.47228977 0.22617397 -0.12505327 -0.24026917
-0.15358898 0.19601369 -0.086633824 0.024592409 0.23406157 -0.24751252 0.087659344 0.12445482
0.081775986 0.06488236 0.101628006 -0.07380885 -0.21244493 0.25190845 -0.09812617 -0.19540888
0.049819693 -0.19127737 -0.017859679 -0.030042285 -0.19975933 0.04691216 0.17497115 -0.2548141
-0.2985348 0.06452078 0.016055165 0.15273054 0.049553033 0.07839748 -0.24990879 -0.056918606
0.12531482 -0.21045087 0.1377517 -0.025256759 -0.25667012 0.16284952 -0.18596633 -0.085606635
-0.1247007 -0.31487083 -0.056277987 0.12779191 -0.11769102 -0.029031426 0.0029427097 -0.0520359
0.17605044 0.3015258 0.3085765 0.00048401172 -0.21175879 0.0342022 0.14193739 -0.035473585
0.14211822 0.073697284 -0.068296455 0.25640574 -0.018382771 -0.25837982 -0.021269167 0.24056192
0.1980143 0.12862949 0.043199267 -0.24543887 -0.24845284 -0.056459766 -0.44124505 -0.014869274
-0.08544896 0.07016702 0.10933748 0.2920523 0.096679226 -0.10743697 -0.37908372 0.39692622
-0.16492362 0.102333345 -0.01879914 0.34625152 -0.29845357 -0.0745832 0.21277013 -0.14009596
0.070483595 -0.046902243 -0.23428224 0.008705719 0.00037139538 0.38229015 0.17091897 -0.101692736
-0.10965906 0.007766591 0.31518278 -0.023723364 -0.084052056 -0.18404955 0.14358908 -0.0733658
0.04601439 -0.17300066 -0.09539424 0.3728133 0.25584856 -0.0541438 -0.26931077 -0.16870669
-0.24165842 0.039415926 0.3094891 0.24192575 0.0009802295 0.19283369 -0.192914 -0.053707816
0.012918777 -0.14961872 -0.18346547 0.13345374 -0.17518061 -0.18724024 -0.029924888 -0.21569711

gcn.convs.1.bias f4 [64]
00000000: db50 983e f402 833e 8e9d 83bf 6824 b13e
00000010: 7bf7 c03e 66ee 2abf 4745 08bf ec07 133f
00000020: c4f9 1c3f 6355 8abf c84c 183e 0fae 013f
00000030: 84ae a3bd f1af 47bf 8f74 103f 9946 193f
00000040: 44a9 093f a7ec aabf 018b 80bf 32ba 0e3f
00000050: 27b1 1cbf 28f8 27bf bfc9 a03e 171e 3cbf
00000060: bffb 103f bc21 a5bf deba 4fbf c90d 90bf
00000070: 1154 c0bf 6b2d 73bf 4fbe 3dbf e3a7 69bf
00000080: bb97 abbf d2f4 90bf f59c 853e 36f8 9f3e
00000090: 303b 7bbf 3c56 15bf bb56 c7be 52e0 9cbf
000000a0: b20d 1ebf fd9d 2fbf ff75 13bf 47c7 59bf
000000b0: 13e1 39bf 80ad 1e3f e8a2 213f 027f 0d3f
000000c0: 281b 16bf 2ab0 ed3e 6629 a8bf 7c09 70bf
000000d0: e424 a13d f508 fabe c4f5 9ebf 2536 c43e
000000e0: 3bf7 033f 4da8 efbe b7de 9fbf e243 223e
000000f0: 0f17 90bf 8253 d93e e4af b73e 1b78 db3d
0.29749188 0.2558819 -1.0282457 0.34598088 0.37688813 -0.6677002 -0.5323071 0.5743396
0.6131861 -1.0807308 0.1487304 0.5065622 -0.079922706 -0.7800284 0.56427854 0.5987335
0.53773904 -1.335347 -1.0042421 0.5575286 -0.61207813 -0.6561303 0.3140392 -0.73483413
0.56634134 -1.290092 -0.8114451 -1.1254207 -1.5025655 -0.9499118 -0.7411851 -0.912718
-1.340568 -1.1324713 0.2609631 0.31244057 -0.9813719 -0.5833471 -0.38933358 -1.2255957
-0.6173965 -0.68600446 -0.5760192 -0.850697 -0.7260906 0.6198349 0.631392 0.55271924
-0.5863519 0.46423465 -1.3137634 -0.9376447 0.078683645 -0.4883496 -1.2418752 0.3832256
0.5154912 -0.4680809 -1.2489842 0.15846208 -1.1257037 0.42446524 0.3587638 0.10716268

gcn.convs.1.lin.weight f4 [64, 64]
00000000: 94c7 41bf ff72 e6be 550a 383e eb0e aebc
00000010: cbb5 d0be ff8d 123d 9788 98be 9678 b8be
00000020: b628 7ebe 3d3a ca3d 0a5b 59bd cebd 57bf
00000030: f4c2 0fbf 9243 16bf afea 1ebf ce8c c8be
00000040: 62dc e9be 962a 9dbe d707 a0be 8dfc 0dbf
00000050: 59a5 d03d 2201 edbe 966a 4f3e 2e0e 99be
00000060: 201e 89be 2fd5 c13c 621c b6be 2e14 78be
00000070: 13c2 10bf 733a 40be 8943 80be 1949 bbbe
00000080: 6ee4 b0be 25fc 97bd 134e c1be 9f91 a5be
00000090: 076d 33be eb58 22bf a945 263e ae94 9fbe
000000a0: c372 b3be 0d82 a43d 4e7e 093e a8aa 99be
000000b0: 5d98 a73c af81 123e 67fb 13bf 4d56 97be
000000c0: 1876 d5be 378f 38bf f201 0ebf 7aa5 8dbe
000000d0: bba8 e8be 46fd c93d eec9 ffbe bb6c a9be
000000e0: 3d59 ccbe 2de1 00bf 0438 95be 7cd0 88be
000000f0: 91c0 19bf b704 38be 23dc 9ebe 431c 81be
00000100: 7904 dfbe 0fb0 9bbe 1629 12bd b2bf 39be
00000110: 9793 ccbe 24aa 703b 1484 3bbe 9002 b4be
00000120: 6786 adbe 6570 a63d fbfe 12be ea49 cebe
00000130: 33cf 0dbf ca4b 02bf 6b9a b7be 8f07 6fbe
00000140: d8c5 a1be b5c4 d0be c283 d3be a7fb bdbe
00000150: 219d f23c 19df d4be ea1f e43d a1d8 e2be
00000160: e676 90be ae97 b8bc d4dd fcbe 118d d4be
00000170: 5a2f e4be 71b3 84be 4402 05bf 880b 82be
00000180: a6c3 85be 181d 743d 5851 0dbf 4fa4 8bbe
00000190: 84d2 23bf aa1f 03bf a810 143d b25d a7be
000001a0: 26d2 41bf d92a 553c 5836 b93d ed81 a0be
000001b0: 6414 08be 24bb cdbb 6695 c9be 7bcb 6ebe
000001c0: 79ce a0be 1729 81be 8a37 adbe 050b 2dbe
000001d0: da80 b7be f183 8b3c 9823 0fbf 074e e4be
000001e0: 5bc1 bbbe 8449 f8be 8d78 90be a1a7 d3be
000001f0: dffd 8ebe bfa5 5ebe e3ba f4be ec33 9bbe
00000200: eb5b 583e b625 543e 142b 8c3d b3b7 903e
00000210: c73a 0c3e 42ad debb bc7b 7c3e b730 a83e
00000220: 454b 043e 009e b0bc f526 243e 3dc4 8c3e
00000230: 7d33 243e 60de 513e 0565 ab3d 5918 2c3e
00000240: 67aa 3e3e 62a1 273e 95a4 9e3e aa91 5d3e
00000250: d8ce 3f3d db11 683e 7f09 acbd 80d3 8a3e
00000260: 2b1e 793e ba07 833e 000a 423e a1d6 863e
00000270: 93c6 b43d f949 c23e 4504 8c3e 202d 833e
00000280: f755 8e3e 0e94 f9bc 5a24 993e c201 823e
00000290: 93c0 463e ed3a 7c3e 36d5 5f3d 106e 093e
000002a0: 8e72 143e 2262 503d dff3 b1bb bc3f 8c3e
000002b0: 4b95 883e 1241 8fbc d75d 803d 5ae4 633e
000002c0: 0d3e 9f3e f033 d13e 4a58 153d 77bc d53e
000002d0: 89d7 423e 594c 83bd adc0 2b3e 2684 9e3e
000002e0: e30c 9e3e 0977 1c3e 0733 b53e 5a8f 5b3e
000002f0: bea7 a13e a908 593e db7f 4c3e 14a5 0e3e
00000300: 43e3 b8be d733 5abe 1072 8e3b 7a4d dabe
00000310: 30ce 84be 8d1e 103d 8640 b4be 9758 51be
00000320: 3ef6 6dbe 37ef f53c e266 19bf a45a aebe
00000330: 57a8 60be 3932 9abe dc7c 94be a8a5 88be
00000340: 76c4 afbe d2f1 98be 2abd 8ebe 7304 a2be
00000350: 5a4f 603a 5ad3 b9be aba4 273e 8dce 17bf
00000360: 8c8f 93be 53e7 79bc 4079 97be 80f9 edbe
00000370: c2b9 0bbf 2b19 a3be 56b8 01bf 65ae dbbe
00000380: c67c 36be 1729 6c3d 3c0a 07bf 3916 6fbe
00000390: f9cb fdbe ae34 f6be 4558 c23d bed9 34be
000003a0: c1a2 d8be 0145 1f3d 8c49 20ba c5df 90be
000003b0: e320 3dbe 121e 9a3d fe13 08bf d15d 27be
000003c0: 46a6 82be 0bd3 cdbe c34f 39be b662 58be
000003d0: 2a5e edbe 6a09 d93d 7267 8ebe b95c 8bbe
000003e0: 35a0 a4be 9a03 0fbe 1967 a9be 400f 36be
000003f0: 3d2c 90be d4c9 cfbd eb16 80be f631 babe
-0.7569516 -0.4500961 0.17972691 -0.021247348 -0.40763697 0.03577995 -0.2979171 -0.360295
-0.24820217 0.09874389 -0.053065337 -0.84273994 -0.5615685 -0.58696854 -0.6207685 -0.39169925
-0.4567595 -0.30696553 -0.3125598 -0.55463487 0.101877876 -0.46289927 0.20255503 -0.2989363
-0.26780796 0.023661224 -0.3556853 -0.24226448 -0.56546134 -0.18772297 -0.25051525 -0.36579207
-0.34549278 -0.0742114 -0.37754878 -0.32337663 -0.1752206 -0.6341693 0.1623751 -0.3116812
-0.35048494 0.08032618 0.13427088 -0.30013013 0.020458395 0.14307283 -0.57805485 -0.2955803
-0.4169166 -0.7209353 -0.5547172 -0.2766531 -0.4544123 0.09862761 -0.49958748 -0.33090767
-0.39911833 -0.5034359 -0.291443 -0.2672156 -0.6005946 -0.17970549 -0.31027326 -0.25216874
-0.435581 -0.3040776 -0.035683714 -0.18139532 -0.39956352 0.0036722505 -0.18312103 -0.35158205
-0.33891603 0.08126906 -0.1435508 -0.40290767 -0.55394286 -0.50896895 -0.3586 -0.23342727
-0.31596255 -0.40775076 -0.4131146 -0.37106058 0.02961594 -0.4157646 0.111388996 -0.443059
-0.28215712 -0.022533264 -0.4938799 -0.41513875 -0.44567376 -0.25918153 -0.5195658 -0.25399423
-0.2612583 0.05959806 -0.55202246 -0.27273795 -0.63993096 -0.5122019 0.036148697 -0.3268867
-0.75711286 0.013010704 0.090435684 -0.31349126 -0.13289028 -0.0062784124 -0.39371794 -0.23319809
-0.31407526 -0.25226662 -0.33831435 -0.16898735 -0.35840493 0.017030688 -0.55913687 -0.4459078
-0.36670956 -0.48493588 -0.28216973 -0.41338828 -0.27928063 -0.21742915 -0.47798833 -0.3031305
0.21128814 0.2071751 0.06844154 0.2826515 0.13694297 -0.0067955563 0.24656576 0.32849666
0.12919338 -0.021559715 0.16030486 0.27493468 0.16035266 0.20494986 0.08368877 0.16806163
0.18619691 0.16370156 0.3098494 0.21637598 0.04682812 0.22663061 -0.08400249 0.27114487
0.24327914 0.25591832 0.18949127 0.26335624 0.088269375 0.37947062 0.27347007 0.25620365
0.2779996 -0.030466106 0.29910547 0.25391966 0.19409399 0.24631853 0.054646693 0.13420892
0.14496824 0.050874837 -0.005430683 0.27392375 0.26676401 -0.017487083 0.062678985 0.22255078
0.31102028 0.40859938 0.036461152 0.4174535 0.19027533 -0.064110465 0.16772719 0.30960196
0.30869207 0.15279783 0.35390493 0.21441403 0.3157329 0.2119471 0.19970648 0.1393016
-0.36110887 -0.21308838 0.0043470934 -0.42637235 -0.2593856 0.035185385 -0.35205477 -0.2044395
-0.23238465 0.030021293 -0.5992261 -0.34053528 -0.21939217 -0.30116442 -0.2900151 -0.26688886
-0.34329575 -0.29871994 -0.27878696 -0.3164402 0.0008556746 -0.3629406 0.1637141 -0.59299546
-0.28820455 -0.015252906 -0.29584694 -0.46479416 -0.5458032 -0.3185514 -0.506719 -0.4290649
-0.17821035 0.057656374 -0.5274999 -0.23348321 -0.4956968 -0.48087066 0.09489492 -0.17661187
-0.4231167 0.038884167 -0.0006114475 -0.28295723 -0.18469577 0.07525267 -0.53155506 -0.16344382
-0.25517482 -0.40200076 -0.18096833 -0.21131405 -0.46360904 0.10597499 -0.27813298 -0.2721918
-0.32153478 -0.13966218 -0.3308647 -0.17779255 -0.2815875 -0.101459175 -0.25017485 -0.36366242

gcn.convs.2.bias f4 [64]
00000000: a224 02bd 155d e93b 7b37 d23c 5905 e5bc
00000010: fe10 4b3d fc36 e53c b30f 4fbc 7417 3f3d
00000020: 7e3a 273e 0111 b2bd 6088 09bd 9356 d7ba
00000030: f558 0fbc c72e e8bc 85d1 62bd 70b7 003b
00000040: a971 8d3d 1717 d7bd e433 6bbb 2412 543d
00000050: 2b2e 583e 28a7 3e3d 7ca6 4bbe b0de 46bc
00000060: 229c 113d 1e59 9d3d ce48 6f3e 599d 46bd
00000070: 1310 c7be 6fe5 18bd 25d3 6a3b 08e0 943e
00000080: c6f8 7c3c 8e08 803c 19df 1bbd a5b5 993e
00000090: ccef 1abd b5c2 18bd 08ca 513c 60e2 6cbd
000000a0: c288 dfbe 6554 773c b320 003d fdfc 853d
000000b0: d682 f2bb 6eae 8bbc 4a94 4c3c 9b74 863d
000000c0: 32ca 5ebd 2437 cc3c 579d f13d 0d86 173d
000000d0: cdd6 053d 6870 4d3c 567c 043d dc0c 1c3e
000000e0: ada6 053d 8402 84bd 7d06 b83c a691 b43e
000000f0: 4abd 59bc 4dc4 a0bd 9090 763c b715 13bd
-0.031773217 0.007121692 0.02566122 -0.027956652 0.049576752 0.02798032 -0.01263802 0.046653226
0.16330907 -0.086946495 -0.033577323 -0.0016428999 -0.008749236 -0.028342618 -0.055375595 0.0019640587
0.069064446 -0.10502451 -0.0035889084 0.051775113 0.21111362 0.04654613 -0.19887727 -0.012138054
0.03554929 0.076830134 0.23367617 -0.048489902 -0.3887945 -0.03732818 0.0035831418 0.29077172
0.015440172 0.01562908 -0.03805456 0.30021396 -0.037826344 -0.037295062 0.012804516 -0.057833076
-0.43659025 0.015095805 0.031281184 0.06542394 -0.0074008508 -0.017050948 0.012486527 0.065652095
-0.054392047 0.024928637 0.11797588 0.036993075 0.032675553 0.012539007 0.03234514 0.1523928
0.032629658 -0.06445792 0.022464031 0.3526737 -0.013289759 -0.078499414 0.015049115 -0.03590938

gcn.convs.2.lin.weight f4 [64, 64]
00000000: ebbb 103e 7d1c 5f3e 117f 57bc 8cca 043d
00000010: 02ba 723e 93d8 80bd a5ca 4dbd 9e43 0cbe
00000020: 6fdd 0a3c e4c3 9bba 958b 873e 3185 633c
00000030: ccac c7bc 8d50 0bbe 5be6 94bc 32dd 54bc
00000040: f2a4 10bc 3f7d 4fbd 6222 ca3d 6ded f5bc
00000050: 4fc9 60bc 8c88 f93d e238 f83d 3ef2 df3d
00000060: 67a3 10ba 3ef4 41be fb53 55bd 17c6 4ebe
00000070: e4b8 96be d8a3 51be d99c 0bbc b59d c03d
00000080: 4252 76be 96ae a9be a154 553c 4a77 863d
00000090: 6d65 603d 0694 0a3e 9d2c 893c d381 7fbe
000000a0: d1a3 e3bc fb33 d5bc 18ce e43d 9713 ddbd
000000b0: e87e 06bd 5865 273d 87b4 e9bd 3b53 813c
000000c0: 7117 5cbd ff01 92bd b9ae 30be f725 253d
000000d0: 741f 703e 8259 be3d 15ac 99bc 13bd 4d3c
000000e0: 5ca3 403b 0362 633d 0e7a cabd f2fa 793e
000000f0: 2900 4fbe 7e9a a13d fd5b 133e 5ab5 833e
00000100: 5731 cb3c 9bb0 60bd ef81 63bc 2645 d53c
00000110: c21c debc 50d1 52bd 19b6 223d 7744 b7bd
00000120: 96c6 b03c 035f b1bd 31ed 40be eb3b 443c
00000130: 08e5 8dbd c51b 0f3d 4c14 e13b 22ee 4f3d
00000140: 415b 17be de83 573d 7dcd 253c b4bd 15be
00000150: 232c 993c bcaa 70bd 2914 943d 4519 ef3d
00000160: 8106 cfbc add8 52bd ae10 c53d 6cee e43c
00000170: 08c1 8f3c b857 9e3d 5ed2 003d 6a4d 94bb
00000180: c11b 963d 62c0 3a3d 12bc b83d 0afe 0c3c
00000190: c8e3 c3bd 7431 fbbc ea1d adbc 46b2 f93d
000001a0: 2b25 aabc c5f3 2e3d 923c b2bd 9ce3 423d
000001b0: 66ed d0bb 9a0c e23d 59e7 5cbc f825 163b
000001c0: 1707 103e de8a 7f3d a5b8 0abe df4e fd3d
000001d0: 0562 c63b 5626 183d e73e bdbc 1177 f93d
000001e0: b271 b83d 8c84 8a3d 5289 81bd 17dd 58be
000001f0: 3462 153c d9df a73d be6f 353e 5fe3 54be
00000200: d2c2 c7bd 33a7 7e3e fba1 9b3c e4fd 343e
00000210: 9078 e53d b39f c03c 139f 963c 69eb 5fbd
00000220: b8c8 2e3d 348b 8bbd d110 bc3e a0ee 47bd
00000230: b38c f2bb 5275 95bd bd63 3cbd 701c 0e3e
00000240: 7d37 873d 63e2 043d b3a8 4a3d 480b 75bd
00000250: fa2a 2d3d c9da 70bd af69 7abd 7d13 1f3d
00000260: 5262 10be 8672 0bbe 8a56 483c 52bd 823d
00000270: a349 57bd fc83 afbd fecb cf3b 3837 7abd
00000280: 9048 2fbc f1bb 59bd bd53 6d3c 7f0b dc3d
00000290: ecde e2bc 6992 fa3d 35fc 7cbc 461f 30bd
000002a0: 7da5 523d 7b21 c1bd 7505 523d ccd3 8cbd
000002b0: 79aa caba 5e1c ec3d 0ead 56bd 6fb3 f03d
000002c0: 8d08 d63d b11a a8bd 5c2a 31bd 0db0 c4bd
000002d0: 4395 743e f80c 013d e75b 4cbd 722d 803d
000002e0: 092b 4bbc 0378 a83c 4090 57bc 56e6 5a3e
000002f0: d3d3 00bd 02b4 e33d 9db6 f63d 5c28 973e
00000300: f55b 273d 7793 603d 6381 263d e580 a03d
00000310: 951f 093d b067 94bd 7e9d b03d 4856 b93d
00000320: 7855 ab3d fcab bfbd a9c2 303e 86f7 2f3d
00000330: ada1 db3d edca 4fbd 4ba3 fe3c 8ffd 8f3b
00000340: c5ea 323c c57b 1bbd d1d6 66bd c23b 0cbe
00000350: e65e 883a 97e5 4fbd b99e b33b 4c82 f7bc
00000360: 99b7 143b bf74 863d 85f8 283e 7ff8 33bc
00000370: 3212 2fbe 8e7e acbc 9a4d 543d 5e56 2a3e
00000380: 7083 02be bd1c 0dbe 490a 943b f650 f33c
00000390: 2732 ab3d cb1f d8bc 90fd b9bd 898d 07be
000003a0: 2283 12bd 2dca 853d a41b acbd 6b64 943c
000003b0: ce83 49bd 685c d13d 6ca5 adbc 57bd a03d
000003c0: 036a f93d ca88 71bd 9ab1 b6bd 41d0 593e
000003d0: 3644 b73d ac63 a23c eb71 d0bc b42e 5dbd
000003e0: 83e5 01bd 14c6 033e 1e37 683c 333e 36bd
000003f0: 7e96 c2bc 89cb 453e 555d 023d 69e7 9f3d
0.14134185 0.21788211 -0.013152854 0.032419726 0.23703769 -0.06291308 -0.050242085 -0.13697669
0.008475645 -0.0011883941 0.2647368 0.013886736 -0.024374388 -0.13604946 -0.018176248 -0.01299219
-0.0088283885 -0.050656553 0.09869839 -0.03002044 -0.013719871 0.121842474 0.121202245 0.10934876
-0.0005517513 -0.18940827 -0.052082043 -0.20192753 -0.29437935 -0.20472658 -0.008521282 0.0940508
-0.24054816 -0.3314101 0.013020665 0.06565721 0.054784227 0.13533029 0.016744906 -0.24951868
-0.027788075 -0.026025763 0.11172122 -0.10794752 -0.03283587 0.040868133 -0.11411386 0.015786758
-0.053733293 -0.07129287 -0.17254151 0.04031941 0.23449498 0.09294416 -0.018758813 0.012557286
0.0029394245 0.055513393 -0.09886561 0.24412134 -0.20214905 0.07890795 0.1439056 0.25724298
0.0248038 -0.054855924 -0.013885959 0.02603395 -0.027113322 -0.051469147 0.039724443 -0.089486055
0.021579068 -0.086607 -0.18840481 0.011977176 -0.0692845 0.034938592 0.0068688747 0.05076421
-0.14780904 0.052615993 0.010119793 -0.14623147 0.018697804 -0.058756575 0.07230408 0.11674742
-0.025271656 -0.05147617 0.09622322 0.02794572 0.0175481 0.07731575 0.03145062 -0.00452583
0.073295124 0.045593627 0.090202466 0.0086054895 -0.0956493 -0.03066323 -0.021132428 0.12192206
-0.020769676 0.042712945 -0.08702959 0.047580346 -0.0063759563 0.1103756 -0.013482892 0.0022910815
0.14065205 0.062388293 -0.13546999 0.12368559 0.0060541653 0.037145935 -0.023101283 0.12180913
0.09006061 0.067635626 -0.0632502 -0.21178089 0.009117652 0.081969924 0.17718408 -0.2078986
-0.09753956 0.24868469 0.018998137 0.17674977 0.11204636 0.02351365 0.0183864 -0.054667864
0.04267189 -0.0681366 0.3673158 -0.048811555 -0.0074020266 -0.07297768 -0.045993555 0.13878036
0.066023804 0.03244246 0.04947729 -0.05982521 0.042277314 -0.0588024 -0.061135944 0.038836945
-0.14100006 -0.13617906 0.012227664 0.06383766 -0.05256046 -0.08570096 0.0063414564 -0.061087817
-0.010698453 -0.05315775 0.014485297 0.1074438 -0.027694188 0.12234957 -0.01544099 -0.042998575
0.051427353 -0.09430214 0.051274735 -0.068763345 -0.0015462182 0.11528848 -0.05241113 0.11752974
0.1045085 -0.08208216 -0.043253288 -0.096038915 0.23885064 0.03150651 -0.049892332 0.06258668
-0.012400397 0.020565039 -0.0131569505 0.21376929 -0.03145201 0.11118318 0.120465495 0.2952298
0.04085918 0.054828133 0.040650737 0.07837085 0.033477385 -0.07246339 0.08623789 0.0904966
0.08365911 -0.09358975 0.17261757 0.042960666 0.107241966 -0.050730634 0.031083724 0.00439424
0.010920231 -0.037959833 -0.05635721 -0.13694671 0.0010404259 -0.050756063 0.0054815677 -0.030213498
0.002269244 0.06565236 0.16501053 -0.010984539 -0.17096785 -0.02105644 0.05183182 0.16634509
-0.12745452 -0.13780494 0.0045178276 0.029701691 0.08359175 -0.026382348 -0.09081566 -0.13237585
-0.03576959 0.065327026 -0.084037095 0.01811429 -0.049197964 0.10222703 -0.021197043 0.07848614
0.12178423 -0.058968343 -0.089205936 0.21270849 0.08948557 0.019822918 -0.025444945 -0.053999618
-0.03171302 0.1286853 0.014173297 -0.04449291 -0.0237534 0.19315924 0.03182729 0.0780781

edge_feature_mlp.0.weight f4 [64, 5]
00000000: f26e 0f80 8e9e 0300 9d80 0080 573c 0000
00000010: c571 0e00 494a 1200 0ed7 0a00 54be 0180
00000020: 340b 0480 5855 0e00 d82d 0580 eac1 0c80
00000030: 337f 0a80 c85e 1080 e615 1680 b9bc 0180
00000040: 794d 0d00 2db1 0b80 8157 0a80 5c8f 0480
00000050: 5262 0200 e340 0480 7483 0980 bbc9 0b80
00000060: 9026 0800 ba11 0c00 31cd 0300 9896 0d00
00000070: ddf8 1000 89ad 0280 fd2d 0980 0065 0a80
00000080: a3da 0800 5531 0b00 1d65 0300 2f9e 0100
00000090: 1866 0500 af70 0c80 c2af 0400 d674 1000
000000a0: bfcc 1580 7ab8 0f80 079d 0600 74b0 0e80
000000b0: ce8b 0e80 b9e9 0000 67f3 0a80 adbb 0200
000000c0: b655 0c80 8e32 1300 532c 0380 029b 0f80
000000d0: 59f2 0600 0252 0f80 d291 0300 5e2f 0b00
000000e0: 1a75 0000 87d3 0c80 68dc 1000 c4bd 0b80
000000f0: 196c 0e80 726f 0f00 3df6 0800 9f02 0680
00000100: c329 0780 4040 1480 71b2 0a80 57f2 0c80
00000110: 7a19 0400 4ce8 0480 e0ab 0b80 97a2 0c00
00000120: 8c7a 0f00 3244 0b80 28ba 0c80 0340 0500
00000130: 6266 0080 4202 0b00 3e9f 1500 bc9b 0f80
00000140: 8e92 0600 8321 0f80 c522 0900 47c5 0b80
00000150: c57c 0480 de23 0000 877b 0380 d988 0600
00000160: a8ba 0400 25c0 1000 945c 0d00 da9c 1480
00000170: 57d4 0000 9fa2 0180 91b1 0800 72dc 0780
00000180: 6a64 0900 af36 0c00 08b5 0600 4e7b 0c80
00000190: 7538 0200 7cd4 0300 834e 0780 16ed 0b80
000001a0: 7471 0800 36f9 0900 8f4c 0900 4fdc 0300
000001b0: e0b2 0b00 8147 0280 99ca 0f80 9dfa 0b00
000001c0: fb02 0e80 4748 1300 b2dc 0680 9017 0780
000001d0: a979 0c80 b28d 0d80 17e6 0880 072e 0d80
000001e0: d557 0300 d6fa 0480 f3f7 0380 9701 0d00
000001f0: 97a2 0300 3b99 0700 8e05 0b00 d8e1 0700
00000200: 2d81 0400 21c6 0380 186e 1400 f1eb 1380
00000210: a07a 1500 564a 0300 04e2 0280 0101 0e00
00000220: 4fd5 0b00 ede0 0800 78a5 1380 d422 0100
00000230: dd7d 1580 6f39 0c80 87b8 0180 c8a3 0a00
00000240: fe61 0780 afe0 0c80 2017 0c00 dc74 0e80
00000250: a20b 0400 822a 0c80 828c 0680 86cf 1180
00000260: 4fba 0000 edf7 0800 187c 0a80 4816 0f00
00000270: 4f83 0980 0ef2 0c00 8cfe 0180 a34b 0a80
00000280: dbe3 0c80 a13d 0880 9b16 0700 e4b3 1400
00000290: 27c0 0400 e762 1080 ccbb 0600 994e 1400
000002a0: b835 0200 22e3 0b00 fc6b 0b80 b73e 0a80
000002b0: e440 0700 1be3 0900 5825 0500 ebc3 0080
000002c0: 8a85 0100 b4b1 0700 db46 0200 6ca4 0780
000002d0: ac2d 0a00 5d57 0b00 2975 0e80 5204 0880
000002e0: f640 0e80 6fbb 0100 67f6 0b80 fdf9 0b00
000002f0: 58f5 0000 4fd7 0a80 2ca6 0b80 12cd 0900
00000300: 29e6 0480 fe0a 0f80 6261 0f80 e36b 0100
00000310: 8c66 0800 f22c 0200 5ed7 0d00 0ff7 0a00
00000320: 24ca 0800 96e0 0d80 e924 0600 ca14 0180
00000330: 8624 0880 a331 0e80 e441 0480 75af 0b00
00000340: 01d2 0180 dbae 0c80 f4d7 0580 bc91 0080
00000350: d3e4 0600 b5f8 0a00 49b6 0a80 3f3a 0280
00000360: e55f 0b80 d0e6 1380 1ea2 0280 c2c1 1300
00000370: 73fd 0580 79d7 0800 3c80 0280 df45 1080
00000380: 1752 1380 5f20 0700 e373 0880 7b72 0a00
00000390: 8cd2 0780 7ac1 0400 3a05 0a00 6701 1380
000003a0: 5a7f 1300 cc45 0f80 f2ca 1380 1f85 0100
000003b0: 5abe 0000 ea8f 0600 80e9 1300 6988 0500
000003c0: 0b21 0100 1a74 0a80 0aec 0080 5447 0b80
000003d0: 2070 0b80 5f34 0880 0289 0100 983f 0280
000003e0: a553 0580 eb59 0f80 976e 1200 eee6 0780
000003f0: 4fcc 0080 3ee6 0200 28fa 0980 67aa 0b00
-1.417332e-39 3.32385e-40 -4.6138e-41 2.1646e-41 1.32651e-39 1.679687e-39 9.95502e-40 -1.60112e-40
-3.71361e-40 1.316313e-39 -4.75623e-40 -1.171589e-39 -9.63985e-40 -1.503369e-39 -2.028237e-39 -1.59536e-40
1.221653e-39 -1.073749e-39 -9.49745e-40 -4.1877e-40 2.18942e-40 -3.90619e-40 -8.73676e-40 -1.082558e-39
7.48518e-40 1.108385e-39 3.49115e-40 1.247884e-39 1.558643e-39 -2.45924e-40 -8.43017e-40 -9.54587e-40
8.13116e-40 1.027887e-39 3.11779e-40 1.48581e-40 4.95802e-40 -1.142449e-39 4.30392e-40 1.511281e-39
-2.001994e-39 -1.44371e-39 6.07344e-40 -1.348996e-39 -1.33585e-39 8.3844e-41 -1.005671e-39 2.50996e-40
-1.132773e-39 1.76301e-39 -2.91407e-40 -1.433139e-39 6.37951e-40 -1.406951e-39 3.27817e-40 1.027183e-39
4.2008e-41 -1.177908e-39 1.548435e-39 -1.078266e-39 -1.324475e-39 1.417511e-39 8.23018e-40 -5.51953e-40
-6.5783e-40 -1.859758e-39 -9.82368e-40 -1.188961e-39 3.76481e-40 -4.50674e-40 -1.071848e-39 1.160352e-39
1.421494e-39 -1.034654e-39 -1.168806e-39 4.8214e-40 -3.6728e-41 1.011e-39 1.985671e-39 -1.4334e-39
6.03587e-40 -1.389554e-39 8.38992e-40 -1.08096e-39 -4.12101e-40 1.2867e-41 -3.1982e-40 6.00105e-40
4.34302e-40 1.538296e-39 1.227072e-39 -1.892978e-39 7.6173e-41 -1.50173e-40 7.98383e-40 -7.2193e-40
8.62541e-40 1.121643e-39 6.15955e-40 -1.14626e-39 2.03924e-40 3.51732e-40 -6.71013e-40 -1.095241e-39
7.75383e-40 9.1592e-40 8.53984e-40 3.54538e-40 1.074359e-39 -2.09322e-40 -1.450211e-39 1.100094e-39
-1.286766e-39 1.770803e-39 -6.30184e-40 -6.51301e-40 -1.14567e-39 -1.244692e-39 -8.17225e-40 -1.210373e-39
3.07015e-40 -4.57325e-40 -3.64454e-40 1.194432e-39 3.33833e-40 6.97817e-40 1.012183e-39 7.23866e-40
4.13682e-40 -3.46582e-40 1.876204e-39 -1.829514e-39 1.972535e-39 3.02173e-40 -2.6475e-40 1.286057e-39
1.086711e-39 8.15372e-40 -1.804233e-39 1.0433e-40 -1.973697e-39 -1.122629e-39 -1.58031e-40 9.77109e-40
-6.78001e-40 -1.182627e-39 1.110322e-39 -1.327618e-39 3.71515e-40 -1.117275e-39 -6.01418e-40 -1.635649e-39
6.6835e-41 8.23623e-40 -9.62871e-40 1.385525e-39 -8.73624e-40 1.188859e-39 -1.8315e-40 -9.45488e-40
-1.183765e-39 -7.56792e-40 6.50958e-40 1.901243e-39 4.36273e-40 -1.504847e-39 6.18382e-40 1.864905e-39
2.02942e-40 1.09167e-39 -1.048928e-39 -9.40853e-40 6.66127e-40 9.0799e-40 4.72574e-40 -7.0282e-41
1.3974e-40 7.06596e-40 2.09089e-40 -7.01832e-40 9.34739e-40 1.04153e-39 -1.327726e-39 -7.36234e-40
-1.309e-39 1.59074e-40 -1.098583e-39 1.09987e-39 8.8013e-41 -9.95593e-40 -1.069802e-39 9.00085e-40
-4.49908e-40 -1.381476e-39 -1.412467e-39 1.30538e-40 7.71471e-40 1.99794e-40 1.27112e-39 1.006983e-39
8.07198e-40 -1.274428e-39 5.64254e-40 -9.9293e-41 -7.47786e-40 -1.303503e-39 -3.90979e-40 1.073133e-39
-1.67171e-40 -1.164752e-39 -5.36647e-40 -5.228e-41 6.331e-40 1.007574e-39 -9.83747e-40 -2.04566e-40
-1.044591e-39 -1.827674e-39 -2.41828e-40 1.814382e-39 -5.50098e-40 8.11981e-40 -2.29673e-40 -1.494433e-39
-1.774323e-39 6.54461e-40 -7.76256e-40 9.59423e-40 -7.18378e-40 4.36748e-40 9.2023e-40 -1.745377e-39
1.79056e-39 -1.402571e-39 -1.817677e-39 1.3959e-40 6.8285e-41 6.0264e-40 1.828638e-39 5.08112e-40
1.03689e-40 -9.60004e-40 -8.4675e-41 -1.035778e-39 -1.050413e-39 -7.53471e-40 1.40985e-40 -2.06484e-40
-4.89183e-40 -1.409789e-39 1.692711e-39 -7.2569e-40 -7.3292e-41 2.66266e-40 -9.16259e-40 1.07132e-39

edge_feature_mlp.0.bias f4 [64]
00000000: 6256 e9bb 7147 b2b0 7c93 05bb 112c 9bab
00000010: 5229 ff85 534a 13b8 b5e0 98b9 ba1a 12b7
00000020: e70a 59a9 9049 6abc 989f d4b9 d139 62bc
00000030: 642b bbba 47d0 dfa9 499b e39a 6306 18b0
00000040: c4d9 52bc 0786 3ebb c839 37bc 8b8b 16bb
00000050: 947c 58b4 a4b6 2b9c 027c 7abb 221c a3a3
00000060: c6f9 6ebc 5d60 aaaa 48ab fda3 4c9b b0bc
00000070: c061 8dbb 9873 523d c12b 97b0 136b 81a7
00000080: b0ad 7ebb 632c de9c 5173 47b7 e4cf 27bb
00000090: 4865 9ebc 0377 cc96 acef aab4 83b3 19ad
000000a0: e005 a7bb 033f 93a6 265c 6990 73b1 febb
000000b0: 6005 62bc 1f88 80af 52d5 53b3 0e92 d1b2
000000c0: 57c3 51bc b4b2 a1bb 0f32 55a6 f262 65bb
000000d0: c96b 263c cdf1 0fbb 9b4a 23bb d7a3 01b8
000000e0: 2bd0 02af 6a92 4db6 cea2 e2b8 f3ce 1abd
000000f0: 5ddf b1a5 bb71 9cbb ec09 21b5 b3bb 46b4
-0.0071208933 -1.2971509e-09 -0.0020382097 -1.1025643e-12 -2.3995263e-35 -3.511675e-05 -0.0002915912 -8.708501e-06
-4.8193136e-14 -0.014299765 -0.00040554698 -0.01380773 -0.0014279899 -9.93932e-14 -9.4135876e-23 -5.5306354e-10
-0.012869302 -0.0029071586 -0.01118321 -0.0022971358 -2.0161889e-07 -5.681521e-22 -0.0038220887 -1.768441e-17
-0.014585918 -3.0264932e-13 -2.7502855e-17 -0.021558426 -0.004314631 0.05137977 -1.0999132e-09 -3.5920783e-15
-0.003886085 -1.4702201e-21 -1.18881735e-05 -0.002560609 -0.019335404 -3.3033084e-25 -3.1839352e-07 -8.736903e-12
-0.005097136 -1.0217253e-15 -4.6022136e-29 -0.0077726184 -0.013795227 -2.3379784e-10 -4.932128e-08 -2.439722e-08
-0.01280292 -0.004934633 -7.396706e-16 -0.0035001603 0.010157534 -0.0021964193 -0.0024916294 -3.0908584e-05
-1.1897387e-10 -3.0632605e-06 -0.000108068445 -0.03779502 -3.0855962e-16 -0.0047743 -5.999161e-07 -1.8508472e-07

classifier.0.weight f4 [64, 192]
00000000: 79c3 42be 806f 06bc bbc9 65be 16e9 9ebd
00000010: 207d f83c 9b8a 1a3e 8632 95be e200 93be
00000020: 49f4 8b3e 1a2c 8dbe cb42 643e e002 763e
00000030: 25eb c1bd fb87 80be 6d5e 9bbd 10d8 2d3e
00000040: 23ac 9c3e 9db0 62be c12d 743e 1889 56bd
00000050: 540e 4fbe e045 83be 4608 9dbe bcdc 903e
00000060: dc5c e4bd 52f9 9e3e 9fa0 2dbe 346f 7cbe
00000070: 0eb7 6e3e 86a2 6bbd 1ea3 603d b61d 93be
00000080: 9d0b bcbd 28de 443e 009b bdbe c0a2 dbbc
00000090: eaa3 6abe 5f9f 05be f9c6 12be 0c46 81be
000000a0: ef7d 79bd 7d24 7c3e 5961 2fbd 78d6 6e3e
000000b0: 98fe 44bd 730b f23d 214e 8fbd cfa8 a13e
000000c0: ebc9 5cbe 7b79 36be 0410 a33e e23a 43be
000000d0: 15e0 e43d 849d 3dbe 02a3 c43d 0fee 9dbe
000000e0: 29da f73d f05a 7dbe d5d1 82bc e015 8d3d
000000f0: 309e a83d 32f6 9dbe dded 3c3d 7198 06be
00000100: e1b0 2a3e fed1 ffb9 a913 3f3d 271a 8e3d
00000110: 74e2 a63b 5f2b e8bd 0701 313e 8ac7 a53e
00000120: 3cb1 94be 778c 4b3e a50f 26bd 2267 aabe
00000130: abd9 e03d a50c 543e 256d b03d 710b 00bd
00000140: 5399 90be 535f 9e3e 2a42 a9be d400 8b3a
00000150: e154 893e cf18 be3e 1dba 913e e28d 80be
00000160: 31b0 efbd 4876 86be 5aad 813e d283 9b3e
00000170: b528 47be c803 623d ac8e 8cbd f4bd 5a3e
00000180: 0952 7dbd 2846 1bbe c9dd 4c3e ba76 613e
00000190: 08d6 6d3e 8f31 1a3e 3feb 05bc f5a9 7b3e
000001a0: 5bdc f5bd 57a9 76be e575 3abd b538 5bbe
000001b0: efb5 0d3e 6916 64bd ae3b 793d 0ed1 06be
000001c0: 22c0 973d ba38 53bc acbb eebd a367 37bc
000001d0: fbf9 14bd 5e7d 4e3d 677d bcbd 8f2d 7f3e
000001e0: a573 08be 92a3 593e 7001 a23d c169 473e
000001f0: 5a36 c63b 7c72 8d3e 7adc ec3c a58d 8f3e
00000200: 09c4 0a93 524f 0980 870b b736 a749 0880
00000210: 1af7 4104 f323 9b1c f61a 0600 f07f d8b4
00000220: a82d 8ca0 0488 06a4 4503 0380 aaa1 123c
00000230: 7ef0 1700 4fd4 0080 d62d 3b16 2bee 0200
00000240: 2aef 8d36 1d77 7937 b341 69b6 5df4 aea7
00000250: b797 0780 ca08 0900 f40e 9037 018b 0480
00000260: dc91 06ba 2084 0300 da97 0480 f877 2034
00000270: 7bf7 18bd 628c 493e 6de9 0000 e61d 3b22
00000280: d03f 60b7 7f9a 0f80 513d 0680 ad07 0a04
00000290: e68b e929 1d9a 6f15 35ee 1300 0b51 5e8d
000002a0: 1842 d12f 18fe 0a00 881a 0c00 5c35 6e0f
000002b0: 85c0 0f3c 9892 0100 bdc4 0780 42c8 0200
000002c0: 527c 06b7 4f33 4e3a 9b09 0b80 ef5e 9a32
000002d0: 6fac 9b3d 0b94 921d 5a33 0130 f09f 0580
000002e0: 304e 0480 ec25 e6b3 767b 0880 8b0b 0339
000002f0: 0557 0a00 f4bc 17b9 4379 0000 9d49 0700
00000300: e207 4c3e b03d b6bc 4a1f 123d f008 05bd
00000310: b0f2 95bd bddb d3bc 0a87 903e 04e9 a53e
00000320: 347c b4bd 5e74 8c3c f090 153d 6af4 9cbe
00000330: 201b 32be feb3 843e 86da 8ebd 53e8 a7bb
00000340: 12fd 3ebe 0fbc ac3e 9512 7dbe e8b6 b8bc
00000350: d001 663e 5e5c 9b3e 96d5 6d3e c3e4 8abe
00000360: fcba b13c f04d 87be 0ae9 083c 9039 663e
00000370: 264e 22be 1fb7 783c 465f af3d 3dc8 bd3e
00000380: 2b2b 2b3b e593 2dbd b43f 413d c512 3b3d
00000390: 5dbc 493e 234a 13be b207 b3bc c8a5 893e
000003a0: ef82 bbbb cc7f fbbd 902d b03d 67f2 45be
000003b0: af0b 1abd 92df 8c3c 0052 ffbd 7809 15be
000003c0: f9da fbbc 7f45 94bd 8272 82be e994 be3b
000003d0: d749 c93d cc79 cabc d9bc 823d 3e0e 3d3e
000003e0: 2424 2fbd 2e59 a53d 5d6e 913d 3001 e9bd
000003f0: c5ad eabc 0a68 193e 7ef6 80bd e61b 653e
-0.1901988 -0.008205295 -0.22440235 -0.07759301 0.030333102 0.15091936 -0.2914011 -0.2871161
0.27334812 -0.2757271 0.22291104 0.24024534 -0.094686784 -0.25103745 -0.0758637 0.16976953
0.3060008 -0.22137685 0.23845579 -0.052376837 -0.2022031 -0.25639248 -0.30670375 0.28293407
-0.11150524 0.3104959 -0.16955803 -0.24651796 0.23312017 -0.05752804 0.05484306 -0.28733605
-0.091819026 0.19225371 -0.37032318 -0.026811004 -0.22914091 -0.13049076 -0.14333715 -0.25248754
-0.060911115 0.24623294 -0.042817447 0.23324001 -0.048094362 0.1181859 -0.06997324 0.31574103
-0.215614 -0.17819779 0.31848156 -0.19065431 0.11175553 -0.18517119 0.09601404 -0.30845687
0.121021576 -0.24741721 -0.015969196 0.06888938 0.08233297 -0.30851895 0.04612528 -0.1314409
0.16669036 -0.00048793847 0.04664961 0.06938582 0.0050929133 -0.113363974 0.17285548 0.323788
-0.2904147 0.19877802 -0.040542264 -0.3328181 0.10979017 0.20707949 0.08614568 -0.03126091
-0.28241977 0.30932102 -0.33058292 0.0010605105 0.2682257 0.37128302 0.28462306 -0.25108248
-0.11703528 -0.26262116 0.2532757 0.30374008 -0.19449122 0.055179387 -0.0686315 0.21361524
-0.061845813 -0.15163481 0.2000648 0.22017947 0.23226178 0.15057968 -0.008173763 0.24576552
-0.1200492 -0.24088036 -0.04552259 -0.21408351 0.13838933 -0.055685434 0.06084793 -0.13165686
0.07409693 -0.012891943 -0.11656889 -0.0111941425 -0.036371212 0.05041253 -0.09203606 0.24919723
-0.13325365 0.21253803 0.079104304 0.19473936 0.0060489597 0.27626407 0.028913725 0.28037754
-1.7514702e-27 -8.54974e-40 5.455167e-06 -7.61105e-40 2.2800504e-36 1.0266332e-21 5.60685e-40 -4.0326222e-07
-2.3747135e-19 -2.9171828e-17 -2.7668e-40 0.0089496765 2.198489e-39 -7.6162e-41 1.5120203e-25 2.6911e-40
4.22997e-06 1.486929e-05 -3.4757948e-06 -4.855964e-15 -6.97274e-40 8.29672e-40 1.71731e-05 -4.17207e-40
-0.0005133429 3.22904e-40 -4.21816e-40 1.4944806e-07 -0.03734539 0.19682458 8.3737e-41 2.5359054e-18
-1.3366298e-05 -1.432955e-39 -5.73009e-40 1.6225347e-36 1.0371547e-13 4.838724e-26 1.830327e-39 -6.8506584e-31
3.806384e-10 1.009507e-39 1.111544e-39 1.17445826e-29 0.008773928 1.44423e-40 -7.13425e-40 2.5551e-40
-8.015968e-06 0.0007865922 -1.013636e-39 1.797113e-08 0.076012485 3.879895e-21 4.70029e-10 -5.16552e-40
-3.9539e-40 -1.07171076e-07 -7.78973e-40 0.00012497434 9.49572e-40 -0.00014470873 4.35e-41 6.69256e-40
0.19924882 -0.022246212 0.03567437 -0.032479227 -0.073216796 -0.025861615 0.28228027 0.3240434
-0.08812752 0.017145332 0.036515176 -0.30655223 -0.1739316 0.25918573 -0.06975274 -0.0051241308
-0.18651226 0.33737227 -0.2471412 -0.022548154 0.22461629 0.30343908 0.23226008 -0.27127656
0.021695606 -0.2642665 0.008356342 0.22482896 -0.15850124 0.015180378 0.08563094 0.37066832
0.002611826 -0.04237737 0.047179893 0.045672197 0.19700761 -0.1438375 -0.021854255 0.26884294
-0.0057223956 -0.12280235 0.0860244 -0.1933075 -0.0376088 0.01719645 -0.12466812 -0.14554393
-0.030744063 -0.07239818 -0.25477988 0.0058160913 0.09828537 -0.02471628 0.06383676 0.18462464
-0.042759076 0.0807365 0.07101128 -0.113771796 -0.028647313 0.14981094 -0.06297015 0.22373924

classifier.0.bias f4 [64]
00000000: e460 6b3f 35e1 df3e 27d8 86bd 8dc1 1a3f
00000010: 6e2b dabc 6ae1 253f bb5b 163f f754 7c3f
00000020: e811 5d3f 777d 2f3f 2fde d03d a171 4a3e
00000030: 480f 343f 91ea 1b3f 31eb 133f 9e47 3a3f
00000040: 84ac 503f ffcf 5f3f 8fd6 dc3e 47be d13c
00000050: e1b3 303e 8f7e 3e3f 6475 9cbe 9497 783e
00000060: 404c 893e 8664 e23e 3be2 ed3e 2853 4cbe
00000070: e57d 03be b206 913d 135e a33e 7979 ba3e
00000080: ad34 5bbd c688 663f 9d61 c7bd 8bf7 2a3f
00000090: 80c8 233f 92f4 073f 44a0 f8bd 35c4 203f
000000a0: e665 5f3e 7bd5 453f 644f 7dbc ddca 483f
000000b0: 3530 513f af42 1a3f ff50 e83d bda1 6abe
000000c0: f50a 3b3f 677c f3bd 4b98 31bd 4fdf 59bd
000000d0: b4d1 1e3d 55e2 213f 6d05 9fbd dca2 b13e
000000e0: 1d61 053f 2e0d a2bd e937 abbd 5634 b73e
000000f0: a315 d6bd b5ff 9dbd cff9 163e 6622 023f
0.9194472 0.43726507 -0.065841965 0.60451585 -0.026632037 0.6479708 0.5873372 0.98567146
0.8635545 0.6855082 0.10198628 0.19769908 0.7033582 0.60904795 0.5778075 0.7276553
0.8151324 0.8742675 0.43132445 0.025603427 0.17256118 0.74411863 -0.30558312 0.24276572
0.26815987 0.44217318 0.46461663 -0.19953597 -0.12840994 0.07081355 0.3190771 0.364208
-0.053517032 0.9005245 -0.09735415 0.6678397 0.63977814 0.5310756 -0.12139943 0.6279939
0.21816215 0.7727887 -0.015460823 0.78434545 0.81714183 0.60258 0.11343574 -0.22913261
0.73063594 -0.11888962 -0.04335813 -0.05319148 0.038774207 0.6323598 -0.07764707 0.34694564
0.5210131 -0.0791267 -0.083602734 0.35782117 -0.104533456 -0.07714788 0.14743732 0.5083374

classifier.3.weight f4 [1, 64]
00000000: db00 18bd e55b 2f3d aea8 093b 2e6d ba3c
00000010: 6a6a 9f3d ec46 3dbd fcbe e73c e53a 36bd
00000020: f69c 1ebd 0454 8fbd 65b8 933d b73a 9b3d
00000030: a861 06bd 8087 cdbc e951 d9bc 20ab 40bd
00000040: 5f2d 4cbd e93c 6ebd 8982 dd3c aea3 3f3d
00000050: f1cd fe3c 6d3d 8bbd ba29 0fbf 63a0 fabc
00000060: 153f 5c3d 6a62 61bc 407c b03c 3742 6b3b
00000070: 0af9 b6be 75e4 c43d bda7 09be 854c e33c
00000080: b1c6 3cbe 7ff4 35bd 50b3 d4ba f93b 08bd
00000090: f1f4 4a3d e642 143d 7c94 033e da8b 083d
000000a0: e3ec 423d ffc4 ebbd 5ab0 f33a 5c9a 30bd
000000b0: 1497 0fbd 2ff1 d63c 9efc 2b3d 2473 96be
000000c0: b330 0bbd 4392 c13c 865d 943d 9fd4 53be
000000d0: 7765 b43d c6c6 fd3c e3e8 413d 72db 00be
000000e0: e7ff b23c 3462 9c3d a991 c93d df58 99bd
000000f0: 175e 68be b552 b73d 1669 a4bd 3fff 2a3d
-0.03711019 0.042812247 0.0021005082 0.022757139 0.07783969 -0.046210214 0.02828931 -0.04448976
-0.03872391 -0.069984466 0.07212905 0.07579558 -0.032807976 -0.025089025 -0.026528316 -0.047038198
-0.049847957 -0.058163557 0.027039783 0.046786956 0.03110406 -0.067988254 -0.55923045 -0.030594056
0.053771097 -0.013756374 0.021543622 0.0035897621 -0.35736877 0.09613887 -0.13442893 0.027746448
-0.1843517 -0.044422623 -0.0016227756 -0.03326032 0.04955 0.03619661 0.12849611 0.033336498
0.047589194 -0.115121834 0.0018591986 -0.04311596 -0.03505619 0.026238052 0.04198896 -0.2938472
-0.03398199 0.023629313 0.07244401 -0.20686577 0.088084154 0.030978572 0.04734124 -0.12583712
0.02185054 0.07635918 0.098422356 -0.07487654 -0.22692142 0.08951322 -0.08027856 0.041747328
